app/src/main/assets/cnn_model_task3_50_3.tflite (tflite, 658692 bytes, 8 tensors)

sequential_35/conv1d_36/BiasAdd/ReadVariableOp f4 [64]
00000000: a73a 48bf 2c9a 8cbf b146 b4be 72c1 0bbf
00000010: 7924 0fbe ca79 323c 5033 87be d3e7 8abe
00000020: 2c7d e3bb 88dc 29be 04d1 34bf fbfa 4abf
00000030: a37f c1be e609 b0be 9b64 293d 104f 61bc
00000040: 8d69 0e3d 7205 dbbe 118c 05bf fab9 0ebf
00000050: 136e 1fbc 2992 70bf 9ff4 003c 30a4 20bf
00000060: d6bd f6be 0d36 01bc a982 78bf 2126 5fbf
00000070: 0791 74bc e71b f5be 870d 5ebf 739d 37bf
00000080: 3087 babe 162f eebd 27ba c3be 7bd3 b6bd
00000090: 6403 b5be 52c3 18bf 41f0 dbbe 5d6d 80be
000000a0: 20e7 e4be db4e adbd 49cc 0dbe 0ef6 2fbc
000000b0: 907e 5bbf 32d5 93bb 2272 78bf ca30 e8be
000000c0: 26e3 81bf fc59 e7bd 1451 8ebe fd25 44be
000000d0: 7263 a6bd bcf8 2abf 9ee4 29be 7b23 0cbf
000000e0: c133 2dbf ffab 7fbe e647 cbbe dd8a ecbe
000000f0: a1d8 6cbf 759b 24bf b5ca 40bc fad4 69bc
-0.78214496 -1.098455 -0.35210183 -0.5459205 -0.13978757 0.010893295 -0.26406336 -0.27129993
-0.006942412 -0.16588032 -0.7063143 -0.79289216 -0.37792692 -0.34382552 0.04135571 -0.01375176
0.03476863 -0.42777592 -0.5216685 -0.5575253 -0.009730834 -0.9397302 0.007870822 -0.6275053
-0.48191708 -0.007886422 -0.9707437 -0.87167555 -0.014927155 -0.4787285 -0.8673939 -0.71724623
-0.36431265 -0.11630075 -0.3822796 -0.089270554 -0.3535415 -0.59673035 -0.42956737 -0.25083438
-0.44707584 -0.08462306 -0.1384746 -0.010739816 -0.85739994 -0.004511499 -0.9704915 -0.45349723
-1.0147445 -0.1129646 -0.27796233 -0.19155116 -0.081244364 -0.6678579 -0.16591117 -0.5474164
-0.67657095 -0.24967955 -0.39703292 -0.46199694 -0.9251805 -0.6429971 -0.011767079 -0.014271969

sequential_35/conv1d_37/BiasAdd/ReadVariableOp f4 [64]
00000000: faf5 82be c357 46bd 154e 16be bb9a 033d
00000010: b1b7 39be 7b55 523e c6b6 17bd dc09 25bd
00000020: 21c2 21be 4c14 41bd e4fd f5be 2434 95bd
00000030: 6ad2 83be cae1 51be f872 1e3e d062 283e
00000040: 88bb b33d b385 41be bb0c 0ebe db60 8d3d
00000050: 9d49 54bd 6883 563d 896a 6bbe 40c0 1a3e
00000060: ea2f bcbe 8db9 b0be cf97 e5bd 98c5 99bf
00000070: 82bb 053e d2f7 b23d ce30 47be 7701 c2bd
00000080: 264c 5cbf ad48 89be 4659 19bc f627 01bd
00000090: e694 eabd f372 8d3e 5d46 84bd ef78 bcbe
000000a0: 9cd1 34bd b392 c9bd eaba 71bd df8a 043e
000000b0: dc34 0c3e 4dd6 06bd b6da c5bd 88d8 53bd
000000c0: b640 c33c c241 0fbe eaf5 ff3d 55d9 22bf
000000d0: 8b03 6ebd ddf8 db3e d577 22be ea92 7fbe
000000e0: b836 77bc d0e9 8abe 5db1 7f3e 34aa 073d
000000f0: ec02 4cbe 63ca 3fbe fc96 97be 05e7 fdbc
-0.2557829 -0.04842354 -0.14678223 0.032129984 -0.18136479 0.2054042 -0.03703954 -0.040292606
-0.1579671 -0.047138497 -0.48045266 -0.07285336 -0.2574647 -0.20496288 0.15473545 0.16443944
0.08776003 -0.18898658 -0.13872044 0.06903239 -0.051828016 0.052371413 -0.22989859 0.151124
-0.36755306 -0.34516564 -0.11210596 -1.2013426 0.1305981 0.08738674 -0.19452211 -0.09472936
-0.86053693 -0.2681326 -0.009359663 -0.03153225 -0.114541814 0.27626762 -0.06458733 -0.36811015
-0.04414521 -0.09842434 -0.059016146 0.129436 0.13692039 -0.032919217 -0.096608564 -0.051720172
0.023834568 -0.13989928 0.12498076 -0.6361287 -0.058108848 0.42963305 -0.15866025 -0.24958387
-0.01508873 -0.2713151 0.24970002 0.033121303 -0.1992299 -0.18729548 -0.2960738 -0.030993948

sequential_35/conv1d_36/Conv1D f4 [64, 1, 3, 3]
00000000: 264a 7a3e 1aad 873d 6c99 77bc a1f9 9abd
00000010: 4900 29be 1dfe 60be 5104 813e 7990 1cbd
00000020: 9bdc 743d 61a6 3ebf 798a cf3e 5b73 563e
00000030: 4758 393e 9878 423e f24a 923e 0858 cc3d
00000040: 444e 8abd 94ec 4bbe adf0 563d 0ec9 a13b
00000050: db2f acbc 88df b9ba 8ab7 8f3d 2215 0e3d
00000060: f493 3cbc b5cb bbbc 9ad1 c2bd 966e 77bf
00000070: 0716 78bf 4856 433e a03a bf3e 196b c3bd
00000080: d4ec fb3c 48a8 48bd 1f71 873f 27f8 ec3e
00000090: 7d8d 883f 2dd0 023f 6e16 633e d73c d33e
000000a0: 3e93 66be d065 a2be 1555 a7be e579 17bf
000000b0: eabc 4bbf be34 57be 7201 b9bd bb78 76bd
000000c0: 5128 7d3d 9761 02be e484 37be 52ce f7bd
000000d0: 6002 1e3d fa7a 08bd 6988 583e 94a1 0bbe
000000e0: 867c 04be 1454 84be 0247 72bf 6b19 483f
000000f0: 7bb1 893e 3353 f33e 4dd0 b3be ffef 32bf
00000100: 1e83 403f 85a7 213e ca91 473f 8e1d 4fbf
00000110: 58fe 3b3f a08d 8bbe 2c67 823d 9a86 20bf
00000120: 2740 173f ce50 383f 8a3f 503f 42cc e33e
00000130: 855d 483d f80c d0be 7d6a 32bf 27af 4ebf
00000140: c813 35bf aab3 4e3f eaa4 4e3f 05d3 0c3f
00000150: b222 2cbe 6b71 8fbd ebcc 09be a691 11bf
00000160: b06c 1abf 0519 11bf 486a 013e f4eb bdbe
00000170: 9df0 9d3d a31b 2e3d 06c8 2a3e 773f f6bd
00000180: dcdd 44be bcb8 273e b2ec cabd 896f c53d
00000190: 002a 82be 40ac c0be 9b2c 0cbe e5ba 563f
000001a0: 676d 07be 5a97 8fbe e526 19be c4e7 a5bd
000001b0: aeb7 9dbd 6875 893d f95f ccbd e618 b23d
000001c0: 5459 483b 012f a0bd 07a6 a43d 6a20 c2bd
000001d0: 3dff 5a3d 8090 8a3f 5905 3abf bcac 953e
000001e0: 11d5 5abe e4a7 113f 4f5e bebe 9454 3abe
000001f0: 61f4 9bbe d71f 813d c927 8fbd 9abf 823c
00000200: db35 253f 74e5 8a3f e189 a63e d093 48bf
00000210: ca1d 80bf 72ea 90be 017b 533d c785 94bc
00000220: 46ee 5e3e fe68 18bf 2dd8 673f 4534 f5be
00000230: 6e1f 11bf 3ae0 2f3f 7c7b bc3e a989 fcbe
00000240: 7354 45bf 577d 85bf ece4 fabe 5244 123f
00000250: b527 843f 536a 013f eefb 8e3e 3bb2 733b
00000260: 2bd3 fabd ed93 813e fea9 413f 0127 203f
00000270: 5c22 453f b11b 783e 2660 033b 25c2 0bbf
00000280: 1fff 1bbf 42db 72bf f9e8 2abc d7aa 083e
00000290: e7b8 1b3f dda1 62be 2422 c9bc 62d5 8f3e
000002a0: c612 e83e d2f5 4cbf 588e dcbe 7e72 833f
000002b0: 9955 683f 8b13 aebe defb 613e 357c d93d
000002c0: cf69 dfbe b1d9 a6be b393 18bf a885 2abf
000002d0: c683 29be 67ca 3f3f 713a 19bf 2f18 b5be
000002e0: 08ee 263f 83d7 fabe 54da 1f3f d4f2 33bf
000002f0: d655 8b3e a57a 00bf 196e 9d3c 9c93 f3be
00000300: 9802 ba3c d401 d63e 8cbb 843e 6b21 d1be
00000310: 49e0 24bd dfb4 d53d 468f b7be b59c dabe
00000320: 02f5 bfbe ed42 33be f17d 6dbe 50db aebe
00000330: 7e1b bf3d 9a23 543f 7850 683f 4455 083e
00000340: 89cf 2fbe 2249 44be 9a80 34bd b1da 253e
00000350: c3f6 c7bd c1a5 aa3d dc9f 3b3d 7e3e ee3c
00000360: 52f8 693d c8c8 2dbe 17af cb3c 612f 8e3e
00000370: cf70 9f3f 9cff b0be ecff 373e 1794 46bf
00000380: 447d c0be 13e6 c13d 62bb 01be ab28 053e
00000390: d975 fe3d 6a54 34bf 2ae6 8e3f a4ff 78bf
000003a0: 3392 1a3f f9b1 80be a3b9 3b3e e12f 9bbc
000003b0: 76a1 7c3e 91fc 9f3d 34ae 923e b80d 6ebd
000003c0: 9cc7 eb3e ec16 0ebf 6d98 31be 5627 053f
000003d0: fcc2 10be 1e38 07be eb34 21be b2c9 90be
000003e0: 1949 7a3e 7ee0 203e 1321 ad3c 706b 873d
000003f0: 4457 2c3e 7b2b fa3d 035f 8ebd dc0c f6bc
0.24442348 0.066248134 -0.015112262 -0.07567144 -0.16504015 -0.21971937 0.25198606 -0.038223717
0.0597807 -0.74472624 0.40535334 0.20942442 0.18100081 0.18991315 0.28572804 0.09977728
-0.06753209 -0.19914466 0.05247562 0.0049372977 -0.021018913 -0.0014180997 0.07017429 0.034688123
-0.011509884 -0.022924284 -0.095126346 -0.96653116 -0.9690861 0.19075882 0.37349415 -0.09541912
0.030752577 -0.04898861 1.0581397 0.46283075 1.0668179 0.510989 0.22176525 0.41257355
-0.22517106 -0.31718302 -0.326821 -0.5917037 -0.79585135 -0.21016213 -0.09033479 -0.06017373
0.061806027 -0.1273254 -0.17921788 -0.12099899 0.038576484 -0.033320405 0.21145786 -0.13635856
-0.12938127 -0.25845397 -0.946396 0.78163785 0.2689322 0.47524413 -0.35119858 -0.69897455
0.7520007 0.1578656 0.7795683 -0.8090447 0.7343497 -0.2725649 0.06367335 -0.62705386
0.59082264 0.719983 0.8134695 0.44491774 0.048917312 -0.40634894 -0.6969374 -0.8073601
-0.7073331 0.80742896 0.8072039 0.5500949 -0.1681011 -0.07004055 -0.13457076 -0.56862867
-0.60322094 -0.566788 0.126382 -0.3709408 0.07711909 0.042506825 0.16677865 -0.12023824
-0.19225258 0.16379064 -0.09908427 0.09640414 -0.25422668 -0.37631416 -0.1368889 0.8387893
-0.13225327 -0.2804516 -0.14956243 -0.081008464 -0.0770105 0.067118466 -0.09979243 0.08696155
0.0030570822 -0.07821465 0.0803948 -0.09478839 0.05346607 1.0825348 -0.7266441 0.29233348
-0.21370341 0.56896806 -0.37181327 -0.18196326 -0.30459884 0.06304901 -0.0699001 0.015960503
0.645353 1.0851274 0.32527068 -0.78350544 -1.0009091 -0.28303868 0.051630978 -0.018130196
0.21770582 -0.59535205 0.90564233 -0.4789144 -0.5668858 0.6870152 0.3681296 -0.49323776
-0.77081984 -1.0428876 -0.4900278 0.571355 1.0324618 0.5055286 0.27926582 0.003718509
-0.12247308 0.2530817 0.7565001 0.62559515 0.77005553 0.24229313 0.0020046323 -0.54593116
-0.6093616 -0.9486581 -0.010431522 0.1334642 0.60829014 -0.22132058 -0.024552412 0.28092486
0.45326823 -0.8006259 -0.4307735 1.0269315 0.9075561 -0.33999285 0.22068736 0.10619394
-0.43635413 -0.3258796 -0.5960037 -0.66610193 -0.16554174 0.74918216 -0.598548 -0.35370013
0.65206957 -0.48992547 0.6244252 -0.702924 0.27213925 -0.5018714 0.019217538 -0.47573555
0.022706315 0.4179827 0.25924337 -0.40845808 -0.040252957 0.10434889 -0.35851496 -0.42697683
-0.37491614 -0.17505999 -0.23192574 -0.34151697 0.093314156 0.82866824 0.90747786 0.13313776
-0.17169012 -0.19168523 -0.044067957 0.16196705 -0.09763863 0.08332396 0.04580675 0.029082533
0.057121582 -0.16971123 0.024863763 0.27770522 1.2456301 -0.34570014 0.1796872 -0.7756972
-0.3759557 0.09467711 -0.12669137 0.13003795 0.124248214 -0.70441306 1.116399 -0.97265077
0.6037933 -0.25135782 0.18332534 -0.018943729 0.24670967 0.07811845 0.2864853 -0.058118552
0.46050727 -0.55503726 -0.17343302 0.52013147 -0.1413688 -0.13205001 -0.15742843 -0.2827888
0.24441947 0.15710637 0.021133935 0.06612289 0.16830164 0.122153245 -0.06951716 -0.030035429

sequential_35/conv1d_37/Conv1D f4 [64, 1, 3, 64]
00000000: ab6a d63d d1b6 9cbe 2030 0fbe 7ce6 00bf
00000010: 98e4 4f3d 2868 debf a454 8b3c 85b0 acbd
00000020: 115f bb3e 8aee b23d 12e1 653e 942c 963d
00000030: 59a2 5a3d ba56 4d3e d901 9d3d 5187 aabd
00000040: deda 83bd 6bad e9be af54 fa3e e84f 9fbf
00000050: e59a 1dbd 9558 dd3d 9dbc 8dbd d418 8c3d
00000060: bfc6 92bf 9232 0dbe ff0a aabc c1fc 1dbe
00000070: 160f ae3e bf3d f4be df08 61be 02ad 1a3e
00000080: 99fc e9be dcaf 7bbe 6e63 71bf 59b8 03be
00000090: 43a8 ccbd 66cf c7bc 981f 14bd 858a bfbd
000000a0: a998 d1be a3c1 9c3d 76e9 92be c048 bd3d
000000b0: b321 a73d d348 9b3c a43e 36bf 9fb6 fd3d
000000c0: 529e f1bc 93b8 86be b297 d0bd a5cb 8cbd
000000d0: e241 a63d e969 403e 6d86 f3bd b84a ee3e
000000e0: 3d1d a4be 9bbd 903e b2c9 b13e 0bf7 38bf
000000f0: eae9 72be c8d1 afbd 8491 33bd 4d57 9f3d
00000100: 8835 2e3e 8731 1dbe 4b11 e63d d6fd 91bf
00000110: 0b80 543c 4ddd f4bf 24a2 d43e 7b03 1f3d
00000120: 8827 853e d3eb 053e 356c 96b9 66d4 d6bb
00000130: bc02 b0bc 5eda 3abd 3053 663d c6a0 3c3c
00000140: 7e35 873d df51 44bd 6f28 a7be 6347 1dc0
00000150: 7d58 973d 1330 02bd 6ec6 2abe c668 72bb
00000160: f958 6ebf 46b2 9dbe 7301 37be 6afc 883d
00000170: 6da0 a73e 91f5 9bbf 136a 863d 1ed4 bebd
00000180: c852 53bf 82a4 9a3d 2958 e7bf 49ac 4ebf
00000190: 4154 8dbe 6e75 64be 421e 103e f9ee 1a3e
000001a0: 3081 803e e5f2 edbb 0867 a7be 61ab 5d3e
000001b0: 1c43 4a3e 7ead b3bd 2fc1 17bf a7c2 4f3f
000001c0: b3f2 b6bc bcf2 d53d 5933 743e c755 0bbe
000001d0: 9c45 2d3d f09c 513e 2c1d 99bb 4da6 073f
000001e0: fb43 b83e 9443 933e 3e33 be3c 3525 8dbd
000001f0: 80a6 003e 1c95 20be 7f13 adbe aab4 563c
00000200: ad92 6abc 390a 0cbd 110a 2c3d e9d9 f2be
00000210: 0f6e 333d c3d2 4abf b292 a33e 0657 17bf
00000220: ae47 ce3e 6cd6 4dbd 0f4c 7cbe bff0 d23d
00000230: 1ee4 efbd c31c da3e c3ad 09be 3d60 8abd
00000240: 9c79 99bd ca8a 2dbd 3da2 6e3e 135b 44bf
00000250: 77a6 d6bb 1fa6 21be 777e 2a3e b82d ff3c
00000260: 2fde b23e 34bd 3dbe 2a01 123e 0d37 3fbe
00000270: 8168 343e 5e98 86bf 6801 27bd d1c4 033d
00000280: f58c 3cbf b39b dd3d 09c7 d1be 1502 25be
00000290: a4e4 8bbf 85a6 67be b289 f3be f399 c5bc
000002a0: b720 0e3f 621d d5be 401d f4be 40e8 e43e
000002b0: 2b46 9f3d b8ff 16be 389f cabe 5563 debe
000002c0: 0910 2abe 4dc1 b4bd 2528 69be 5548 a9be
000002d0: d989 f9be 050d 46bf 3f82 11bd 389a 393e
000002e0: c227 1fbe d96f 333e abd4 073e 2dbf dbbe
000002f0: c77a ce3d b47b 1a3d c5f0 a7bd a5e4 823d
00000300: 0e93 e3bd 2b54 843d 1007 bebd 386e 5a3d
00000310: 7aad bf3d 78fb 813e e0a2 58bf 8692 63bf
00000320: e346 f43d 964b 8c3d 606b d83d c29b 18be
00000330: 53b0 7dbc 5ca6 8fbe 7deb a83c 89e2 183e
00000340: 2fcb 69be 17f9 7ebf af6f c2be 0a32 b13e
00000350: a92a 0e3e 120e da3e 782a 7c3e 998d 97bd
00000360: a0d5 a8be 40b2 b03e d610 a8bd bc35 50bd
00000370: 56da a03e 9087 22bf 5285 6f3e a9d2 adbd
00000380: 20e7 b6be 8eae 9abe ffee b23f 27c5 383e
00000390: e9c0 15c0 4bec 023e 2605 03bf 8daf 00be
000003a0: 9c03 1cbf c921 163e ac9b 19bf 2826 ebbe
000003b0: 5fe7 65be 8d2d e23d 3462 ad3d fd11 fabe
000003c0: a759 55bd 5869 75bf 97c8 15bf 34ad bcbf
000003d0: 79eb b1bf a384 bf3d d785 58bf 5347 803e
000003e0: 654a 35bf 09c3 47bf e8d3 1cbe 947c 1cbf
000003f0: 9613 49be ebd1 a03d 257e 043d 61db ccbe
0.10469564 -0.30608228 -0.13983202 -0.5035169 0.050755113 -1.7375536 0.017008133 -0.08432106
0.36595967 0.08736904 0.22449139 0.07332721 0.053377483 0.20052615 0.07666368 -0.08326591
-0.0643823 -0.4564012 0.48892733 -1.244626 -0.038477797 0.10807911 -0.06920741 0.06840673
-1.1466902 -0.13788822 -0.020757196 -0.15428449 0.33995885 -0.4770336 -0.2197604 0.1510506
-0.4570053 -0.24578804 -0.9429234 -0.12863292 -0.09993031 -0.024390887 -0.036162943 -0.093525924
-0.40936783 0.07654121 -0.28693742 0.092423916 0.081607245 0.018955624 -0.7118933 0.12388348
-0.029494438 -0.26312694 -0.101851836 -0.068747796 0.08118035 0.18790402 -0.11890874 0.4654138
-0.32053557 0.28269657 0.34724194 -0.7225196 -0.23722044 -0.085849345 -0.043839946 0.07780323
0.17012608 -0.15350924 0.11233767 -1.140559 0.012969981 -1.9130036 0.41529953 0.03882168
0.26006722 0.13078241 -0.0002869085 -0.0065560816 -0.021485679 -0.045618407 0.056231678 0.011512941
0.06602 -0.04792964 -0.32648036 -2.457482 0.07389925 -0.03178413 -0.16677257 -0.003698872
-0.9310451 -0.30800074 -0.17871647 0.06688769 0.32739583 -1.2184316 0.06563201 -0.09317802
-0.8254819 0.075509086 -1.8073779 -0.80731636 -0.27603343 -0.22310421 0.14074042 0.15130223
0.25098562 -0.0072616213 -0.32695794 0.21647407 0.19752163 -0.087733254 -0.5927915 0.8115639
-0.022332525 0.104466885 0.23847713 -0.1360694 0.042302713 0.20470023 -0.004672667 0.5298813
0.35989365 0.28762496 0.023217794 -0.06891862 0.12563515 -0.1568188 -0.33803937 0.013104597
-0.014317197 -0.034189437 0.042001788 -0.47431877 0.043806132 -0.79227847 0.31947857 -0.5911716
0.40289062 -0.050253317 -0.24638389 0.10299825 -0.11713432 0.42600068 -0.13445191 -0.06756637
-0.07493898 -0.042368688 0.23304076 -0.7670147 -0.006550606 -0.15786026 0.16649805 0.03114973
0.34935138 -0.18529207 0.14258257 -0.18673344 0.1761799 -1.0515249 -0.040772825 0.03217012
-0.73652583 0.10820713 -0.40972164 -0.16114075 -1.092915 -0.22622116 -0.4756599 -0.02412126
0.5551867 -0.4162398 -0.47678566 0.44708443 0.07777055 -0.14745986 -0.395746 -0.4343516
-0.1660768 -0.08825932 -0.2276922 -0.33062997 -0.48737982 -0.77363616 -0.035524603 0.18125236
-0.1554251 0.17523135 0.1326472 -0.42919293 0.10082012 0.03771563 -0.0820022 0.06391267
-0.11112033 0.06461366 -0.09278691 0.05332777 0.0935926 0.25387168 -0.8462353 -0.8889545
0.11927583 0.068503544 0.10567355 -0.14903167 -0.0154839335 -0.2805661 0.020620102 0.14930166
-0.22831415 -0.9959883 -0.37975833 0.3460849 0.13883461 0.4258886 0.24625576 -0.074000545
-0.32975483 0.34510994 -0.08206336 -0.050832495 0.31416577 -0.634881 0.23390701 -0.08487446
-0.3572321 -0.302113 1.3979186 0.18043958 -2.3398993 0.12785451 -0.5117973 -0.12566967
-0.6094301 0.14661326 -0.6000316 -0.45927548 -0.22451542 0.11043844 0.084659964 -0.4884185
-0.052087452 -0.95863867 -0.585092 -1.4740357 -1.3899986 0.0935147 -0.84579223 0.25054416
-0.7081664 -0.78031975 -0.15315211 -0.6112759 -0.19636378 0.07852539 0.032346863 -0.40011123

sequential_35/dense_38/BiasAdd/ReadVariableOp f4 [31]
00000000: b7f1 6ebe e1e8 423f e183 b13e 0cdc e7be
00000010: 5cd7 a83d 3b19 e1bd 5421 1bbb a0b7 39bc
00000020: 9fd6 0e3e f088 c0be 86a3 ed3e 1940 093e
00000030: d827 213e 6ad1 58be 0245 653d 236f 64be
00000040: 1f0c 853e fe5f 753d 5be1 8ebf 076b a9be
00000050: df84 7f3c 5680 f63e 4c1d d53e b175 42bc
00000060: cf22 8dbc a527 b6bd 4ba5 eb3d 5a3b 163d
00000070: 430a debe 4377 23be 30c3 193e
-0.23334394 0.76136595 0.34670928 -0.4528507 0.082442015 -0.109911405 -0.0023670988 -0.0113352835
0.13949059 -0.37604475 0.4641382 0.13403358 0.15737855 -0.21173635 0.055974014 -0.2230802
0.2598581 0.059906 -1.1162523 -0.33089468 0.015595644 0.48144788 0.41623914 -0.01186888
-0.017228512 -0.0889428 0.115061365 0.036677696 -0.43367204 -0.15963463 0.15015864

sequential_35/dense_37/BiasAdd/ReadVariableOp f4 [100]
00000000: a49f 773f 0f25 6cbf 5165 cdbe 2405 703f
00000010: e617 c6be 48ff 79bd a4bb 78bf 50b1 79bd
00000020: fe82 2bbf 99e7 893d cd50 57be ae78 17bd
00000030: 14b6 d2bf c595 fe3e 9aa3 373e 86bd 323f
00000040: 1e5e eebe 42f8 673f 164a 9ebd 648b a3be
00000050: 8c0c b1be 1ace abbd 3f67 4abe ee43 dabe
00000060: 9b2f 07bf ee5a ab3f 95a3 03bf 6250 6bbf
00000070: 0686 27be 75f0 783f db2b 7b3d caef 8d3c
00000080: a8ed 92bd 4883 2dbf c734 4c3d 21d4 833c
00000090: 87a9 07be 9ec3 313f f34a 1dbf a577 2fbf
000000a0: b2fb 21be 85f5 b6bd 33c3 6dbf d436 97bd
000000b0: bb8d 9fbf b2fd 6dbf abde b7be 2242 dc3d
000000c0: 7daf a23e b157 04be fd81 073f 5d83 7abe
000000d0: 287c 90bf 4c50 c9bd 011d cc3e c39f 94be
000000e0: fafb b23e 0dad f1be edd9 743f 2702 823e
000000f0: 9049 ae3e fa00 88bd 6ae7 57be e700 58be
00000100: 550c f0bc 1803 adbe f703 3b3d 2201 8bbe
00000110: a0ac d5be 0c74 b3bc 4424 b0be af8c 743e
00000120: 4a77 4a3e b47f 563f 0845 133e efbe 97bd
00000130: 880d 3ebe fc95 d93d 9d6a ebbe c009 e33c
00000140: c287 8bbf ddf5 93bd dd5a 91bf 96d6 6dbf
00000150: 7be4 a6bc 8054 353e f57c 8c3d e825 7bbf
00000160: 0c82 a7be c736 c5be 4fdf ddbe f4db fabd
00000170: 5d1e d53e 721e 07bf 99e2 b23e 4496 28bf
00000180: 7917 de3d dbad 70bf 1deb 493d debf 65bf
0.9672797 -0.92244047 -0.4011636 0.93757844 -0.38690108 -0.06103447 -0.97161317 -0.060960114
-0.66996753 0.06733627 -0.21026917 -0.036980323 -1.6461816 0.4972364 0.17933503 0.6982044
-0.4655618 0.90613186 -0.077289745 -0.31942284 -0.34579885 -0.0838892 -0.19765948 -0.4262995
-0.52807015 1.3387125 -0.5142148 -0.9191953 -0.1635972 0.9724191 0.06132112 0.017326254
-0.071742356 -0.67778444 0.04985502 0.016092362 -0.13248263 0.69439113 -0.6144249 -0.6854194
-0.1581867 -0.08933548 -0.92875975 -0.073835045 -1.2465128 -0.92965233 -0.3591207 0.10754801
0.31774512 -0.12924077 0.5293272 -0.24464174 -1.128789 -0.098297685 0.39865878 -0.2902814
0.34957868 -0.4720234 0.9564503 0.25392267 0.340405 -0.06640811 -0.21084371 -0.21094094
-0.029302755 -0.33791423 0.045658078 -0.27149302 -0.41733265 -0.021905921 -0.34402668 0.23881792
0.19772068 0.8378861 0.14381802 -0.074094646 -0.1855985 0.106243104 -0.45979777 0.02771461
-1.0900805 -0.07224629 -1.1355854 -0.9290556 -0.02037262 0.17708015 0.06859771 -0.98104715
-0.32716405 -0.38518354 -0.43334433 -0.12248984 0.41624728 -0.5278083 0.34938505 -0.6585429
0.10844321 -0.9401528 0.049296487 -0.8974589

sequential_35/dense_37/MatMul f4 [100, 1472]
00000000: 6531 acbf 0689 093f 20af 483f 4f25 c23e
00000010: dde9 acbd 6a9b fabd af99 91be 379c 03bf
00000020: d46d a8be c618 033f 7778 aabd 463f 13bf
00000030: b731 46bf 1087 78bf 030a ae3d b61f 9abd
00000040: 78bc ed3d 1809 18be 191b 6ebb 20f6 01bf
00000050: 01ba dabb e051 c23e 6d22 903e b650 76be
00000060: 5f9a 1cbf 3743 55bf c0f2 d33e c363 43be
00000070: 8a37 173e 1960 9cbe b44a ba3e 6f18 933d
00000080: 2ad9 463d fe19 e7be 4fcf 5ebd 508e 353e
00000090: 0550 26bd dae7 48bd 9883 173d b260 9fbe
000000a0: 8d13 6dbe 92d9 3abd 48ef 1c3f 29b1 b33d
000000b0: ba3e e93e bd12 e3be f362 da3e 9546 453c
000000c0: a552 c6be 15e0 8a3e 3045 48bc 19d9 b33e
000000d0: 54c9 3ebf c0b7 2f3f 54b1 a03e 89f3 49bf
000000e0: df5d d83e 4ffe f83e 2eb1 35bf 69d3 ecbd
000000f0: d642 f8be 5664 cebe bd8e ae3d 5f9f b8be
00000100: 306b c4bf 5c27 0d3f ac08 883f 9293 183e
00000110: 0fcf 8d3e a839 a6be 8970 c3bd 8ad1 98bd
00000120: 325c 0bbf e05d c73e 741a 3b3e baa9 f7be
00000130: 553e 34bf 3321 58bf 2fb8 4abe f444 56be
00000140: c66b 22bc 5d99 203e 9d66 323d b6b5 1abe
00000150: 62f6 853c 4f33 3a3e 320c 453d 94bf 45be
00000160: bf9a 4ebf 4958 1bbf 0bc6 b03e 2405 a0be
00000170: bb1e 6c3d 7479 08bf 1b38 ae3d 58ae 893c
00000180: 2b4d b83d 84ee bebe 9157 70bd 05a6 923e
00000190: b520 76bd c4cf 583e 0856 da3d e387 cebe
000001a0: 74f6 05be c222 48bd 5334 e63e 0bb3 433e
000001b0: 7bd8 843e 67d6 c5bc c79a 723e 5f29 443d
000001c0: 5e34 dd3e 3e1a 5d3d dd2c 05be 1d44 a73e
000001d0: 14e6 22bf fee2 143f c4c1 1a3f 987d ebbe
000001e0: 6ff2 ed3e 2b95 843e c750 0dbf c202 a5be
000001f0: e68d 14bf 9aa2 bd3a 1255 94bd 7e7a 9ebe
00000200: 6062 c4bf 8db7 203f a191 913e d279 a33e
00000210: 46d3 3a3d a337 1fbe f21e 85bd d50e dd3b
00000220: 7fc7 92be 1050 2d3f 9b6a 3d3e 84b7 0ebf
00000230: cfd1 62be ac07 08bf 4b76 ecbe 06ec 9abe
00000240: 2f9c 773e 37cc 273e 807a a4bd 0135 03bf
00000250: c723 9e3e 1699 163d 6152 42be 0d06 0dbe
00000260: 936b 1ebf 3512 10bf 4a2e c43e 591a 73be
00000270: 0ced 343e 6c5e 01bf bb06 8cbe c12a 4abd
00000280: 6edf bcbe f7f4 30bf 5bac 893e 0916 933e
00000290: d601 24bc 85cc 293d b7c4 02be c555 30bf
000002a0: 737a 80bc 8664 a5bd f1a9 7d3e 0389 833e
000002b0: b624 a63e a786 2ebe 5a11 a23e fa18 17be
000002c0: 2531 7d3d d3f4 833e ce09 bebd 16dd 35be
000002d0: facd 6bbf 41f4 c23e 081f de3e aebe 2bbf
000002e0: d3d6 0d3f 5f3b 073f 499d 0bbf 3143 3abe
000002f0: ac5a 63bf de6d 91be 356b 7abe 1764 95be
00000300: f4eb eabf 6287 193f 3cbc 1a3f 4ab2 8e3e
00000310: 5a70 84bd e230 92be 15e6 83be c1eb b8be
00000320: a713 adbe ef92 303f ac51 71bd 0b26 25bf
00000330: dc85 9ebe 9090 1fbf feb8 85be dc8d 5cbe
00000340: ea18 1a3e 3c56 e73d 45de 763d d94f 6dbe
00000350: 659f 14be e4ba 9e3e 77f7 843d 115c 42bd
00000360: 7d63 9fbe df15 28bf f901 073f b78b 4f3d
00000370: c35e 0c3e d82f 0bbf 7a32 b53e 0c73 073c
00000380: cc02 efbe 8441 0ebe 83d3 b7be d021 973e
00000390: 6909 82ba 869e ca3d 345f 993d a927 40bf
000003a0: 76a9 9ebe 89a8 473c 8c50 ac3e 513c ff3d
000003b0: 8c4a 3f3e dd0f 7ebe ba22 a53e aef5 743d
000003c0: eeae 59be 111c a03e 2b9f 7ebd f73f b6bd
000003d0: 4dcb 24bf 78ba 0a3f a54b 0b3f 60c4 7bbe
000003e0: 9f46 863f 342e 023f ed1c d6be bbd8 2abe
000003f0: 7d91 5cbf 744b 1dbf c1bc 15bf 390f 84be
-1.3452574 0.53724706 0.7839222 0.3791909 -0.084430434 -0.12236674 -0.28437564 -0.5141024
-0.32896292 0.51209676 -0.08323758 -0.5751842 -0.7741961 -0.9708109 0.08498003 -0.0752558
0.11608213 -0.14847219 -0.003633207 -0.5076618 -0.0066750054 0.3795309 0.28151265 -0.24054226
-0.6117305 -0.83305687 0.4139614 -0.19081025 0.1476728 -0.30542067 0.3638512 0.07182395
0.048546948 -0.45137018 -0.054396924 0.17730069 -0.040603656 -0.049049236 0.036990732 -0.3112846
-0.2315199 -0.045617647 0.61302614 0.08774025 0.4555567 -0.44350234 0.42653617 0.012040754
-0.38734928 0.27124086 -0.012223527 0.3512657 -0.7452595 0.68639755 0.3138529 -0.7888723
0.42259118 0.48631522 -0.7097348 -0.11563761 -0.48488492 -0.40310925 0.08523319 -0.3605909
-1.5345211 0.5513818 1.0627646 0.14900044 0.27697036 -0.32465863 -0.09542949 -0.074618414
-0.54437554 0.38938808 0.1827181 -0.4837168 -0.7040761 -0.8442566 -0.19796823 -0.20924741
-0.0099133905 0.15683503 0.04355489 -0.1510838 0.016352836 0.18183635 0.048107333 -0.19311363
-0.80704874 -0.6068159 0.34526095 -0.31253922 0.057646494 -0.5331032 0.08506795 0.016806766
0.089990936 -0.37291348 -0.05867726 0.28642288 -0.060089786 0.21173006 0.106609404 -0.40338048
-0.13082296 -0.048861273 0.44961795 0.19111268 0.25946411 -0.024150087 0.23691855 0.047891017
0.43204015 0.053980105 -0.13005395 0.32669154 -0.6363232 0.5815886 0.6045191 -0.45994258
0.46474025 0.25895056 -0.5520138 -0.32228667 -0.5802902 0.0014468015 -0.072427884 -0.3095283
-1.5342522 0.62780076 0.2843142 0.3192888 0.045611642 -0.15548567 -0.06500043 0.006746153
-0.28667828 0.6770029 0.18497698 -0.5574877 -0.22150348 -0.53136706 -0.46184 -0.30258197
0.24180673 0.16386496 -0.080311775 -0.5125275 0.3088667 0.036767088 -0.18976738 -0.1377184
-0.61882895 -0.5627778 0.38316566 -0.2374052 0.17668551 -0.505347 -0.27348885 -0.04935718
-0.36889213 -0.69123787 0.2688931 0.2872775 -0.010010203 0.04145481 -0.12770353 -0.68880874
-0.015683388 -0.08075814 0.24771859 0.2569047 0.32449883 -0.17043553 0.31653863 -0.14755622
0.061814446 0.25772724 -0.09279214 -0.17760119 -0.9211117 0.38076976 0.4338305 -0.6708783
0.5540592 0.5282497 -0.54536873 -0.18189694 -0.8881023 -0.28404135 -0.24454959 -0.29177925
-1.8353257 0.599722 0.6044347 0.278704 -0.06466742 -0.2855292 -0.25761476 -0.36117366
-0.33804056 0.689742 -0.05891578 -0.64511174 -0.30961502 -0.6232996 -0.261177 -0.2153849
0.15048566 0.11295745 0.060270566 -0.2317499 -0.14513929 0.3100196 0.06492513 -0.047451083
-0.3113059 -0.6565837 0.52737385 0.05067035 0.13708024 -0.5436988 0.35390073 0.008267175
-0.4668182 -0.1389218 -0.35903558 0.29517984 -0.0009921017 0.09893517 0.07488862 -0.75060517
-0.30988663 0.012186178 0.33655202 0.12462676 0.18680781 -0.24810739 0.32253057 0.05980461
-0.21258137 0.31271413 -0.062163513 -0.08898919 -0.6437271 0.5419078 0.544123 -0.2458663
1.0490302 0.5085175 -0.41818944 -0.16684239 -0.861595 -0.6144326 -0.5849114 -0.25792864

sequential_35/dense_38/MatMul f4 [31, 100]
00000000: af64 453e 46de 5ec0 b88f eebe 42d1 5bc0
00000010: 1b8d 22c0 ee1b 11be e4bb ea3d 7bff 39be
00000020: 477a 3d3e 65e0 86be b816 20bf 91f1 8e3c
00000030: c5ed b4be 5990 00be 4efa 163e 6769 083f
00000040: aa18 3a3f 91b8 023e af6e a63d baa1 54c0
00000050: c97d 0c3f abde 6dbe 50c5 91bd 20c5 d63d
00000060: 7476 92bf 31f0 0e3d 700a 97be 412a ebbe
00000070: dcb9 bfbe 0d4e 243f b6cb 413f e6d5 eebe
00000080: f4f9 433d e533 1fbf ad27 d23d 4aa9 eebd
00000090: 0226 5c3d 8340 013f aabb 14bf 6221 013d
000000a0: a4b2 ed3d 4832 8fbc c5bd ddbd aa92 47be
000000b0: de19 25c0 696e 56bf ed38 cb3d cca5 f3be
000000c0: 66fe 04c0 08ca b53c 10c1 e13e f616 02be
000000d0: f298 babf d257 203e f03e ef3e b966 6bbe
000000e0: dba8 a4c0 b112 e4bd 2c06 96bf a61f b6bd
000000f0: 6212 c4bf 1122 95bf 7f37 efbe 684b 5cc0
00000100: 3629 11bf 52c8 edbd 8b86 55bf 4882 d6bf
00000110: a7a6 c8bf 39d6 0ebe 75df 20bf fd5b 4cbf
00000120: 39ad dbbe 31e8 333c c6af 12be dad6 8c3c
00000130: 1831 013e e3d6 72bc 2017 e2be 10e0 b8be
00000140: d044 eabe 22df 05be 22a0 e2be c6cb bbbf
00000150: 3ddc 7e3f 182d d93e b5d5 1fc0 033e aebf
00000160: aab9 3fbf f06d ef3e 6a2c 383f dd53 133e
00000170: 226a e93d c81c b43f f043 0bbf 4c0e c8c0
00000180: 99c9 d4be 322a a73e 9b4e ffbd c404 d6bf
00000190: cdfa abbf 9d86 a7bf f3ea 8f3d ccb3 85c0
000001a0: 32f0 06c0 4ac2 793d ab46 58be 7cab 4dbe
000001b0: 630e 91bc 41b2 37bf 5a9e 683e 2608 273e
000001c0: a0ce c3be 1cb2 d3c0 922e cebf 1da7 dcbf
000001d0: 60b4 84bf 5b72 7fbf 2a64 5fbc 0d7c 6ac0
000001e0: 3855 45bf 063a f33d 5e0c abc0 4acc cbbe
000001f0: d358 74be 82a7 74be f217 0ec0 48f3 033d
00000200: 3de6 e3be 5ac2 33bf 478e c3bf cc75 24bf
00000210: 2b16 bf3d d45f 39bf 1081 8fc0 1427 73bf
00000220: 3f4e 82bf 44a9 9abc 06c7 463f 6015 863e
00000230: a9b4 a0be d8fd a83d 1661 d83e 1b47 3ebe
00000240: 9f7a 1fc0 dba5 71bf b2c7 a13e ee8e ca3d
00000250: d440 bac0 e547 233e 0bb3 813f 441a 973e
00000260: 54b6 d83d 6a36 1abe 715a a4c0 e1e9 43be
00000270: 9b2c 5dc0 b716 40bf 4091 2cc0 a01e 1f3e
00000280: 1670 38bf 998e 43bf 5186 183c 709c 58be
00000290: 07b2 ff3d a443 123e 6134 253f 475b f9bf
000002a0: 70e8 98bd 3892 f5bd d3a6 f6be 5917 ed3c
000002b0: d8e1 873e b1ef 60bf c67d d83d 612b b1bd
000002c0: 7301 3d3e 7699 fabd 431f 403f 89d8 d93d
000002d0: 0da0 823e 14d2 4fbd 638f e7be dfd3 24bf
000002e0: 4307 97bf 922c 0f3f d922 9d3e 6f54 a1be
000002f0: 7cb2 65bf 4293 65bd a3e0 c6bf 614c 3abe
00000300: 6937 933e 12f0 b2be 6726 d5be 077e 64c0
00000310: 5189 50bf 07fb d6be a297 90be 4ef2 82bf
00000320: 4267 463f 18d8 bfbf fdd8 e63e 895e c0c0
00000330: 39b7 debf e15e 8d3d a461 5cbf cd08 16bd
00000340: a0ee 9d3c f05e f9bd ac18 513e 2b78 af3d
00000350: b608 5ebf cb1f a23d 6bec 36bf 08c2 bd3e
00000360: dd88 833d 85a5 bb3e 1ef3 20be 62ba f3bf
00000370: 7aff 96be 69c0 14be 8f12 44bf 7cff 11bd
00000380: e37e 59be 48cc 593e 7cab 35c0 b352 4abf
00000390: 0c87 82be d867 44bf 2a1d f1be ec06 083e
000003a0: bff0 c83d 47e2 c33e 3d08 0ec0 3584 8cbf
000003b0: 8b2d 9cbd 97d1 423c 5eb7 22bd 5fa9 7c3b
000003c0: cfa5 ca3e 4803 92bc f80a 693e 821f 32be
000003d0: 219c e4c0 eb02 7bbf b409 f8be e564 00be
000003e0: 16ab 8abf 3c25 05be eecb 93be e977 313e
000003f0: ee22 32bf 705e 34be 19e3 e73d 627e db3e
0.19276689 -3.4823165 -0.46594024 -3.434647 -2.5398624 -0.1417081 0.114616185 -0.18163864
0.18503676 -0.26343074 -0.62534666 0.017449172 -0.35337654 -0.12555064 0.14743921 0.5328583
0.72693884 0.12765719 0.0812658 -3.322371 0.5487943 -0.23229472 -0.071177125 0.10486817
-1.1442399 0.034897033 -0.2950015 -0.45930675 -0.37446487 0.64181596 0.75701463 -0.46647567
0.047845796 -0.6218856 0.10261474 -0.11653383 0.053747185 0.5048906 -0.5809885 0.031525977
0.116063386 -0.01748003 -0.10827211 -0.19489542 -2.5797038 -0.8376222 0.09922967 -0.4758743
-2.0780272 0.022191063 0.44092607 -0.12704071 -1.4577925 0.15658501 0.46727705 -0.22988404
-5.1456122 -0.111363776 -1.1720634 -0.08892755 -1.531811 -1.1651021 -0.46722028 -3.4421024
-0.5670351 -0.11610474 -0.8340842 -1.6758509 -1.5675858 -0.13948907 -0.6284097 -0.7982786
-0.42905596 0.010980652 -0.14324865 0.017192293 0.12616384 -0.014821741 -0.44158268 -0.36108446
-0.45755625 -0.130734 -0.44262797 -1.4671562 0.99554807 0.42417216 -2.4974186 -1.3612674
-0.74892676 0.46763563 0.7194277 0.1438746 0.11397196 1.4071283 -0.5440054 -6.251745
-0.41560057 0.3264938 -0.12466165 -1.6720204 -1.3435913 -1.3087956 0.07027235 -4.178198
-2.1084104 0.060976304 -0.21120708 -0.20084947 -0.017707055 -0.7175637 0.22716656 0.16311702
-0.3824358 -6.615492 -1.6107962 -1.7238499 -1.0367546 -0.9978387 -0.013634721 -3.6638215
-0.7708316 0.118763015 -5.3452597 -0.39804298 -0.23862009 -0.23892024 -2.2202115 0.032214433
-0.44511595 -0.7021843 -1.5277795 -0.64242244 0.093304 -0.7241185 -4.4845047 -0.94981503
-1.0180129 -0.01887954 0.77647436 0.26188183 -0.31387833 0.08251542 0.4226157 -0.18581812
-2.4918592 -0.943937 0.31597668 0.09890543 -5.8204136 0.15945394 1.0132765 0.29512227
0.10581651 -0.1505982 -5.13604 -0.19132186 -3.4558475 -0.7503466 -2.6963654 0.15539026
-0.7204603 -0.7638946 0.009309367 -0.21153426 0.12485128 0.14283615 0.6453305 -1.9480981
-0.07466209 -0.1199078 -0.48174152 0.028941797 0.26539493 -0.8786574 0.105708644 -0.08650852
0.18457584 -0.122363016 0.750477 0.10637004 0.25512734 -0.050737455 -0.45226583 -0.6438579
-1.1799091 0.55927384 0.3069065 -0.3150973 -0.8972547 -0.05604864 -1.5537304 -0.18193199
0.28753212 -0.34948784 -0.4163086 -3.570192 -0.8145953 -0.41988394 -0.28240687 -1.0230196
0.7750131 -1.4987822 0.45087424 -6.01154 -1.7399665 0.06902862 -0.8608649 -0.036629487
0.019278824 -0.12176311 0.20419568 0.08567842 -0.8673204 0.0791622 -0.71454495 0.37062097
0.06422589 0.3664972 -0.15717742 -1.9041255 -0.29491788 -0.14526524 -0.7659082 -0.03564404
-0.2123981 0.21269333 -2.8385916 -0.7903244 -0.25493658 -0.76720953 -0.47092563 0.1328389
0.09811544 0.38258573 -2.2192528 -1.0977846 -0.07625874 0.01189079 -0.039725654 0.0038553101
0.39579627 -0.01782383 0.2275809 -0.17394832 -7.1440587 -0.9805133 -0.48444903 -0.12538488
-1.0833461 -0.13002485 -0.28866524 0.17330898 -0.6958455 -0.1761415 0.11322612 0.4286986
