app/src/main/assets/cnn_model_task3_100_20.tflite (tflite, 829456 bytes, 12 tensors)

sequential_3/conv1d_12/BiasAdd/ReadVariableOp f4 [64]
0.032806568 -0.09694142 -0.2911012 -0.26099536 0.028866647 0.02125825 -0.119968235 -0.01735085
-0.32307246 -0.38392547 -0.32433036 0.01991102 -0.18682352 -0.26265448 -0.019338164 -0.34264287
-0.32240587 0.017059352 -0.17937109 -0.06365344 -0.3346438 -0.41798452 -0.40443072 -0.30160764
-0.01232487 -0.34154564 -0.23175208 0.03875526 -0.1963213 -0.27320388 -0.2806062 -0.3001923
-0.27885047 -0.12175731 0.040314805 -0.1953037 -0.31584337 -0.19977473 -0.40873808 -0.28558046
-0.32824117 -0.123749755 -0.13397935 -0.11917249 0.0055598943 -0.13775335 -0.017966723 -0.031834915
0.015909124 -0.38031304 -0.21570666 0.04112032 0.019580279 -0.4143641 -0.24677475 0.034345496
-0.16545087 0.022370761 0.03065691 -0.26465285 -0.39019564 -0.44717488 -0.04271448 -0.30748096
00000000: 2e60 063d 3989 c6bd 370b 95be 2fa1 85be
00000010: bf79 ec3c c825 ae3c e8b1 f5bd 5f23 8ebc
00000020: c169 a5be e191 c4be a10e a6be 6f1c a33c
00000030: aa4e 3fbe a67a 86be 126b 9ebc e36e afbe
00000040: 6212 a5be 0ec0 8b3c 0ead 37be bc5c 82bd
00000050: 6f56 abbe 1102 d6be 8b11 cfbe 516c 9abe
00000060: 40ee 49bc 12df aebe 6b50 6dbe d6bd 1e3d
00000070: 7308 49be 61e1 8bbe 9eab 8fbe ceb2 99be
00000080: 7dc5 8ebe e65b f9bd 2321 253d b1fd 47be
00000090: 39b6 a1be bf91 4cbe 1e46 d1be 9a37 92be
000000a0: 3a0f a8be 8370 fdbd e231 09be b510 f4bd
000000b0: c62f b63b 370f 0dbe f32e 93bc 5465 02bd
000000c0: da53 823c 64b8 c2be 35e2 5cbe c86d 283d
000000d0: d266 a03c 8827 d4be 85b2 7cbe ddad 0c3d
000000e0: f46b 29be e342 b73c 3324 fb3c 9480 87be
000000f0: b9c7 c7be 1bf4 e4be 61f5 2ebd 256e 9dbe

sequential_3/conv1d_13/BiasAdd/ReadVariableOp f4 [64]
-0.018730579 0.032403544 -0.3091122 0.05490166 0.009879782 -0.025946017 -0.022220815 0.022975529
-0.100556605 -0.19292556 -0.018814776 -0.03632951 0.023613881 -0.060292218 -0.04383267 -0.004053517
-0.12918088 0.044735212 -0.15568636 -0.18448661 -0.2462006 0.012169811 -0.09948102 -0.16268435
-0.19876915 -0.029925188 -0.014153955 0.027850987 -0.26623216 -0.0921275 -0.083784096 -0.022828506
-0.12801388 -0.1962058 -0.021711642 0.035868675 0.043391567 0.06498182 -0.03953614 -0.0017673171
-0.2039737 -0.070723005 0.01061805 -0.014313091 -0.019774647 -0.33254096 0.014985412 -0.031282853
-0.051943358 -0.021014577 -0.12998375 -0.051799793 -0.032118134 -0.08791392 -0.08238766 0.056851625
-0.22240351 0.03668615 -0.0004039224 -0.32514662 -0.10779243 -0.13423586 -0.045521047 -0.1378002
00000000: df70 99bc 94b9 043d f443 9ebe 90e0 603d
00000010: cfde 213c be8c d4bc 6d08 b6bc 2d37 bc3c
00000020: 9ff0 cdbd 478e 45be 7221 9abc 41ce 14bd
00000030: e671 c13c f9f4 76bd e389 33bd 5dd3 84bb
00000040: fe47 04be 453c 373d 3f6c 1fbe 0fea 3cbe
00000050: 031c 7cbe e363 473c b4bc cbbd ba96 26be
00000060: 248a 4bbe ab25 f5bc fde5 67bc c127 e43c
00000070: 954f 88be 58ad bcbd ff96 abbd d902 bbbc
00000080: 1216 03be 2cea 48be 9ddc b1bc 08eb 123d
00000090: 5bbb 313d 3015 853d a6f0 21bd 52a5 e7ba
000000a0: 7bde 50be 39d7 90bd 54f7 2d3c 7481 6abc
000000b0: 71fe a1bc cf42 aabe 6085 753c 7322 00bd
000000c0: 8fc2 54bd c326 acbc 761a 05be 052c 54bd
000000d0: 4e8e 03bd 370c b4bd ddba a8bd 40dd 683d
000000e0: bfbd 63be 3744 163d 8cc5 d3b9 9e79 a6be
000000f0: 47c2 dcbd 2075 09be 4774 3abd 7f1b 0dbe

sequential_3/conv1d_14/BiasAdd/ReadVariableOp f4 [128]
-0.048135486 -0.22517332 -0.13321275 0.10111549 -0.0041594193 0.037046827 -0.21609564 0.1304331
-0.11266834 0.06463707 -0.15559134 -0.019274443 -0.14022678 -0.3267895 0.021281576 -0.084679104
-0.05912992 -0.07773669 -0.04989507 -0.09971626 -0.15629745 -0.15331344 -0.0327243 0.15752804
0.11731865 -0.060383055 0.1596932 -0.11536857 0.15428694 -0.050532546 -0.2964155 -0.19208515
0.04763136 -0.14405715 -0.04698364 -0.08808198 0.0029154988 -0.068552 0.077584706 -0.12728104
-0.12116538 -0.20786011 0.05144395 0.113956615 -0.21119137 0.09611817 -0.12911361 -0.034159664
-0.12720698 0.10033397 -0.16361372 -0.19869499 -0.2121437 -0.14659503 0.045381296 0.07816667
-0.12903315 -0.10264249 -0.12273397 -0.2189991 -0.24357964 0.06835194 -0.061894536 -0.07933122
-0.061849635 -0.2696746 0.05371533 0.11046974 -0.09176815 -0.078988604 -0.07272882 -0.27968013
-0.029267337 0.14622085 -0.16208267 0.07209725 -0.1639288 0.037989862 -0.0016469392 -0.0772155
-0.08691466 -0.04187835 -0.041542713 0.06837721 0.13796 0.105560675 -0.44382164 0.030075653
0.0994541 -0.15007903 -0.07449823 0.0685974 0.03495606 -0.09966917 0.17327799 -0.2699254
-0.37861603 -0.0014436574 -0.09322493 0.052897505 0.06100169 0.02281548 0.04527464 -0.049615886
0.15972 0.04118189 0.03305729 -0.09373014 0.15472488 -0.290834 -0.28150505 0.10090822
0.077069096 -0.06324443 0.019703452 -0.0017260714 -0.06620742 -0.10421861 0.04922691 -0.020899989
-0.06601233 -0.06845388 0.09478914 0.02249984 -0.0061638793 0.077632315 0.1822902 -0.0658652
00000000: b729 45bd d693 66be ec68 08be a315 cf3d
00000010: bd4b 88bb 6abe 173d 2d48 5dbe 4190 053e
00000020: a9be e6bd 7160 843d 5653 1fbe 70e5 9dbc
00000030: 9c97 0fbe f450 a7be b356 ae3c 3d6c adbd
00000040: 3732 72bd 6a34 9fbd c65e 4cbd 0a38 ccbd
00000050: 700c 20be 33fe 1cbe ea09 06bd 084f 213e
00000060: c344 f03d 3954 77bd 9d86 233e 5b46 ecbd
00000070: 65fd 1d3e 37fb 4ebd c6c3 97be f8b1 44be
00000080: 1a19 433d b883 13be eb71 40bd 5364 b4bd
00000090: f411 3f3b fe64 8cbd bbe4 9e3d f655 02be
000000a0: 8e25 f8bd 48d9 54be e4b6 523d 1662 e93d
000000b0: 8d42 58be 9ad9 c43d 5c36 04be 01eb 0bbd
000000c0: 8c42 02be e57b cd3d 5b8a 27be b376 4bbe
000000d0: 333c 59be 021d 16be bde1 393d d915 a03d
000000e0: 4421 04be 3a36 d2bd f35b fbbd 4d41 60be
000000f0: f16c 79be 1afc 8b3d 2085 7dbd 6878 a2bd
00000100: 0b56 7dbd ca12 8abe 9b04 5c3d f63d e23d
00000110: f1f0 bbbd c7c4 a1bd d9f2 94bd 3c32 8fbe
00000120: 0ec2 efbc ebba 153e 00f9 25be b9a7 933d
00000130: f4dc 27be 429b 1b3d 1cde d7ba 2923 9ebd
00000140: 5000 b2bd a288 2bbd b128 2abd 5a09 8c3d
00000150: 6345 0d3e 3230 d83d 973c e3be 3761 f63c
00000160: 97ae cb3d 51ae 19be 8792 98bd cb7c 8c3d
00000170: 162e 0f3d 5a1f ccbd c96f 313e a933 8abe
00000180: f6d9 c1be 1b39 bdba b6ec bebd 0eab 583d
00000190: e8dc 793d 88e7 ba3c e771 393d 073a 4bbd
000001a0: a48d 233e 57ae 283d 1567 073d 96f5 bfbd
000001b0: 3370 1e3e 32e8 94be 6e21 90be f8a8 ce3d
000001c0: 67d6 9d3d 4c86 81bd 2269 a13c 583d e2ba
000001d0: c197 87bd 9170 d5bd 28a2 493d 7436 abbc
000001e0: 7931 87bd 8c31 8cbd cf20 c23d 9651 b83c
000001f0: 5efa c9bb b1fd 9e3d 48aa 3a3e 55e4 86bd

sequential_3/conv1d_15/BiasAdd/ReadVariableOp f4 [128]
0.11350775 0.017096248 -0.24759254 -0.14440347 -0.026399897 -0.046908703 -0.13419427 -0.20427068
-0.26409277 -0.013908735 -0.09682627 -0.11144348 -0.006286623 -0.12381885 -0.00084379443 -0.2455606
0.029809425 -0.031218229 -0.14922562 -0.03531161 -0.07985228 0.12010324 -0.052000858 0.12323569
-0.09802544 0.070370875 -0.0006692117 0.11124866 0.04184793 -0.19710469 -0.13196649 -0.057368234
-0.28352472 0.050059453 0.010228118 0.04159215 -0.11973463 -0.013074666 -0.044930167 0.057699323
-0.09254671 -0.039029688 0.039753396 -0.18854146 -0.0070447642 0.054724243 -0.034058277 -0.09539205
0.048544027 -0.0769316 -0.07159738 -0.05736034 -0.018301802 -0.13726795 0.020150028 0.094665304
-0.18688893 -0.10650356 0.049868915 0.07298576 -0.0009308095 0.11201506 0.048493657 -0.019272221
0.0759484 0.11851425 -0.044362158 0.097362496 0.076706305 -0.18061356 0.022849778 0.04940125
-0.017771583 -0.17857647 0.11696775 0.014669333 -0.07139816 0.02751309 0.0211131 0.028150892
0.052562486 0.10508662 -0.053625718 -0.06260805 -0.05662241 -0.15099972 0.07630363 0.04665178
0.08974631 -0.064364694 -0.20830509 0.07791965 0.0987428 -0.107775636 0.11893505 0.12586354
-0.02080046 -0.11977247 -0.03513412 -0.26718527 0.12943888 -0.08738515 -0.12980215 0.034038622
-0.0489049 -0.05363569 -0.09648199 -0.0021930018 0.053719554 -0.0047735735 -0.116692066 -0.014904519
0.10648017 -0.013415107 -0.11874733 0.025864266 0.03630413 -0.18889505 -0.09146704 -0.08655708
0.10249512 0.08029343 0.0805586 0.024699641 -0.14041704 -0.019691188 -0.10889081 -0.09843132
00000000: c076 e83d 6e0d 8c3c e688 7dbe 81de 13be
00000010: 9944 d8bc 5723 40bd 396a 09be 552c 51be
00000020: 2b37 87be 76e1 63bc da4c c6bd 7b3c e4bd
00000030: 0400 cebb bd94 fdbd 1632 5dba 3d74 7bbe
00000040: e532 f43c 5fbd ffbc 9ace 18be e8a2 10bd
00000050: 9889 a3bd b0f8 f53d dafe 54bd fe62 fc3d
00000060: 90c1 c8bd 9b1e 903d 096e 2fba 56d6 e33d
00000070: bc68 2b3d d0d5 49be 3922 07be f4fa 6abd
00000080: 272a 91be 240b 4d3d d693 273c 885c 2a3d
00000090: 6e37 f5bd 2037 56bc b208 38bd 2056 6c3d
000000a0: 2189 bdbd 98dd 1fbd 75d4 223d 0311 41be
000000b0: c4d7 e6bb 8726 603d b180 0bbd e85c c3bd
000000c0: 1ad6 463d 518e 9dbd a6a1 92bd adf2 6abd
000000d0: a9ed 95bc f88f 0cbe ac11 a53c e2df c13d
000000e0: d05f 3fbe 8a1e dabd 5943 4c3d 8f79 953d
000000f0: 9101 74ba 2768 e53d 49a1 463d c7e0 9dbc
00000100: d68a 9b3d 99b7 f23d 18b5 35bd fd65 c73d
00000110: 3218 9d3d c3f2 38be 752f bb3c f758 4a3d
00000120: b695 91bc c0dc 36be ca8c ef3d a457 703c
00000130: 3339 92bd 2263 e13c 61f5 ac3c b39c e63c
00000140: c34b 573d a737 d73d a4a6 5bbd a638 80bd
00000150: e6ec 67bd ac9f 1abe 1445 9c3d f015 3f3d
00000160: eacc b73d a3d1 83bd ee4d 55be 5694 9f3d
00000170: aa39 ca3d 79b9 dcbd 3894 f33d 5fe2 003e
00000180: ba65 aabc 454b f5bd cce8 0fbd 82cc 88be
00000190: a08b 043e fcf6 b2bd dbea 04be 156c 0b3d
000001a0: 8150 48bd 19b1 5bbd 5998 c5bd 77b8 0fbb
000001b0: 0909 5c3d a36b 9cbb 40fc eebd 1532 74bc
000001c0: 4612 da3d 09cb 5bbc cd31 f3bd 4ce1 d33c
000001d0: a4b3 143d b46d 41be 1253 bbbd d744 b1bd
000001e0: f6e8 d13d e270 a43d e8fb a43d e756 ca3c
000001f0: 7cc9 0fbe 6a4f a1bc 2502 dfbd 5c96 c9bd

sequential_3/conv1d_12/Conv1D f4 [64, 1, 3, 3]
0.4705379 0.6770025 0.19156957 0.15220791 -0.2642759 -0.36904863 -0.32177705 -0.2604433
-0.28304946 0.5334799 0.36866316 0.21401925 0.26692912 0.025060888 -0.2967286 -0.43735883
-0.38815832 -0.28142312 -0.0018412827 0.06220117 0.3098345 -0.27486736 -0.028182488 -0.008290412
0.016179513 -0.00595519 0.07018916 -0.035448868 -0.34829697 -0.09396625 -0.34247103 0.24911252
0.12091337 0.07422198 0.25656223 0.13961186 -0.35781258 -0.19573517 -0.48411942 -0.2543565
-0.10729254 -0.25684044 0.4132937 0.58219904 0.64631295 -0.46716192 -0.23138998 -0.15792182
0.08594806 0.033782285 0.34903395 0.4894202 0.12218614 -0.21563812 0.28588358 -0.2616134
-0.116742864 -0.078169 0.20810738 0.25517485 -0.411819 0.18289353 -0.075576425 -0.18431377
-0.10910445 -0.11064384 0.034542505 -0.10196937 -0.08188091 0.03227999 0.19955641 -0.07424911
-0.03996735 -0.025706332 0.08935806 0.09256691 -0.015161522 -0.13817006 0.0562687 0.00871939
-0.005012915 -0.08030981 -0.10504419 -0.11034345 0.06835987 0.143638 0.007711516 0.011765902
0.19866768 -0.30732226 0.21789362 0.20961584 0.10928819 0.13154219 0.098944016 -0.07795753
-0.19584438 -0.12481393 -0.36650506 -0.14379269 0.40567884 -0.066834345 0.5644951 0.22887129
-0.30929625 -0.25390625 -0.36707062 0.005058454 -0.15472849 -0.24545558 0.08098533 -0.090603046
-0.18836541 -0.1691719 0.02837175 0.3834409 0.4497287 0.09328403 -0.31574777 -0.12635532
0.23166537 0.32161868 -0.08984665 -0.09093487 0.22453927 -0.09536966 0.35222825 -0.16692168
-0.32880524 -0.22826786 0.40210256 -0.336868 0.21207306 0.18941493 -0.023860509 -0.097356655
-0.04917748 -0.21736154 -0.13646397 0.3184681 -0.0945164 -0.14784668 0.38333878 0.07334372
-0.15558471 -0.22684442 -0.17698243 -0.24169973 -0.013472339 -0.07854215 0.14027016 0.35186422
0.33271015 0.21914314 0.40063596 -0.07684907 -0.41597417 -0.23451763 0.44991353 -0.14057817
0.09037889 -0.33168817 0.2705607 -0.29433346 -0.08458093 0.03323538 -0.036827013 0.23536694
-0.14732905 -0.21193591 0.3003216 -0.07557537 0.16898328 -0.4312993 0.25856888 0.039177373
-0.31766045 0.30050454 0.11942923 -0.08852121 0.14017579 0.23839808 0.21409631 0.2073928
0.07243536 -0.026195543 -0.27361465 0.03818738 -0.3669404 0.23291855 0.34971902 0.1616645
0.06428472 -0.1825855 -0.24776733 -0.24660748 -0.06274486 -0.07577016 0.074217804 0.19769971
-0.3097948 -0.29163292 -0.31787875 -0.0035161544 -0.16567168 0.0970803 0.2460279 -0.0019283518
0.343121 -0.200457 0.19983359 0.060173556 -0.3625512 0.08659983 0.13767275 -0.20501724
0.18651532 -0.37076694 0.37188897 -0.29844165 -0.2592273 0.2514195 0.36024582 -0.19736786
0.046645526 0.1753714 0.10271623 -0.19334382 -0.08397053 0.24312475 0.20779246 0.14448695
-0.1637703 -0.29298985 0.24810973 0.087983504 -0.21507844 -0.20145763 0.036518607 0.2611105
0.24637568 -0.30859905 -0.1592391 0.51070905 0.46424967 0.36905366 -0.0035476557 -0.13914676
-0.45824197 -0.53472215 -0.37712532 0.13395725 -0.36341292 -0.0421394 -0.23488088 0.27780282
00000000: 58ea f03e 0950 2d3f d02a 443e 64dc 1b3e
00000010: 2c4f 87be f1f3 bcbe f6bf a4be d358 85be
00000020: dceb 90be 2492 083f 6bc1 bc3e dd27 5b3e
00000030: efaa 883e 7e4c cd3c d0ec 97be 7fed dfbe
00000040: b0bc c6be b116 90be 3257 f1ba a7c6 7e3d
00000050: a1a2 9e3e 6abb 8cbe f6de e6bc 82d4 07bc
00000060: e68a 843c c123 c3bb 56bf 8f3d d532 11bd
00000070: fb53 b2be 6171 c0bd 5d58 afbe 5a17 7f3e
00000080: 6ea1 f73d b201 983d 205c 833e 69f6 0e3e
00000090: 3633 b7be cd6e 48be 80de f7be 043b 82be
000000a0: 31bc dbbd 9780 83be 3b9b d33e ff0a 153f
000000b0: c474 253f d92f efbe 7ff1 6cbe 42b6 21be
000000c0: 8905 b03d 4b5f 0a3d 94b4 b23e 4995 fa3e
000000d0: ba3c fa3d 3dd0 5cbe 555f 923e 31f2 85be
000000e0: e216 efbd 1217 a0bd 1a1a 553e 47a6 823e
000000f0: f1d9 d2be 7148 3b3e d0c7 9abd c0bc 3cbe
00000100: 2772 dfbd 3d99 e2bd 717c 0d3d 51d5 d0bd
00000110: 2eb1 a7bd 0638 043d 8458 4c3e eb0f 98bd
00000120: ceb4 23bd 1696 d2bc 5c01 b73d b893 bd3d
00000130: 0868 78bc 747c 0dbe 027a 663d c6db 0e3c
00000140: 6143 a4bb 7879 a4bd 6921 d7bd bffb e1bd
00000150: 4200 8c3d d715 133e e3b0 fc3b c5c5 403c
00000160: 8a6f 4b3e 5859 9dbe 811f 5f3e 89a5 563e
00000170: 7dd2 df3d ffb2 063e 29a3 ca3d 33a8 9fbd
00000180: 6e8b 48be 729e ffbd 8da6 bbbe 643e 13be
00000190: 23b5 cf3e 72e0 88bd c082 103f 3c5d 6a3e
000001a0: 145c 9ebe 0000 82be aef0 bbbe 63c1 a53b
000001b0: 2571 1ebe b558 7bbe a3db a53d 178e b9bd
000001c0: dde2 40be 663b 2dbe df6b e83c 5e52 c43e
000001d0: d742 e63e b30b bf3d b1a9 a1be 4a63 01be
000001e0: b039 6d3e 34ab a43e 8501 b8bd 103c babd
000001f0: 9fed 653e 2b51 c3bd 4357 b43e 84ed 2abe
00000200: 2959 a8be 0dbf 69be 63e0 cd3e f679 acbe
00000210: ae29 593e fdf5 413e 1d77 c3bc ed62 c7bd
00000220: 536e 49bd 0694 5ebe 36bd 0bbe 400e a33e
00000230: d091 c1bd 1f65 17be fb44 c43e 3b35 963d
00000240: 9951 1fbe e749 68be e23a 35be 2280 77be
00000250: 16bb 5cbc b5da a0bd fba2 0f3e 8c27 b43e
00000260: fc58 aa3e 0f67 603e 2820 cd3e 0c63 9dbd
00000270: 91fa d4be 6425 70be 115b e63e b9f3 0fbe
00000280: 9118 b93d 08d3 a9be ef86 8a3e e0b2 96be
00000290: c438 adbd d221 083d ecd7 16bd 0804 713e
000002a0: 6ddd 16be ba05 59be c1c3 993e 42c7 9abd
000002b0: f409 2d3e 43d3 dcbe 2463 843e 7478 203d
000002c0: 64a4 a2be bbdb 993e 5097 f43d 9c4a b5bd
000002d0: 3e8a 0f3e a01e 743e 103c 5b3e c75e 543e
000002e0: fd58 943d 0998 d6bc 3817 8cbe 5f6a 1c3d
000002f0: 9ddf bbbe 3382 6e3e 5f0e b33e 618b 253e
00000300: b5a7 833d b1f7 3abe b8b6 7dbe ac86 7cbe
00000310: 6180 80bd 632d 9bbd 81ff 973d cb71 4a3e
00000320: 6d9d 9ebe e950 95be 01c1 a2be 486f 66bb
00000330: d6a5 29be 09d2 c63d bdee 7b3e c0c0 fcba
00000340: 8ead af3e 9a44 4dbe 2da1 4c3e 8c78 763d
00000350: 50a0 b9be 405b b13d 16fa 0c3e 0af0 51be
00000360: dffd 3e3e 2ad5 bdbe 3b68 be3e 58cd 98be
00000370: 71b9 84be 0fba 803e 2472 b83e cd1a 4abe
00000380: 610f 3f3d 8f94 333e e35c d23d ecfb 45be
00000390: bef8 abbd b2f5 783e 8cc7 543e 63f4 133e
000003a0: 67b3 27be c402 96be 7a10 7e3e b230 b43d
000003b0: 863d 5cbe e94a 4ebe 8994 153d 47b0 853e
000003c0: e849 7c3e b200 9ebe 930f 23be d4bd 023f
000003d0: 22b2 ed3e 9af4 bc3e c97f 68bb 7d7c 0ebe
000003e0: b19e eabe 8de3 08bf 9216 c1be 172c 093e
000003f0: 4211 babe 5d9a 2cbd 9d84 70be 2c3c 8e3e

sequential_3/conv1d_13/Conv1D f4 [64, 1, 3, 64]
-0.23304212 -0.4643806 -0.06044873 0.28192443 0.0006462399 -0.42065993 0.24425857 -0.05103541
-0.113100186 0.1562734 0.048926894 0.15239681 0.15074797 0.15423541 0.280885 -0.10641341
0.110951066 -0.3009449 0.30644712 -0.16393678 -0.035880756 -0.010420273 0.18052384 -0.411292
-0.26344234 -0.14633612 -0.1502833 0.15922105 -0.021297421 0.04837787 -0.09062309 0.17771307
0.12472485 -0.10821892 -0.32666466 -0.22856818 -0.022114048 -0.08245303 0.21862161 0.057530362
-0.10203532 -0.5399552 -0.3376496 0.11584402 -0.12817633 -0.11136213 0.012467599 0.1153397
0.11667473 0.17326988 -0.049545303 0.5899534 -0.76685077 0.32947522 0.21016672 0.22823049
-0.008494494 0.274427 -0.49935806 0.024222204 -0.08041259 -0.03990512 -0.055705674 0.050245892
0.29448307 -0.49432302 0.040963907 -0.076050945 -0.15335059 0.080800556 0.038970724 -0.0822739
0.11805025 -0.22737457 0.082348935 -0.26244095 -0.0010553186 -0.22457935 0.15021288 0.009313647
-0.100680776 0.5307305 -0.20092689 -0.015957434 0.052920695 -0.0151026435 0.024802012 -0.20734529
0.075854935 -0.15748528 0.4338644 0.03568505 -0.01663847 -0.043915983 -0.04434716 -0.16553731
0.051578555 -0.8270573 -0.073196135 0.13893054 -0.010487061 0.17859104 0.30252126 -0.08031184
0.09826108 -0.34330845 0.059796743 -0.5163238 0.1677807 0.07403857 0.18871248 -0.20803444
-0.22336987 -0.011708404 0.041576136 -0.335277 0.21945545 0.0814412 -0.09963563 -0.042814888
-0.16871668 -0.5551575 0.78268784 0.011061269 0.029331956 0.063110426 -0.27060694 0.0085935155
-0.049398486 -0.26343492 -0.32488388 -0.086571544 0.089276336 0.34242117 -0.20262755 0.15867487
-0.01514554 0.050365157 0.00021868688 0.10829827 0.059536323 -0.07972998 -0.45446777 0.024281625
-0.048040956 -0.22370687 -0.22059502 0.1278615 -0.38163307 -0.32655278 -0.06438863 -0.034969278
0.16458276 0.127158 -0.29027018 -0.20322426 -0.030545395 -0.003177798 0.10008497 -0.02821488
-0.12789671 0.0011708317 0.36967906 -0.083640456 0.173163 -0.16450435 -0.66164356 0.11596561
-0.25226736 -0.12954211 -0.19187722 0.4355145 0.048767153 -0.051034115 -0.24320605 0.022728354
0.09326406 0.019375013 -0.02634924 -0.22430708 0.53064346 -0.48949674 -0.11195716 -0.14448377
0.10773007 0.18403445 -0.27104738 0.17493232 -0.07445256 0.13895528 0.21835962 -0.0720114
-0.28467909 0.9191102 -0.016914768 -0.3053786 0.40143022 0.08853853 -0.20005256 0.17428437
-0.25114086 -0.23241512 0.18932012 -0.09979817 -0.8066389 -0.257358 0.07616493 -0.33977666
-0.36602265 -0.06514632 0.12703143 0.024939679 -0.07018035 -0.123751625 -0.11968278 0.1847619
-0.08596448 -0.17816179 0.09713483 -0.14771852 0.074966185 -0.18222922 0.16494288 -0.028753279
0.07665084 -0.41287798 -0.02999663 0.011796738 -0.047809854 -0.08045693 -0.07678045 -0.055066448
-0.6174024 -0.56546295 -0.70633614 -0.5753791 -0.18501307 -0.62341493 0.19482109 -0.19111086
0.17693664 -0.19478045 0.182221 0.1911206 0.1130122 0.051607393 0.25060433 -0.4988101
0.00054095674 0.25511348 0.20849927 -0.6528007 -0.30169335 -0.03448883 -0.04208839 -0.45788467
00000000: 98a2 6ebe 4bc3 edbe 1699 77bd 6658 903e
00000010: 6d68 293a bd60 d7be eb1e 7a3e 820a 51bd
00000020: 12a1 e7bd 2206 203e 9167 483d e90d 1c3e
00000030: ad5d 1a3e e3ef 1d3e 29d0 8f3e 46ef d9bd
00000040: 503a e33d 7315 9abe a3e6 9c3e 0bdf 27be
00000050: b3f7 12bd cbb9 2abc 3edb 383e dd94 d2be
00000060: eae1 86be 23d9 15be dee3 19be d80a 233e
00000070: ee77 aebc e027 463d 9998 b9bd 6afa 353e
00000080: be6f ff3d e2a1 ddbd 9740 a7be c70d 6abe
00000090: 8528 b5bc 22dd a8bd 58de 5f3e f5a4 6b3d
000000a0: e5f7 d0bd 813a 0abf 69e0 acbe a13f ed3d
000000b0: a840 03be d411 e4bd e644 4c3c 3837 ec3d
000000c0: 29f3 ee3d a96d 313e 04f0 4abd 3007 173f
000000d0: 5550 44bf fab0 a83e f235 573e 41b5 693e
000000e0: 7d2c 0bbc b281 8c3e dcab ffbe a56d c63c
000000f0: 5baf a4bd 8d73 23bd a22b 64bd a3ce 4d3d
00000100: 7cc6 963e e817 fdbe c5c9 273d 99c0 9bbd
00000110: f007 1dbe c37a a53d c49f 1f3d 387f a8bd
00000120: 54c4 f13d e1d4 68be 8fa6 a83d a95e 86be
00000130: 9e52 8aba 21f8 65be 68d1 193e 4498 183c
00000140: b931 cebd f4dd 073f c7bf 4dbe 2ab9 82bc
00000150: 5fc3 583d 1471 77bc 972d cb3c 5352 54be
00000160: d559 9b3d d243 21be 7a23 de3e 7d2a 123d
00000170: 674d 88bc 3fe1 33bd 5ea5 35bd 9d82 29be
00000180: 0944 533d 07ba 53bf dbe7 95bd cf43 0e3e
00000190: ecd1 2bbc 92e0 363e 11e4 9a3e 897a a4bd
000001a0: 1b3d c93d 20c6 afbe 6eed 743d cc2d 04bf
000001b0: b4ce 2b3e 89a1 973d d83d 413e fb06 55be
000001c0: 12bb 64be 9bd4 3fbc bd4b 2a3d 6da9 abbe
000001d0: eeb8 603e a5ca a63d c40d ccbd aa5e 2fbd
000001e0: 11c4 2cbe cd1e 0ebf 3b5e 483f 533a 353c
000001f0: 9249 f03c 0a40 813d fe8c 8abe d1cb 0c3c
00000200: 1156 4abd f1e0 86be 2e57 a6be 6c4c b1bd
00000210: 83d6 b63d d451 af3e 997d 4fbe aa7b 223e
00000220: 0025 78bc b24b 4e3d 504f 6539 7ccb dd3d
00000230: 5cdc 733d 7949 a3bd 00b0 e8be 42ea c63c
00000240: 98c6 44bd 6a13 65be a9e3 61be 20ee 023e
00000250: 6965 c3be ed31 a7be 30de 83bd f23b 0fbd
00000260: 6288 283e b535 023e 4b9e 94be 051a 50be
00000270: 563a fabc 9a42 50bb 59f9 cc3d e422 e7bc
00000280: 5bf7 02be 9876 993a 9346 bd3e b04b abbd
00000290: a451 313e d473 28be 7961 29bf 617f ed3d
000002a0: 3029 81be b0a6 04be 767b 44be c2fb de3e
000002b0: 11c0 473d 2609 51bd 020b 79be d030 ba3c
000002c0: 3a01 bf3d 59b8 9e3c 5dda d7bc c1b0 65be
000002d0: 40d8 073f 519f fabe cc49 e5bd 8ef3 13be
000002e0: 95a1 dc3d 8773 3c3e b9c6 8abe 7521 333e
000002f0: 957a 98bd 4b4a 0e3e aa99 5f3e b67a 93bd
00000300: 75c1 91be ce4a 6b3f d790 8abc 955a 9cbe
00000310: 4388 cd3e b053 b53d 94da 4cbe 9a77 323e
00000320: 8995 80be 3bfe 6dbe 22dd 413e fc62 ccbd
00000330: e37f 4ebf 6ec4 83be 5cfc 9b3d 35f7 adbe
00000340: 5267 bbbe 6f6b 85bd 8714 023e 4c4e cc3c
00000350: b7ba 8fbd 7e71 fdbd 3f1c f5bd 3932 3d3e
00000360: 250e b0bd 0b70 36be a0ee c63d 8643 17be
00000370: df87 993d 4c9a 3abe c9e6 283e ff8b ebbc
00000380: 1efb 9c3d be64 d3be 7ebb f5bc 1b47 413c
00000390: 44d4 43bd 9ac6 a4bd 123f 9dbd 5b8d 61bd
000003a0: 150e 1ebf 2ec2 10bf 72d2 34bf 0b4c 13bf
000003b0: 1174 3dbe 1f98 1fbf 2e7f 473e 91b2 43be
000003c0: e12e 353e 8774 47be 2498 3a3e 1eb5 433e
000003d0: f172 e73d 4662 533d 364f 803e 0a64 ffbe
000003e0: fece 0d3a 3c9e 823e d580 553e f21d 27bf
000003f0: 8d77 9abe 2944 0dbd e064 2cbd dc6f eabe

sequential_3/conv1d_14/Conv1D f4 [128, 1, 3, 64]
-0.0045292573 -0.38255098 0.011011797 -0.022779195 -0.05936396 0.5634899 0.054291207 -0.06681929
-0.1873043 0.046799805 -0.66883343 -0.116675615 -0.26109615 -0.025814788 0.068486 -0.4908675
-0.26385036 0.07546832 0.10827524 0.1864963 -0.11182046 0.025647845 -0.09678941 0.21403825
0.3637811 -0.01439231 -0.09778609 -0.3757325 0.07587294 -0.00088980043 -0.4235089 0.096372925
-0.10133061 -0.0872712 -0.19341168 -0.10861579 0.25677872 -0.06731093 -0.48667073 -0.34507293
-0.09527335 -0.08596581 -0.08752088 -0.31737185 0.010604028 0.090478554 0.15492193 -0.22677855
-0.16085352 -0.19153343 -0.24559428 0.00033775665 -0.207075 -0.3873417 -0.011500551 -0.17582403
0.0031599272 -0.67508125 -0.051516812 -0.18283583 -0.09825438 0.16616184 0.44493905 0.13183899
0.000106483465 0.09698601 0.4056507 -0.038889308 -0.083383024 -0.38777676 -0.0940336 -0.095709205
-0.22306722 -0.13021488 0.16611949 0.017848201 0.27529728 0.051298745 0.08842452 0.13619009
-0.12876023 0.21944618 -0.40669292 -0.34180728 -0.13266268 0.045635995 0.029934704 0.028593363
-0.33856693 -0.10303587 0.36102048 0.09090744 -0.17665018 0.008550203 -0.30532742 0.04456386
-0.24049087 0.16526556 -0.22723737 0.27215782 0.29597792 0.16794647 0.39186525 -0.28805292
-0.42678687 -0.10371739 -0.37494272 0.39775917 -0.00044618236 -0.025290981 0.10558585 -0.068781435
0.1561837 -0.17134564 -0.035399787 -0.0880535 -0.08105048 -0.46366763 0.021335322 -0.040584873
-0.34113944 -0.44563743 -0.2733976 -0.14068505 -0.044429723 0.23373894 -0.25929135 0.013618288
-0.06937651 0.11569297 -0.012566316 0.033588316 -0.25885954 -0.4101537 0.072806194 -0.14004874
-0.18627867 -0.06644501 -0.23215085 0.11105386 0.0030259027 0.014561633 0.06558505 0.06359334
-0.2938724 -0.15640454 0.09245729 0.09748057 -0.16347463 -0.25116748 -0.064130045 -0.08738684
-0.03151638 0.0072467257 -0.22433367 -0.031046594 -0.271381 0.1757136 -0.090536006 0.023228932
0.04599445 0.342467 -0.040793803 -0.4615339 -0.21834649 -0.2527547 -0.050215278 -0.24588029
-0.2555436 -0.004007546 -0.47413233 0.0008643691 -0.4522606 -0.2518834 0.22518946 0.09304319
-0.1576471 -0.14832585 -0.035135895 -0.07943618 -0.23880436 -0.18791912 -0.012228272 0.14714555
-0.041885745 -0.14700925 -0.18952277 -0.017043076 0.0886105 0.011557159 -0.10652348 0.029269328
0.388849 -0.16756523 -0.00090549217 0.12499108 -0.0033442015 -0.27790868 -0.15530422 0.23385091
0.07928265 -0.08010111 0.22478409 -0.5819282 0.10253065 -0.09862542 -0.11116722 -0.38123807
-0.14678144 0.27344167 0.08492248 -0.12054722 -0.10825104 0.08308248 0.057474557 -0.37762693
-0.07033374 -0.06580215 -0.010044489 -0.050859682 -0.31328902 0.0207212 0.14881745 -0.07928094
-0.058611736 0.08702068 0.1247837 0.16369878 -0.6131796 0.12378546 -0.10010248 -0.02802424
0.06739019 0.015030908 -0.044739872 -0.11101439 -0.16168594 -0.29645878 -0.11649006 -0.39949256
-0.14848763 0.12628907 -0.11637669 0.13700958 0.17034416 -0.37567988 -0.042726167 -0.17400058
-0.0108986385 0.1169088 0.14958622 -0.031405926 -0.29392302 -0.30755293 -0.3954001 0.06893647
00000000: 2a6a 94bb b9dd c3be d36a 343c 6f9b babc
00000010: a027 73bd e040 103f 7560 5e3d 8dd8 88bd
00000020: b3cc 3fbe 27b1 3f3d ab38 2bbf a0f3 eebd
00000030: 65ae 85be 8979 d3bc 6342 8c3d fc52 fbbe
00000040: 6517 87be 228f 9a3d 69bf dd3d e3f8 3e3e
00000050: 2002 e5bd 6e1b d23c 8739 c6bd d82c 5b3e
00000060: 8441 ba3e b9cd 6bbc 1344 c8bd 0360 c0be
00000070: 4663 9b3d 7f41 69ba 29d6 d8be 2b5f c53d
00000080: 6c86 cfbd 3ebb b2bd b60d 46be f571 debd
00000090: 8078 833e 50da 89bd e82c f9be 66ad b0be
000000a0: ad1e c3bd d80e b0bd 263e b3bd 907e a2be
000000b0: 84bc 2d3c d24c b93d dba3 1e3e a338 68be
000000c0: c9b6 24be 5721 44be 117d 7bbe ee14 b139
000000d0: 780b 54be a751 c6be cf6c 3cbc 370b 34be
000000e0: c816 4f3b 20d2 2cbf 4b03 53bd 5139 3bbe
000000f0: 9839 c9bd 5426 2a3e 0dcf e33e cd00 073e
00000100: e04f df38 9aa0 c63d 73b1 cf3e 654a 1fbd
00000110: b8c4 aabd ad8a c6be b094 c0bd 3003 c4bd
00000120: bc6b 64be 0d57 05be 3a1b 2a3e 6436 923c
00000130: c4f3 8c3e a21e 523d ea17 b53d 6a75 0b3e
00000140: b9d9 03be 80b6 603e 0e3a d0be 5d01 afbe
00000150: bad8 07be cfec 3a3d a039 f53c a13c ea3c
00000160: a558 adbe 7804 d3bd add7 b83e ae2d ba3d
00000170: c9e3 34be 2716 0c3c e053 9cbe 9888 363d
00000180: 3d43 76be 603b 293e eab0 68be 4558 8b3e
00000190: 6b8a 973e 29fa 2b3e 90a2 c83e ac7b 93be
000001a0: cf83 dabe c869 d4bd 7ef8 bfbe 17a7 cb3e
000001b0: 95ed e9b9 082f cfbc 653d d83d 48dd 8cbd
000001c0: 9fee 1f3e 3b75 2fbe 5eff 10bd 6555 b4bd
000001d0: cbfd a5bd d865 edbe 6ac7 ae3c 533c 26bd
000001e0: d4a9 aebe 972a e4be c5fa 8bbe be0f 10be
000001f0: f1fb 35bd 4359 6f3e d6c1 84be 3d1f 5f3c
00000200: 4615 8ebd 70f0 ec3d f3e2 4dbc e793 093d
00000210: 3d89 84be aaff d1be 6a1b 953d f068 0fbe
00000220: d6bf 3ebe 5214 88bd f4b8 6dbe 3570 e33d
00000230: 394e 463b ea93 6e3c 7451 863d 3a3d 823d
00000240: 7176 96be 8328 20be 3f5a bd3d e5a3 c73d
00000250: e565 27be 0699 80be 9d56 83bd dff7 b2bd
00000260: 5217 01bd f175 ed3b bab7 65be 6d55 febc
00000270: 73f2 8abe 44ee 333e f16a b9bd 9a4a be3c
00000280: ad64 3c3d d657 af3e 6717 27bd 2c4e ecbe
00000290: 3996 5fbe 1069 81be 89ae 4dbd 0bc8 7bbe
000002a0: 9cd6 82be bc51 83bb 79c1 f2be d496 623a
000002b0: b48e e7be dcf6 80be 1198 663e 6e8d be3d
000002c0: 3e6e 21be bbe2 17be a8ea 0fbd 70af a2bd
000002d0: 2189 74be df6d 40be 1759 48bc 53ad 163e
000002e0: 6390 2bbd 9889 16be 4212 42be ec9d 8bbc
000002f0: 6c79 b53d 3d5a 3d3c fb28 dabd 3bc6 ef3c
00000300: 3717 c73e 3896 2bbe 8d5e 6dba 53fb ff3d
00000310: 642a 5bbb 0c4a 8ebe 1208 1fbe 9d76 6f3e
00000320: f15e a23d 0d0c a4bd cd2d 663e 3ff9 14bf
00000330: 97fb d13d 20fc c9bd a4ab e3bd a331 c3be
00000340: e04d 16be 8c00 8c3e d6eb ad3d 76e1 f6bd
00000350: b9b2 ddbd 2627 aa3d 716a 6b3d 5158 c1be
00000360: 230b 90bd 47c3 86bd a491 24bc 3e52 50bd
00000370: 6b67 a0be 82bf a93c 9a63 183e 0c5e a2bd
00000380: dc12 70bd e637 b23d 998e ff3d a7a0 273e
00000390: 57f9 1cbf 3b83 fd3d 8702 cdbd 1793 e5bc
000003a0: de03 8a3d 3344 763c 2841 37bd 835b e3bd
000003b0: 0091 25be 72c9 97be 5792 eebd 4a8a ccbe
000003c0: 240d 18be ec51 013e e756 eebd 3d4c 0c3e
000003d0: b36e 2e3e 1d59 c0be a201 2fbd 352d 32be
000003e0: 3490 32bc e26d ef3d 212d 193e 80a3 00bd
000003f0: 147d 96be 9477 9dbe e271 cabe 902e 8d3d

sequential_3/conv1d_15/Conv1D f4 [128, 1, 3, 128]
-0.24555485 -0.2925426 -0.009304949 0.13263234 0.13846152 0.28810754 -0.32564372 -0.07785795
0.021852154 0.2909274 0.12929504 0.062400695 -0.101301864 -0.11999789 -0.028127752 -0.10485042
-0.09510532 -0.3600761 -0.09226294 -0.44018844 -0.17132297 -0.008371173 -0.049212627 -0.2448465
0.01173205 -0.19955295 -0.33095348 -0.030523488 0.22692838 0.15779687 -0.3051577 0.033339433
-0.103933066 0.14088954 0.031055681 -0.18472156 -0.073814705 0.119986825 -0.22574441 -0.07822053
-0.12484391 -0.19826902 0.060426116 0.12105725 0.14161445 0.13403504 0.26018745 -0.018588686
-0.098117925 -0.2731676 0.16073023 -0.022256406 -0.3128487 -0.18389668 0.13124093 -0.1407821
-0.45103964 -0.06318998 0.0052418853 0.10181887 0.06377682 0.09958632 0.09117714 0.051358413
-0.23635878 -0.28052157 -0.24083424 0.08321039 -0.053026866 -0.009926773 0.018180506 -0.17196122
-0.19183384 0.12616503 0.3327406 0.14871912 0.11277604 -0.14600386 -0.084104486 0.015787615
0.030453235 -0.014409537 0.04591614 -0.9445071 -0.03165178 -0.15184224 -0.3641207 -0.048609197
0.059246566 0.040770303 -0.25876248 -0.09113305 -0.0072042365 0.16591406 0.024751507 0.15601943
-0.2737858 0.14730464 0.032557763 0.058488432 -0.353784 -0.10231886 -0.3023595 0.014773094
-0.012595427 -0.10998046 0.120374106 -0.10770874 0.24279468 -0.3525365 0.26529565 -0.061216574
-0.047223456 -0.01699086 -0.13637628 0.15706266 -0.58194447 -0.042255554 0.09117961 0.4220011
-0.006462289 -0.19898666 0.06006011 0.07530294 0.0115142455 -0.37303734 -0.27285874 0.016889205
-0.09422331 -0.1937352 -0.04171251 0.27364346 -0.057871327 0.105068795 -0.02097095 -0.13487163
0.013324305 -0.24666905 0.056528307 -0.27973953 -0.12114303 -0.1578418 -0.11676057 -0.06333924
-0.019616924 -0.2885395 -0.24218228 0.036248785 0.0007293915 -0.33942708 -0.08339383 -0.30881256
0.20585512 -0.11316138 -0.20648855 0.0519462 -0.125335 -0.09078767 0.00997818 -0.4059747
-0.16789263 -0.0066272956 0.0051688296 -0.65208566 -0.024593038 0.10139127 -0.24398156 -0.16531076
0.1372226 -0.44156772 0.043695297 0.12681642 0.04016101 0.111291446 0.16632503 -0.25828278
-0.10164757 -0.4802438 0.09872176 -0.27356124 0.12263611 -0.23699875 0.040843178 0.028046504
-0.6605437 -0.06662736 -0.3696455 -0.09481846 -0.404768 -0.04602856 0.0017867137 -0.0853001
-0.13165163 -0.19006696 -0.5833924 -0.008423847 0.058975156 -0.25551566 -0.021509193 -0.0018691372
-0.026503824 0.07057224 -0.42780986 0.16084918 -0.08263097 0.0903726 -0.29438376 0.023988819
0.04389141 -0.26886207 0.08679285 -0.17571698 0.07938101 -0.26775694 -0.05754906 0.28715837
0.06573929 -0.0384975 -0.41506714 0.0015678658 -0.25172928 -0.040659264 0.23385444 -0.011081721
-0.44026285 -0.015255839 -0.19827172 -0.49255368 -0.3112356 -0.35441294 -0.37214166 -0.53393567
0.041434977 -0.18485834 -0.18209927 -0.16695869 -0.3743134 -0.49619538 -0.21133077 -0.07862731
-0.83115345 -0.305539 -0.05619627 -0.089899085 -0.5128458 -0.013927849 0.1115994 0.12543944
-0.014748962 0.06887242 -0.0116193015 -0.27614397 -0.23571596 -0.5420011 -0.19462514 -0.026299346
00000000: bb72 7bbe 25c8 95be c973 18bc c6d0 073e
00000010: dbc8 0d3e d582 933e c6ba a6be fd73 9fbd
00000020: 4a03 b33c 70f4 943e eb65 043e df97 7f3d
00000030: 5a77 cfbd 74c1 f5bd 2c6c e6bc d1bb d6bd
00000040: 94c6 c2bd e55b b8be 5af4 bcbd 6160 e1be
00000050: 4a6f 2fbe 3f27 09bc 2e93 49bd 0ab9 7abe
00000060: c937 403c 9c57 4cbe bc72 a9be 650c fabc
00000070: ea5f 683e 8195 213e a13d 9cbe ee8e 083d
00000080: dcda d4bd 5945 103e 7c68 fe3c a627 3dbe
00000090: 2a2c 97bd a7bb f53d 8b29 67be 1632 a0bd
000000a0: 2aae ffbd 0907 4bbe 6081 773d ddec f73d
000000b0: 6103 113e 7b40 093e 4a37 853e 4d47 98bc
000000c0: 0df2 c8bd a0dc 8bbe 7796 243e 1153 b6bc
000000d0: b42d a0be 694f 3cbe 0664 063e 2f29 10be
000000e0: abee e6be c069 81bd 1fc4 ab3b 6986 d03d
000000f0: 6c9d 823d eaf3 cb3d 15bb ba3d 335d 523d
00000100: 0908 72be 86a0 8fbe 409d 76be 356a aa3d
00000110: b332 59bd e7a3 22bc 49ef 943c 9a16 30be
00000120: 1770 44be 6831 013e fa5c aa3e d349 183e
00000130: 20f7 e63d 0982 15be f93e acbd 0755 813c
00000140: 1079 f93c fb15 6cbc 9012 3c3d 38cb 71bf
00000150: 4ca5 01bd 887c 1bbe 076e babe 701a 47bd
00000160: 87ac 723d c3fe 263d 847c 84be f7a3 babd
00000170: 8411 ecbb 60e5 293e acc3 ca3c 8fc3 1f3e
00000180: a72d 8cbe 07d7 163e 4a5b 053d 9191 6f3d
00000190: 2d23 b5be 8d8c d1bd ddce 9abe d90a 723c
000001a0: 0d5d 4ebc 6f3d e1bd b386 f63d 6696 dcbd
000001b0: 2b9f 783e aa7f b4be d5d4 873e 3bbe 7abd
000001c0: 626d 41bd 6b30 8bbc 39a6 0bbe 09d5 203e
000001d0: 50fa 14bf 2914 2dbd 60bc ba3d 8710 d83e
000001e0: 9cc1 d3bb 29c3 4bbe 9701 763d 6e38 9a3d
000001f0: 3fa6 3c3c c0fe bebe 24b4 8bbe 3b5b 8a3c
00000200: 27f8 c0bd 8562 46be bdda 2abd ff1a 8c3e
00000210: 7c0a 6dbd 4f2e d73d 45cb abbc ca1b 0abe
00000220: 304e 5a3c d096 7cbe 3a8a 673d 053a 8fbe
00000230: d619 f8bd 48a1 21be 2a20 efbd 01b8 81bd
00000240: acb3 a0bc 73bb 93be a2fe 77be 9b79 143d
00000250: a334 3f3a 63c9 adbe 62ca aabd ae1c 9ebe
00000260: afcb 523e 27c1 e7bd bc71 53be 8ac5 543d
00000270: d157 00be e3ee b9bd 857b 233c eadb cfbe
00000280: 0cec 2bbe c929 d9bb 495f a93b 16ef 26bf
00000290: 5777 c9bc 3aa6 cf3d 4dd6 79be 3947 29be
000002a0: 1584 0c3e 2a15 e2be d7f9 323d 2adc 013e
000002b0: df7f 243d c5ec e33d 1c51 2a3e a43d 84be
000002c0: 9a2c d0bd 84e2 f5be a22e ca3d 3810 8cbe
000002d0: a428 fb3d cdaf 72be 2d4b 273d c8c1 e53c
000002e0: 6419 29bf ed73 88bd 2d42 bdbe 2e30 c2bd
000002f0: c03d cfbe 7188 3cbd 2a30 ea3a d2b1 aebd
00000300: afcf 06be eaa0 42be 3459 15bf 2d04 0abc
00000310: ef8f 713d f3d2 82be 0c34 b0bc d6fd f4ba
00000320: 8c1e d9bc 2e88 903d e509 dbbe a6b5 243e
00000330: 6d3a a9bd 4515 b93d 78b9 96be 3384 c43c
00000340: 7bc7 333d 4aa8 89be 73c0 b13d 27ef 33be
00000350: 8392 a23d 7017 89be 90b8 6bbd 6c06 933e
00000360: 52a2 863d 8eaf 1dbd ae83 d4be d980 cd3a
00000370: a9e2 80be 548a 26bd 8a77 6f3e 1b90 35bc
00000380: 226a e1be a0f3 79bc be07 4bbe ff2f fcbe
00000390: 465a 9fbe 9d75 b5be 5a89 bebe 02b0 08bf
000003a0: b9b7 293d 814b 3dbe 3b78 3abe 38f7 2abe
000003b0: 02a6 bfbe 520d febe 1867 58be 5b07 a1bd
000003c0: 79c6 54bf 9c6f 9cbe 0f2e 66bd 031d b8bd
000003d0: dd49 03bf a231 64bc 3a8e e43d 3273 003e
000003e0: a1a5 71bc fc0c 8d3d e25e 3ebc be62 8dbe
000003f0: 865f 71be 96c0 0abf d04b 47be ba71 d7bc

sequential_3/dense_7/BiasAdd/ReadVariableOp f4 [31]
0.056648616 -0.19309328 -0.35254014 0.05152433 0.19467808 -0.02135068 -0.3304117 -0.18877713
-0.08613728 -0.46398282 -0.290706 0.061375532 -0.35529792 -0.20417869 -0.2918652 0.120172225
0.06673923 0.20854731 0.43646944 0.36093453 -0.30597278 -0.4564731 -0.32494682 -0.2853645
0.04189174 0.15184171 -0.0047299066 0.3012286 0.49749264 0.38610184 0.36905724
00000000: 6108 683d 3fba 45be 2480 b4be 2d0b 533d
00000010: b159 473e 9fe7 aebc b92b a9be cb4e 41be
00000020: be68 b0bd 288f edbe 6bd7 94be e964 7b3d
00000030: 9ce9 b5be 3814 51be 5b6f 95be db1c f63d
00000040: 94ae 883d 6d8d 553e ec78 df3e 69cc b83e
00000050: 77a8 9cbe d8b6 e9be 6e5f a6be 4c1b 92be
00000060: ac96 2b3d 657c 1b3e 55fd 9abb a33a 9a3e
00000070: 5bb7 fe3e 24af c53e 12f5 bc3e

sequential_3/dense_6/BiasAdd/ReadVariableOp f4 [100]
0.067400165 -0.041077748 -0.16358891 0.12639472 -0.084861115 0.093779996 -0.19311263 -0.16998014
-0.22727765 -0.0114666475 -0.052966867 -0.032952826 -0.08328722 -0.11441649 -0.08682589 -0.11005895
-0.13186705 0.04112342 -0.16830157 -0.050070114 -0.16977271 0.049931046 -0.23517506 -0.045158017
0.21486448 -0.06553881 0.12564318 0.04142365 -0.046458323 0.12592511 -0.23918305 -0.19230485
-0.1334391 -0.13110527 -0.17013687 -0.08757711 -0.10958531 -0.059019223 -0.16942836 -0.27588496
-0.12577076 -0.1524723 0.021893127 -0.11935324 -0.1340747 -0.14804217 -0.2774508 -0.089745246
-0.13384658 -0.0734341 0.04423877 0.005147009 3.2763914e-05 -0.03740486 -0.08250574 -0.06734319
-0.13022658 0.08756044 -0.11870797 0.12037061 -0.13575372 -0.062575236 -0.020106396 -0.16902277
0.09890293 -0.08189294 -0.09418539 0.054403853 0.036121126 0.19287828 0.0312702 0.024938097
0.027369404 0.06204428 -0.119245715 0.0074787596 -0.09387064 -0.090243414 -0.035648372 0.043218073
-0.078820966 -0.08580279 0.019618498 -0.17302608 -0.055251785 -0.14503801 -0.09651484 -0.17653376
0.036717016 0.11690678 -0.19613768 -0.1395324 -0.09003654 -0.1722126 -0.37136358 -0.14366679
-0.1417672 0.04367169 0.09501589 -0.14898723
00000000: 1909 8a3d 2441 28bd da83 27be 9e6d 013e
00000010: aacb adbd ba0f c03d 51bf 45be 460f 2ebe
00000020: 79bb 68be 9bde 3bbc c9f3 58bd 8bf9 06bd
00000030: 7d92 aabd 3153 eabd c6d1 b1bd 9666 e1bd
00000040: 2808 07be 0871 283d 3f57 2cbe 5216 4dbd
00000050: e6d8 2dbe 7f84 4c3d bbd1 70be 9df7 38bd
00000060: 6f05 5c3e 3639 86bd 9ba8 003e d8ab 293d
00000070: 154b 3ebd 83f2 003e 67ec 74be 90eb 44be
00000080: 42a4 08be 7640 06be 5c38 2ebe a15b b3bd
00000090: 436e e0bd 24be 71bd a17e 2dbe cb40 8dbe
000000a0: 0dca 00be b321 1cbe 3759 b33c 796f f4bd
000000b0: e14a 09be 5e98 17be 080e 8ebe 5bcc b7bd
000000c0: 140f 09be 9e64 96bd b633 353d 3ea8 a83b
000000d0: fc6b 0938 d735 19bd c5f8 a8bd 3aeb 89bd
000000e0: 1e5a 05be e352 b33d 2a1d f3bd de84 f63d
000000f0: 0603 0bbe 7227 80bd 2bb6 a4bc 4e14 2dbe
00000100: 9f8d ca3d 7cb7 a7bd 45e4 c0bd 93d6 5e3d
00000110: bff3 133d e281 453e 2e15 003d fb4a cc3c
00000120: cd35 e03c 2522 7e3d 1937 f4bd 6210 f53b
00000130: 403f c0bd 8ad1 b8bd 0704 12bd 6f05 313d
00000140: e36c a1bd 60b9 afbd f9b6 a03c c02d 31be
00000150: b24f 62bd d884 14be 93a9 c5bd 44c5 34be
00000160: 9564 163d d26c ef3d 51d8 48be 95e1 0ebe
00000170: 1465 b8bd 8058 30be 5e23 bebe 631d 13be
00000180: 6c2b 11be 16e1 323d b197 c23d 1c90 18be

sequential_3/dense_6/MatMul f4 [100, 1152]
-0.019672642 0.20739228 0.06626958 0.09113306 -0.10507909 0.09870965 0.17593214 -0.36743256
0.09111182 0.14726014 -0.0028311631 -0.096887365 -0.16653277 -0.059810895 0.08122717 0.08601312
-0.09618356 -0.26198667 -0.12354386 -0.2792725 -0.0832861 0.069784686 -0.61947227 0.06096424
-0.08373649 0.20688345 -0.14776956 0.5756246 0.11491513 0.44989812 -0.21624164 0.04864619
0.18574104 0.3574481 0.09062414 0.13890845 0.32961985 0.18325005 0.21878609 0.0190566
0.05889266 -0.14317247 -0.11786914 0.04684508 -0.045099795 0.2821166 -0.19570898 0.066525094
-0.0035890774 0.05768696 -0.013239042 -0.04217073 -0.09358435 0.039325718 -0.055610903 -0.20912576
0.08303941 -0.030440787 0.35346463 0.072138295 9.9838995e-05 0.14573136 0.40624914 0.24464674
0.110914655 -0.045477778 -0.08706944 0.038676087 -0.0769101 0.24998994 0.25788507 0.08246563
0.12185936 0.12943825 -0.09698242 0.09473035 0.2594352 -0.01759643 -0.2375841 0.087860286
0.007300775 0.053030916 0.12382952 -0.1541919 -0.36103636 0.115805246 -0.08628794 -0.25497445
0.04683878 0.06911296 -0.5632534 0.3705742 0.055562347 -0.15245213 -0.29566526 -0.17839925
-0.03747115 -0.106727555 -0.25729093 0.40675014 -0.4150103 -0.43637034 0.027906071 0.1748812
0.3984153 -0.431693 -0.01881781 0.17356463 -0.36604217 -0.120689 -0.4602533 0.14301161
0.062204406 -0.4313672 -0.438937 0.36719128 -0.026010152 -0.26755637 -0.2505286 0.4531822
0.023040866 -0.16767204 -0.030093955 0.16405238 0.5563589 -0.23566973 0.007917792 -0.16733728
0.11196896 0.20390047 -0.065643 0.17652081 0.118583895 0.0510027 -0.074835025 -0.1570875
-0.06949021 0.09659121 0.024036001 -0.051216535 -0.26665196 0.14084588 0.12545206 -0.118302464
0.00502228 -0.08738031 -0.13334788 -0.6316178 -0.49526453 0.10717645 -0.3686451 -0.0015032712
0.013683116 0.26302686 -0.19124128 0.57805055 0.13449688 -0.06574919 -0.34157154 -0.14181736
0.036979843 0.37338838 0.083721116 0.26625475 -0.17558266 0.1172478 -0.017525733 0.14994676
0.04041495 -0.055751067 -0.06685596 0.03620604 -0.093456365 -0.06211198 0.13700296 -0.32652238
0.07423892 -0.12735859 0.07855214 0.14003119 -0.027268147 -0.04777874 0.081159405 -0.019671679
-0.10813226 -0.05032233 0.1883331 -0.035365224 0.0024807123 0.1079192 0.030812137 0.22727105
0.24810864 0.053402662 -0.045673832 0.17238975 0.02981181 0.14017992 0.18942212 0.31519637
0.16266623 -0.06719298 -0.08311428 -0.07794767 0.12607989 -0.050464865 -0.07078721 -0.12413351
0.12695336 0.109769806 0.33126903 -0.0550207 -0.26521686 0.01309119 -0.12868664 -0.25862274
0.078177355 0.15201102 -0.40480444 0.36168942 0.13870756 0.15032579 -0.16571689 -0.0011514849
-0.026032023 -0.047042996 -0.509933 0.104909964 -0.17758346 -0.25379354 -0.02576088 0.27631238
0.46753976 -0.50225645 0.034342367 0.31119093 -0.32405448 0.072725795 -0.41152567 -0.06985154
0.0034419121 -0.10016603 -0.23461156 0.30836692 0.042659566 -0.09861475 -0.27639642 0.26314342
-0.031794883 0.08260354 0.016285388 0.25422674 -0.13512824 -0.12904502 0.07725774 -0.2742351
00000000: 8528 a1bc a45e 543e 58b8 873d f8a3 ba3d
00000010: b533 d7bd 4928 ca3d 8e27 343e 1f20 bcbe
00000020: d598 ba3d 5dcb 163e 098b 39bb e26c c6bd
00000030: 9187 2abe 45fc 74bd 6e5a a63d a627 b03d
00000040: e3fb c4bd 1e23 86be 9004 fdbd cefc 8ebe
00000050: e791 aabd 46eb 8e3d bc95 1ebf a4b5 793d
00000060: 097e abbd 41d9 533e e750 17be 225c 133f
00000070: a058 eb3d 0c59 e63e 736e 5dbe 3a41 473d
00000080: e632 3e3e 7003 b73e 2699 b93d 043e 0e3e
00000090: efc3 a83e e7a5 3b3e 7609 603e 961c 9c3c
000000a0: 6e39 713d ce9b 12be 6065 f1bd a0e0 3f3d
000000b0: 90ba 38bd 9671 903e ef67 48be 4f3e 883d
000000c0: ba36 6bbb 2949 6c3d 91e8 58bc 37bb 2cbd
000000d0: 27a9 bfbd 0114 213d 42c8 63bd 1025 56be
000000e0: 9110 aa3d f55e f9bc 51f9 b43e 3ebd 933d
000000f0: a760 d138 9a3a 153e e3ff cf3e ad84 7a3e
00000100: 3927 e33d e846 3abd 7651 b2bd d16a 1e3d
00000110: 0b83 9dbd 5dfd 7f3e 8309 843e bde3 a83d
00000120: 6691 f93d 768b 043e b89e c6bd fc01 c23d
00000130: b1d4 843e 6326 90bc 3f49 73be 18f0 b33d
00000140: 573b ef3b f236 593d 559a fd3d 7be4 1dbe
00000150: c2d9 b8be 4d2b ed3d bbb7 b0bd 038c 82be
00000160: 05da 3f3d 188b 8d3d 6031 10bf e7bb bd3e
00000170: 5895 633d 691c 1cbe 7061 97be 4bae 36be
00000180: 597b 19bd fa93 dabd a3bb 83be 8e41 d03e
00000190: 3b7c d4be ef6b dfbe 469b e43c 0f14 333e
000001a0: 17fd cb3e dd06 ddbe cf27 9abc edba 313e
000001b0: e169 bbbe cb2b f7bd 52a6 ebbe a371 123e
000001c0: 0cca 7e3d 29dc dcbe 5abc e0be 7f00 bc3e
000001d0: 3e13 d5bc 26fd 88be 4945 80be 7f07 e83e
000001e0: 33c0 bc3c 38b2 2bbe 9987 f6bc 59fd 273e
000001f0: 896d 0e3f 6853 71be a0b9 013c 775a 2bbe
00000200: fb4f e53d 49cb 503e d66f 86bd dfc1 343e
00000210: 1ddc f23d 35e8 503d 1b43 99bd 8cdb 20be
00000220: e250 8ebd 9dd1 c53d 26e7 c43c 6ec8 51bd
00000230: 9b86 88be e739 103e 8176 003e 9048 f2bd
00000240: f091 a43b 73f4 b2bd 598c 08be b4b1 21bf
00000250: 5093 fdbe 547f db3d 0dbf bcbe 6909 c5ba
00000260: 262f 603c 75ab 863e c1d4 43be 1ffb 133f
00000270: 8db9 093e 83a7 86bd 77e2 aebe 9238 11be
00000280: 2d78 173d c32c bf3e fa75 ab3d 8b52 883e
00000290: f1cb 33be 9d1f f03d 2092 8fbc a58b 193e
000002a0: 268a 253d 3b5b 64bd c7eb 88bd c94c 143d
000002b0: 0d66 bfbd 2269 7ebd 814a 0c3e f12d a7be
000002c0: 930a 983d 4a6a 02be f2df a03d 5664 0f3e
000002d0: 7361 dfbc a4b3 43bd e736 a63d 8026 a1bc
000002e0: 7274 ddbd ca1e 4ebd 64da 403e 20db 10bd
000002f0: 7293 223b be04 dd3d bc69 fc3c beb9 683e
00000300: 3110 7e3e c0bc 5a3d 7c14 3bbd f086 303e
00000310: e637 f43c 538b 0f3e dff7 413e 6b61 a13e
00000320: fa91 263e 799c 89bd d237 aabd 07a3 9fbd
00000330: 161b 013e 3fb4 4ebd e2f8 90bd b639 febd
00000340: 1000 023e fece e03d 189c a93e 635d 61bd
00000350: 81ca 87be 6e7c 563c 6ec6 03be 336a 84be
00000360: 731b a03d c7a8 1b3e 8742 cfbe 5b2f b93e
00000370: 5b09 0e3e 01ef 193e b0b1 29be 6ced 96ba
00000380: 1c41 d5bc 28b0 40bd f88a 02bf 09db d63d
00000390: 70d8 35be 3af1 81be 7b08 d3bc d178 8d3e
000003a0: 5f61 ef3e e193 00bf 95aa 0c3d 6b54 9f3e
000003b0: 78ea a5be 43f1 943d 7eb3 d2be 530e 8fbd
000003c0: b491 613b d923 cdbd 033e 70be 45e2 9d3e
000003d0: ccbb 2e3d 88f6 c9bd d583 8dbe bcba 863e
000003e0: 5a3b 02bd 0b2c a93d ef68 853c 022a 823e
000003f0: 0f5f 0abe 6124 04be 4e39 9e3d 8b68 8cbe

sequential_3/dense_7/MatMul f4 [31, 100]
-1.1117687 -1.622657 -0.114964135 -0.4605555 -1.1606394 0.19725697 -1.4252464 0.067908086
-0.1244652 0.15297064 0.122957096 -1.678175 0.109334245 -0.05586999 -0.5013791 -0.38277543
-1.6994166 -0.304325 -0.5448421 -0.24250115 0.13302636 -0.31060556 0.10874344 -0.97441435
-0.03549374 -0.24328654 -0.0031200768 -0.5173256 0.15692888 0.1355278 -1.3524686 -1.1130229
-0.17383154 0.122286595 -1.8965756 -0.034141477 -0.44933102 -0.7185723 -1.678746 -0.8887087
-0.0060271313 -1.556208 -0.030520277 -0.7783283 0.11798128 -0.67820007 -1.8202358 -0.10040829
-0.14774998 -0.16039076 0.20436475 -0.3863463 -0.120192826 -0.7804503 -0.2088468 -0.46310276
-0.11273951 -0.26216438 -0.6770259 0.1603257 -0.20837031 -0.8118469 -0.6425869 -1.6734992
-0.9586072 -0.24278757 -0.65310365 0.1843576 0.08191862 0.16015692 -0.38132122 -0.9842499
-0.16614349 -0.41490933 -0.2595818 0.06418746 -0.07918762 -0.5753535 0.13235155 0.14007126
-1.1720684 -0.1167454 0.15503995 -0.43603492 0.008010716 -0.034727555 0.12260905 -0.19276315
-0.06388961 0.11691688 -2.169548 0.11956456 -0.77641207 -0.38507655 -0.8980145 -0.18212855
0.18853556 -0.29900613 0.11718112 -0.38316792 -0.4842198 -1.6421165 0.014233925 0.051582403
-2.0203896 0.07622603 0.09930667 -0.13033055 -1.2709379 -0.017564474 -0.79920506 0.1846034
-0.8795771 -0.30745935 0.10140194 -1.1894643 -0.59706414 -0.27942562 -0.9350707 -1.8643513
-1.060904 -0.27538672 -0.07257576 -1.269456 0.14049917 0.1171051 -0.033274278 -0.18619502
-0.36687714 0.08366817 0.066731706 -2.003898 -0.7064487 -0.78478 -0.75927293 0.05805395
-0.33644727 -0.0390094 -0.29450583 -0.5872633 0.09204535 -0.6008576 0.18783699 0.093347
-0.040374883 -1.7913839 -0.25809014 -0.04962298 0.16412571 -1.1168798 -1.0258006 -0.47719434
0.19274949 0.14387168 -0.44758323 0.19026983 -0.13812701 0.04261802 -1.1739843 0.095395714
0.12798786 -0.7103343 -0.64691347 -2.222004 0.078455895 -0.10098902 -1.9113306 -1.3712937
-0.10617078 0.097536154 -1.2606876 0.17917275 0.12836316 -0.51262385 0.17247663 -1.1668591
-0.39969704 -2.793155 -0.079102024 -0.53622097 -0.68457 0.1787027 -0.83996207 -1.2418404
0.073423706 -1.642589 -0.55403364 -0.22350222 0.03193219 0.24088885 -1.1180483 -1.8253391
-2.8607569 0.07206842 -1.0863986 -1.4605178 -0.1803614 -1.2171209 0.17483239 0.0027129983
0.0967408 -0.33806694 -0.3381672 -1.2294444 -0.51577836 0.058223832 -1.394647 -1.2956654
-0.23412761 -1.2628673 -1.5431838 -0.70858127 -0.0019354038 -0.53515846 -0.86332154 0.12940687
0.13359238 0.07221603 -0.2855933 -0.7100658 -0.09080726 -1.0534517 0.14002314 0.1493033
-0.057685956 0.024800904 0.10136486 -0.99830085 -0.030520843 0.068203256 -1.0586401 0.10949027
0.020318605 -0.24732329 -0.4920089 -0.028508697 -0.8612578 0.089224614 -0.877535 -0.9676456
-0.12514162 0.15587483 -1.197287 -1.3476641 -1.3328396 -0.03194145 -1.6813728 -0.0575735
-0.8558019 -1.1840543 0.030356223 -0.9920788 0.05150078 -0.40912917 -0.8203846 -0.25021726
00000000: 704e 8ebf 39b3 cfbf 5172 ebbd eecd ebbe
00000010: d58f 94bf bbfd 493e 796e b6bf 6513 8b3d
00000020: 9ce7 febd 56a4 1c3e eed0 fb3d 70ce d6bf
00000030: a2ea df3d eed7 64bd 615a 00bf 24fb c3be
00000040: 7c86 d9bf 7dd0 9bbe c67a 0bbf 3952 78be
00000050: 1038 083e b107 9fbe e1b4 de3d 3873 79bf
00000060: e261 11bd 1b20 79be 347a 4cbb 736f 04bf
00000070: f7b1 203e cdc7 0a3e b11d adbf 8977 8ebf
00000080: e500 32be 6571 fa3d fdc2 f2bf efd7 0bbd
00000090: b70e e6be 5bf4 37bf 26e1 d6bf 6a82 63bf
000000a0: 3e7f c5bb d331 c7bf a905 fabc 8640 47bf
000000b0: 2ba0 f13d 859e 2dbf 7dfd e8bf dda2 cdbd
000000c0: c54b 17be 7a3d 24be fe44 513e 2fcf c5be
000000d0: a827 f6bd 97cb 47bf efdb 55be ce1b edbe
000000e0: f9e3 e6bd 693a 86be 9251 2dbf 6c2c 243e
000000f0: 075f 55be 33d5 4fbf 9380 24bf 3935 d6bf
00000100: 4867 75bf 4e9d 78be cd31 27bf 3dc8 3c3e
00000110: f3c4 a73d 2d00 243e 893c c3be cdf7 7bbf
00000120: 8521 2abe ff6e d4be e8e7 84be b774 833d
00000130: 1e2d a2bd 5e4a 13bf 2a87 073e d76e 0f3e
00000140: 5606 96bf 3618 efbd cbc2 1e3e f83f dfbe
00000150: 613f 033c 7b3e 0ebd 741a fb3d b463 45be
00000160: 8ed8 82bd 1e72 ef3d e0d9 0ac0 44de f43d
00000170: f1c2 46bf c128 c5be 47e4 65bf e87f 3abe
00000180: 770f 413e 5517 99be a8fc ef3d 962e c4be
00000190: a8eb f7be e030 d2bf 6935 693c 1248 533d
000001a0: 104e 01c0 651c 9c3d 4c61 cb3d 5f75 05be
000001b0: 18ae a2bf 5fe3 8fbc b498 4cbf ac08 3d3e
000001c0: f72b 61bf 506b 9dbe d2ab cf3d 5e40 98bf
000001d0: 32d9 18bf e010 8fbe cb60 6fbf 10a3 eebf
000001e0: b4cb 87bf 7dff 8cbe 9aa2 94bd 897d a2bf
000001f0: 04df 0f3e ccd4 ef3d 9c4a 08bd e8a9 3ebe
00000200: 52d7 bbbe 385a ab3d a2aa 883d dd3f 00c0
00000210: d2d9 34bf 58e7 48bf b65f 42bf fbc9 6d3d
00000220: d142 acbe 52c8 1fbd 78c9 96be e356 16bf
00000230: 4682 bc3d ced1 19bf 5758 403e b62c bf3d
00000240: 2260 25bd 114c e5bf 6424 84be 7741 4bbd
00000250: 9210 283e ebf5 8ebf 6f4d 83bf d152 f4be
00000260: 1f60 453e 1953 133e a129 e5be 18d6 423e
00000270: 2b71 0dbe 3c90 2e3d 1e45 96bf d45e c33d
00000280: 400f 033e 78d8 35bf 1f9c 25bf 5035 0ec0
00000290: 7cad a03d 55d3 cebd 7ba6 f4bf 8d86 afbf
000002a0: 1170 d9bd 09c1 c73d 365e a1bf 1079 373e
000002b0: a271 033e 513b 03bf b79d 303e a45b 95bf
000002c0: 17a5 ccbe 0dc3 32c0 3e00 a2bd c745 09bf
000002d0: fb3f 2fbf d7fd 363e c107 57bf a0f4 9ebf
000002e0: 2b5f 963d 5b40 d2bf 26d5 0dbf c4dd 64be
000002f0: 54cb 023d 91ab 763e 351c 8fbf b6a4 e9bf
00000300: a416 37c0 9c98 933d 1c0f 8bbf 3ff2 babf
00000310: a9b0 38be 9eca 9bbf 4307 333e 8fcc 313b
00000320: 0a20 c63d 1c17 adbe 4024 adbe 6f5e 9dbf
00000330: 0d0a 04bf 1d7c 6e3d cb83 b2bf 5dd8 a5bf
00000340: 26bf 6fbe a3a5 a1bf 0c87 c5bf 9565 35bf
00000350: 60ad fdba 2500 09bf a402 5dbf 3c83 043e
00000360: 71cc 083e ffe5 933d 4939 92be dfc6 35bf
00000370: 28f9 b9bd 81d7 86bf 3a62 0f3e f7e2 183e
00000380: 1c48 6cbd 442b cb3c 6198 cf3d a590 7fbf
00000390: d906 fabc 26ae 8b3d 8581 87bf 6f3c e03d
000003a0: 3473 a63c 5142 7dbe 97e8 fbbe 128b e9bc
000003b0: 647b 5cbf 65bb b63d 22a6 60bf 9fb7 77bf
000003c0: 2025 00be a79d 1f3e b340 99bf 4280 acbf
000003d0: 7d9a aabf 0ad5 02bd 3937 d7bf 31d2 6bbd
000003e0: d515 5bbf 178f 97bf 9dad f83c e0f8 7dbf
000003f0: 7bf2 523d 6179 d1be ba04 52bf 7a1c 80be
