app/src/main/assets/conv_model_task2_50_3.tflite (tflite, 515828 bytes, 12 tensors)

sequential_6/conv1d_24/BiasAdd/ReadVariableOp f4 [64]
00000000: beef 25be a4f0 67be 8e75 5cbe 4898 42be
00000010: 9eb2 643d 4710 573d d607 09be 9beb 64be
00000020: 6ee4 843c be4b 8dbe eebe 8dbe 84d0 77be
00000030: f35b 3bbe 180e 60be 6f25 19bd 523f 1c3c
00000040: 6725 80be e195 83be 0ac1 6cbe 96cf 28be
00000050: 1a9b 46be 1eb5 64be 8e9c 9fbe ecb2 45be
00000060: e18b 5bbe 38ac 66be f57d 51be 4e2c 04be
00000070: b28b 3fbe 10a4 44be d608 92be 2e77 0bbe
00000080: 00f4 7abe 2ab7 42be 5159 08be 7d63 36be
00000090: 1bf8 59be 13c3 99be 8a2a 7abe 73a1 53be
000000a0: d586 4ebe 3bbe 5b3d c2cd 4ebe 5a3c 4fbe
000000b0: 0f36 5ebe 3b8c a9be a969 1abe 29bd 6cbe
000000c0: 8189 d5bd 0556 81be dccb 50be eaca 7dbe
000000d0: 4973 6ebe e0e4 68be 7d32 40be 1e12 61be
000000e0: f51a 76be 7e3f 74be 23a0 0cbe daf9 833d
000000f0: 2ca3 42be c0d0 1a3d 91bb 05be eaf8 673d
-0.16204736 -0.22650391 -0.21529219 -0.19003403 0.055834405 0.052505758 -0.13381895 -0.22355501
0.016222205 -0.2759685 -0.2768473 -0.24200636 -0.18296795 -0.21880376 -0.037389215 0.009536581
-0.25028536 -0.25700286 -0.23120514 -0.16485438 -0.19395104 -0.22334716 -0.3117413 -0.19306535
-0.21440078 -0.22526634 -0.20458205 -0.12907526 -0.18705633 -0.1920321 -0.28522366 -0.13619682
-0.24507141 -0.19015184 -0.13315322 -0.1781139 -0.21286051 -0.30031642 -0.2443029 -0.20667057
-0.20168622 0.053648215 -0.20195678 -0.20237866 -0.21700309 -0.331148 -0.15079369 -0.23119034
-0.104266174 -0.2526094 -0.20390266 -0.24784437 -0.23286165 -0.22743559 -0.1876926 -0.21979567
-0.24033721 -0.23852345 -0.13732962 0.0644414 -0.19007558 0.037796736 -0.13059832 0.056633867

sequential_6/conv1d_25/BiasAdd/ReadVariableOp f4 [64]
00000000: 1ef8 b13b a19e 19bd 38fb abbd 4d28 aebd
00000010: e3c1 40be ec81 3b3b 73ab 11be 6aa8 babd
00000020: f579 fabd eb89 40bc eecf 933c 0f1a 2dbe
00000030: 57a9 acbc 3aae 2b3d 01b3 833c 5f42 66be
00000040: faa8 17bd 1d22 3c3d 5e47 2a3d edbd 2abd
00000050: 4d8a eebd bca4 93be d873 e1bc b108 87bd
00000060: e5c7 393d 58bc 2b3d ec90 2f3d e483 8abe
00000070: 02cb 673d ed0d 8ebd 44ed 51be 0b3a a1bd
00000080: 48ec 80bd c38a 903b 0a79 a5bd 7dce 2fbc
00000090: cbf2 16bd 8bc6 203c d99a 72bb b043 dabc
000000a0: a253 8dbc 5fea 44be e63f bbbd 8e12 84bd
000000b0: 4df9 fdbd 9aff 76bc fc89 6cbc 5eea 353d
000000c0: fac9 303d 1a82 21bd ef9d 19be 41f5 f3bc
000000d0: 19cb 35be 9e43 81bd 5501 91bd d47d 47bd
000000e0: fc76 b4bd ec57 1abe 75a9 a53c 08ba efbd
000000f0: 0c82 0fbd dd91 83bd e955 123d 5cdc 2cbc
0.005431189 -0.037504796 -0.083975255 -0.085037805 -0.18823962 0.0028611375 -0.14225559 -0.09114154
-0.12230293 -0.011751632 0.018043485 -0.16904472 -0.021076841 0.041914202 0.016076567 -0.22486256
-0.037026383 0.04593097 0.041571967 -0.041685034 -0.116474725 -0.2883662 -0.027521059 -0.06593455
0.04535665 0.041927665 0.042862818 -0.2705375 0.056590088 -0.0693625 -0.20500666 -0.07872399
-0.06295067 0.004411073 -0.08079727 -0.010730383 -0.03685264 0.009812961 -0.0037018566 -0.026643604
-0.017251793 -0.1923003 -0.09143047 -0.064488515 -0.12401066 -0.015075589 -0.014437195 0.044412963
0.04316137 -0.039430715 -0.15001653 -0.029780032 -0.17753257 -0.06311725 -0.07080332 -0.048703983
-0.08811757 -0.15072602 0.020222405 -0.117054045 -0.03503613 -0.064243056 0.03572646 -0.010550585

sequential_6/conv1d_26/BiasAdd/ReadVariableOp f4 [128]
00000000: e154 0abe a83a 9b3c 9fd4 44be 8ae0 a5bd
00000010: 7be9 30bd 71db b33d 7036 2bbd 04d1 833d
00000020: d824 3bbe 7b51 1bbe 313d 1abe ff33 493d
00000030: 99c3 943c bd58 86bd 25f1 a93d 471e 0bbd
00000040: f7e1 f13d 6e89 143e 9664 3dbe 6b1e 9cbd
00000050: e8d8 fdbd d977 acbd 31c2 b0bd cf8d 50bd
00000060: 3f30 b1bd 67e9 773c 0852 dbbd 99b6 503e
00000070: 50dd 44bd ca07 75bd 2a0e bfbd 4904 afbc
00000080: 5da5 7d3a 71e6 36be d99c d33d 5fb8 043d
00000090: ac17 efbd ec92 a0bc e1a5 50bc b91c 29be
000000a0: bfe6 eabc 9c98 d3bd 9130 b0bd 6b32 893d
000000b0: 6a02 65be 1d85 e73d a259 b1bd 7c93 a1bd
000000c0: dcff fabc 8789 2ebe 315c 2dbd 0f0f bd3d
000000d0: 197d c6bd 9d1f e5bd 4afd 30bb b6dc afbd
000000e0: 305e d7bd b2ee 3cbc ea4b 1abe a3a5 11be
000000f0: 5bab 5dbc 1a55 0cbe 435d 36be 7e0b 283e
00000100: d8c4 a4bc a3df c1bd 8427 e6bc d789 a53c
00000110: 4650 973c 0057 443d 534e 64bd 8caa e6ba
00000120: 0a6d 473d 1a9c 80bd b72e acbd 8619 b3bd
00000130: de62 1bbd eda5 4cbe f3ec b6bd 512d 06bb
00000140: 3dce b6bc 0342 a13d 60df d0bd 3d29 2dbd
00000150: cc8d e03c 9e54 29be 2a65 093e 45b2 7ebd
00000160: 0038 8abc f39b 133c ae2b b13d 9808 57bd
00000170: fb9c e3bd 37d6 86bd 8f9c d2bd 779e efbd
00000180: 048e a4be 4cbb 35be a851 40bd 44aa 96bd
00000190: f3fe 143e 298f 14bd 7683 52be e207 fcbd
000001a0: 9b6b 8abc 43c5 3fbc 9934 e2bd d652 42be
000001b0: dd59 bdbd 1c22 05be 46e3 c8bc 4848 a53c
000001c0: 6336 24bc d8c8 d7bd 9418 843d 99b3 27bd
000001d0: 696f 393d 67f1 263e 42ea 48be c7f8 e2bd
000001e0: 78b0 5abe 02e8 8c3d a44b b3bd 44c1 afbd
000001f0: 5a09 b43c c10a 30be 83be b03d 3710 adbd
-0.13508941 0.018948868 -0.19221734 -0.08099468 -0.043191414 0.087820895 -0.041799963 0.06436351
-0.18275774 -0.15167801 -0.15062405 0.049121853 0.018159674 -0.06559894 0.08297948 -0.03396442
0.118106775 0.1450555 -0.18495402 -0.07622989 -0.12394887 -0.084212966 -0.08630789 -0.05091649
-0.0865178 0.015131331 -0.107090056 0.20382155 -0.048062623 -0.05982188 -0.093288735 -0.021364348
0.0009675825 -0.17861344 0.10332651 0.032402392 -0.11674437 -0.019601308 -0.012734861 -0.16514863
-0.028674481 -0.10331842 -0.08603013 0.066990696 -0.22364202 0.11304686 -0.08659674 -0.078894585
-0.030639581 -0.1704465 -0.04232425 0.09231388 -0.09691829 -0.111876704 -0.002700644 -0.08587019
-0.10516012 -0.011531519 -0.15068021 -0.14223342 -0.013529624 -0.13704339 -0.17809014 0.16410634
-0.020113394 -0.094664834 -0.028095014 0.020207329 0.018470895 0.047934532 -0.05573876 -0.0017598434
0.048687972 -0.06279774 -0.08407348 -0.087451026 -0.037936084 -0.1998517 -0.08931913 -0.0020473788
-0.022315139 0.07873919 -0.101988554 -0.042275656 0.027411364 -0.16536185 0.13417497 -0.06218173
-0.016872406 0.009009349 0.08650909 -0.05249843 -0.11113926 -0.06583827 -0.102837674 -0.11700147
-0.321396 -0.1774723 -0.046952873 -0.07356694 0.1455038 -0.03626934 -0.20557961 -0.12306191
-0.016897013 -0.011704746 -0.110451885 -0.18976912 -0.09245656 -0.13001293 -0.024522435 0.020176068
-0.010022732 -0.10536355 0.064500004 -0.040942762 0.045272265 0.16303025 -0.19620612 -0.11082607
-0.2135638 0.068801895 -0.08754662 -0.08581784 0.021977115 -0.17191602 0.08630087 -0.08450358

sequential_6/conv1d_27/BiasAdd/ReadVariableOp f4 [128]
00000000: 8f56 f4bd 440d 203d 5f3e a23d 882d 283d
00000010: 43f9 fc3c a05e 4bbd d620 0dbe 8323 68bd
00000020: d69c 0ebd d3bb 62bd fc40 b8bd 0438 99be
00000030: b02f bf3b 9ac5 8dbd e0a8 b2bd 2ae3 aabc
00000040: c5d7 163b 3231 3dbd 7519 95bc 48ad aabd
00000050: 9265 3b3d ac93 6fbd 395b 043d 030f cfbc
00000060: b5de 7ebd 14a6 49be 5062 8dbe f253 013d
00000070: acb2 2b3c 4c13 c83d 7f80 32be 0d9d 83bd
00000080: 3c4e 21bb ca03 d73d 7be3 253d 3a79 20bd
00000090: b111 043d a878 fb3c 7344 9e3d e632 4b3c
000000a0: 98e5 26bd 6748 35bd 1b62 0a3d 02c1 e63c
000000b0: 4502 62bd 0951 3bbd f83b 07bd fa34 9e3d
000000c0: e73b 9dbc 085b de3d 3470 73bd 15b8 153d
000000d0: ba02 103d dd26 3bbc 32db 28be ad7b 9ebe
000000e0: dc3d e93d 23bf f4bc b272 64be 8e01 9ebd
000000f0: cb70 873d dc33 1abc 168e cb3c 5502 bebd
00000100: 2e3f a7bb cb41 b13a f2e8 423d 9577 babb
00000110: 3a93 55be 7986 56bd d7ab 1fbb 1394 c3bd
00000120: fdb4 96bd 52f1 11bc d7de 133c 1546 f83c
00000130: f78f 2abd 23a6 c8b9 fa08 71bd f53c 5bbd
00000140: 436a 223d ea63 3c3c 04c7 ec39 e13e 77bc
00000150: 7b02 3bbd 64e6 6fbd 0bf6 01bd 5935 043d
00000160: 7ec7 323d 2ad1 a9bd 125e 193d 3b2d 843d
00000170: d303 23bb 8a65 01bd 950f e63d 54a9 dcbd
00000180: 6458 c33d a93e 2fbd ca1f edbd 3f7c 8fbd
00000190: 229b 72bd ac1b a6bd 7c05 a13d 33a1 acbe
000001a0: e09e e33d 1e58 cfbd baac cdbd 0541 13bd
000001b0: bdf4 4fbd ea91 63be 3d4d 5b3d bb2d 043e
000001c0: a88c 61be 4723 d9bd 0f8d 2a3d 4543 a0bd
000001d0: ddfa bb3c 76ac 35bd 95a6 64be e60f b13d
000001e0: 06c1 363d 5595 96bb 5439 db3c 5a0c a6bc
000001f0: e140 a0be 0fd2 9e3d 4ca7 64be b205 6d3c
-0.11930572 0.03907515 0.079220526 0.041059047 0.030880576 -0.04965079 -0.13782057 -0.05667449
-0.03481754 -0.055354904 -0.0899677 -0.2992555 0.005834542 -0.06922455 -0.087236166 -0.020860273
0.0023016792 -0.046189494 -0.018200615 -0.08333832 0.045751162 -0.05849044 0.03231356 -0.025275713
-0.06222411 -0.1969226 -0.2761407 0.031574197 0.01047961 0.097693056 -0.1743183 -0.064264394
-0.0024613282 0.104987696 0.040500145 -0.03917811 0.032243434 0.030697182 0.077278994 0.012402272
-0.0407463 -0.0442585 0.033784967 0.028168205 -0.055177946 -0.045731578 -0.033016175 0.07724948
-0.019193603 0.108572066 -0.059433177 0.036552507 0.03515885 -0.01142284 -0.16489866 -0.30953732
0.11388752 -0.029876297 -0.22309378 -0.0771514 0.066133104 -0.009411778 0.024848025 -0.092777885
-0.005103967 0.0013523636 0.047585435 -0.005690525 -0.20856944 -0.052374337 -0.00243639 -0.09549727
-0.073587395 -0.008907633 0.009025297 0.030306855 -0.0416412 -0.00038270754 -0.05884645 -0.05352493
0.03965212 0.011498431 0.00045161706 -0.015090675 -0.045656662 -0.058569327 -0.031728785 0.03227744
0.04364728 -0.08291848 0.037443228 0.064539395 -0.0024874106 -0.031590976 0.11233441 -0.10774484
0.095383435 -0.042784367 -0.11578329 -0.0700612 -0.059229977 -0.08110747 0.07862374 -0.33716735
0.111142874 -0.10124229 -0.100427106 -0.03595068 -0.05077051 -0.2222363 0.053540457 0.1290807
-0.22026312 -0.10602432 0.04163843 -0.07825331 0.02294677 -0.044353925 -0.22329171 0.086456105
0.044617675 -0.0045954385 0.026760735 -0.020269562 -0.312995 0.07754909 -0.22329444 0.01446669

sequential_6/conv1d_24/Conv1D f4 [64, 1, 3, 3]
00000000: 6fe3 b03e 4bfb ec3d fa5c 32be e26e a4be
00000010: a468 92bd a8c6 b93d aed0 333c 71ac ef3b
00000020: d84c 37bd b553 61be 5c24 453e c3ac ca3d
00000030: 1bc3 60bb a43d 663e 6952 22be a4d6 5abe
00000040: cab2 b03d a14a 33be 46f2 483e d38a 03bd
00000050: 9e6f 6fbe ba14 903d 42e5 873e 23bb 98bd
00000060: b0dc 73be e3a3 c4bd b2b6 a63e a5e2 bf3d
00000070: 01a8 723e de1b b4bd 560e 283e 8f0b d13d
00000080: 6c47 68be 46c5 463e 2030 c83e 58f7 a3bb
00000090: a799 373f 1310 433e c65f cf3e 1997 02bf
000000a0: 21ec 3e3e 989b 29be daa2 5abe 8f81 bbbe
000000b0: 8660 61be c46f e9bd de15 aabb 0798 48bf
000000c0: cc75 c43e 1077 ab3e 3b03 c13c 2c20 8dbe
000000d0: 4f54 a3be 1e64 413f c43e bdbd 1e70 02be
000000e0: 1858 b9bd 6d59 d3bd 4d37 9dbd b360 71bd
000000f0: ce23 0bbd 109e d33c 1db6 2fbe 7132 64be
00000100: 0297 3d3d 0c3c 2ebe 08e9 c43d 3e00 fbbd
00000110: f490 e93d 64ee e13d 82cd 513e daee 9bbd
00000120: 67b4 37be acf7 3f3e 2667 193e 13c9 a3be
00000130: f8ae 703e 4889 a2be fbf6 f83e e5e4 a3be
00000140: 7172 113e a487 43be a966 93be e37a 2a3d
00000150: 560e 10be 8a0e 4f3d 84c5 b7bc b37a 8b3e
00000160: 0156 aa3e 8dbd 29be 060e 243e 3bb7 1c3d
00000170: f269 e43d 8d53 51be da45 933d 4052 483d
00000180: 906a 703e 7b0a c43d 52f7 62be 962c 4f3c
00000190: c810 103d 3f8b 0a3e eb35 0abc 91a9 2a3e
000001a0: 8d5e ce3d 668a 48bd 7225 7d3e c3ea 68be
000001b0: 25be 3dbe f4bd 2fbe c1c2 84be 6212 6dbe
000001c0: 8f35 e73b 92fb 383d 607e aa3e 6da9 c03d
000001d0: 9b63 533e 0e43 873d 928c 6cbd b23c 5b3e
000001e0: 2385 1cbe adf7 e13d 3b66 7c3d 5fbf e33d
000001f0: 6a98 573e a6d3 6bbe 947e 793d ee35 1ebe
00000200: 9498 4bbe 4333 733e e830 10bc 74f9 8b3d
00000210: 28c6 593d e9ef babd 47c8 883d 0c63 333b
00000220: 791e 6c3e d30d 11bf 7658 95bc 49f3 433e
00000230: 005d 863e fe5a 333d c76d a8be e90c 9c3e
00000240: 8fd3 8bbe 79d9 acbe 8b7f 943d 775f b03e
00000250: 46b1 c13e 3f9e 7a3d 52bf 883b 2bf8 1abe
00000260: 2d8f ebbc 97da 15be a953 46be 2859 b4bd
00000270: d74d febd 9beb 873d b5a5 b2bd cd30 9c3e
00000280: 99c8 3b3e 1aa3 af3d 7ff8 ce3c bad0 353e
00000290: 38b7 09be 9849 1e3d 41d2 1abe 94ea 363e
000002a0: 0949 16bd b0d1 f7bd 0d2d b4bb dc12 913d
000002b0: 06fa 80be 9f15 5d3d d584 e23d 55ca 143e
000002c0: 0017 203e 7968 553d d321 de3d 34c5 0dbd
000002d0: efae 9e3e bd15 2cbe b265 763e 77dd f23d
000002e0: cce5 2f3e 7f17 93bd 5c75 bbbe dd5c 06bd
000002f0: bd9c 83be cbb4 863e 2b88 c63e 553e a23d
00000300: 914b babd b498 6c3e ef8f c5bd 7df3 07be
00000310: 6db7 0cbe 7c48 e03d b1ae 023e acbd 773e
00000320: a227 57be 852b d83d 5ce4 3ebe 5e11 333e
00000330: 64ca fc3d d232 8ebe 85dc 75bd d8bc a93d
00000340: a7f6 543e 595a cdbc 60b3 7cbd 9c8d b4bd
00000350: a6ae 1dbd 677e e43d 0073 1dbb 244c 19bc
00000360: 7304 59bc 48d7 163d f51a a4be 47c3 d7bd
00000370: 7222 023c b59a 1fbe 1d82 d73d 3293 5bbd
00000380: f09d f03e 8215 f4be 8304 09be bc92 7cbd
00000390: a133 033e abdc 7a3c 963e d2bd c977 ea3e
000003a0: 6fcf bf3c 7771 123e 3352 963e aa82 1cbe
000003b0: 339d b1bd 8f6c 74bd 28b0 c2be 79f8 3ebe
000003c0: ce54 d4bd 3e0d 933e 2e65 623e 2f19 223e
000003d0: 39af c43e 1f1a 99bd 51c6 05be f00b b0be
000003e0: efec 78be 8d2f f4bc 7989 69be f23b 943e
000003f0: 7a93 883e 14d1 8a3e 4120 a6be 2833 54bd
0.34548518 0.11571368 -0.1741828 -0.32115847 -0.07148865 0.09071094 0.010975046 0.007314258
-0.04475102 -0.22004588 0.19252151 0.09896233 -0.003429598 0.22484452 -0.1585175 -0.21370941
0.08627851 -0.17508937 0.1962367 -0.032114815 -0.23382422 0.07035203 0.26542097 -0.074575685
-0.23814654 -0.096015714 0.3256126 0.09369401 0.23696901 -0.08794378 0.16411719 0.10207283
-0.22683495 0.19411191 0.39099216 -0.005003851 0.7171883 0.190491 0.40502757 -0.51011807
0.18644764 -0.1656326 -0.21351185 -0.36622283 -0.22009477 -0.11398271 -0.005190595 -0.78356975
0.38371122 0.33489275 0.02356111 -0.27563608 -0.3190026 0.7554339 -0.09240487 -0.12738082
-0.09050006 -0.10319791 -0.076765634 -0.05893011 -0.033969693 0.025832206 -0.17159314 -0.22284867
0.04628659 -0.17015094 0.0961476 -0.122559056 0.11404601 0.110317975 0.20488551 -0.07613917
-0.17939912 0.18746823 0.14980754 -0.31989345 0.23504245 -0.31745362 0.4862593 -0.3201057
0.14203812 -0.19094712 -0.2878926 0.0416211 -0.14067969 0.050550975 -0.02243305 0.2724205
0.3326874 -0.16576214 0.16020975 0.03826068 0.1115302 -0.20442028 0.071910575 0.048906565
0.2347815 0.095723115 -0.22164658 0.012644907 0.035172254 0.1352968 -0.008435707 0.16666247
0.10076628 -0.048960112 0.24721316 -0.22745804 -0.18529566 -0.17162305 -0.25929835 -0.23151544
0.007055945 0.04516179 0.3329954 0.094073154 0.20643465 0.066045865 -0.057751246 0.21409872
-0.15285163 0.110335685 0.061620932 0.111204855 0.21054235 -0.23029956 0.06091173 -0.1545026
-0.19882423 0.23750024 -0.008800723 0.06834689 0.053167492 -0.091277905 0.06678825 0.002737227
0.230585 -0.5666172 -0.018230658 0.19135775 0.26242828 0.04378795 -0.32896253 0.304786
-0.27309844 -0.33759668 0.072508894 0.34447834 0.3783056 0.06118607 0.004173198 -0.15133731
-0.028754795 -0.14634167 -0.19367851 -0.08806068 -0.124171905 0.06636735 -0.08723012 0.30505982
0.1833824 0.08576031 0.025264977 0.17755404 -0.13448799 0.038644403 -0.15119268 0.17862922
-0.036690746 -0.121005416 -0.0054985345 0.07083675 -0.25190753 0.053975698 0.11060492 0.14530309
0.15633774 0.052101586 0.10846295 -0.034611896 0.3099284 -0.16805167 0.24062231 0.11858647
0.17177504 -0.07182216 -0.36612976 -0.032803405 -0.2570552 0.2630981 0.38775763 0.07922045
-0.090964444 0.23105127 -0.09646594 -0.13276477 -0.13741846 0.10951325 0.12761952 0.24193448
-0.21011212 0.10555176 -0.186418 0.17487094 0.123432904 -0.27773148 -0.060024757 0.08287972
0.20797215 -0.025067495 -0.061694503 -0.08816072 -0.038496636 0.11156922 -0.0024024844 -0.009356532
-0.01324569 0.036826402 -0.32051817 -0.10535293 0.007942783 -0.1558636 0.10522864 -0.053607173
0.46995497 -0.4767266 -0.13380627 -0.061663374 0.12812664 0.0153114 -0.102658436 0.45794514
0.023414342 0.14301096 0.29359588 -0.1528422 -0.086725615 -0.059673842 -0.38025022 -0.18649472
-0.10367738 0.2872104 0.2210891 0.1582992 0.38414934 -0.07475685 -0.13063933 -0.34384108
-0.24309133 -0.02980783 -0.22806348 0.28951985 0.26675016 0.2711264 -0.32446483 -0.0518066

sequential_6/conv1d_25/Conv1D f4 [64, 1, 3, 64]
00000000: ba27 f73e 0fab 383d de60 babd 80b8 0bbf
00000010: df43 a2bd 2341 f1bd 57f6 93be 58b3 00be
00000020: 2238 edbb 00b4 6c3c 0414 9fbd 840a b1bd
00000030: f098 ef3c 12e5 0dbd 4a90 72bc 69fb 56be
00000040: 3981 4ebe e79a 3a3d d467 2d3e cbb3 5abf
00000050: 7761 a3be 80af 1bbe 5392 e43d 3b2e a4be
00000060: 012b 5c39 a125 3d3e 435c 683d ed4b 01be
00000070: d0eb 3f3e 6ec9 8e3d 7671 a1be 6d89 6cbe
00000080: 07af 60bd 2666 26be 8bbb 593e 7f1b dabe
00000090: fbe9 22be 34cc 7bbe 18e7 3abe 8f69 f9bd
000000a0: 29a5 d2be 4865 debe ac76 7a3e 7693 cbbd
000000b0: 5b3d 8ebe 1a4c d8be 60e1 1fbe bc7f e23e
000000c0: 8ff0 01bf 9857 623d a21f 37be 11a3 96bd
000000d0: aa36 a3be 0db5 17bd 7e41 5abd f379 643e
000000e0: a657 5abd c53d 82bc f88e 1ebf 1f4d ae3e
000000f0: b08e c83c ab61 6d3e a97b 7fbc e886 cb3e
00000100: 54a4 853d 3528 75be e525 813d 3e2f 2ebf
00000110: 7a3b a5bd fbaf 37be e36a 9fbe 568e 3fbe
00000120: c9f6 0bbe e097 e7bc 4d16 17be 9c91 b5be
00000130: 8a91 9bbd 4ae1 0ebe 7f23 ec3d aa7e e9bd
00000140: 16f0 e43d 1baf c73d ccc9 103d 7a87 3fbf
00000150: 8da2 b6bd 0071 ad3c 3135 33be 74dc 15bf
00000160: bed1 e63d 0fec dc3e 4efd f6bc 08fc 2a3d
00000170: 0fcf 13be cc82 50bd 1136 12be 1631 bd3c
00000180: c5f0 2abe 1c74 463c 4dbb 453e a93a aabe
00000190: b3df 0abe ae3c 2cbe 0f31 03be f6d2 2abd
000001a0: 3ebc 18bf c388 01bf 4f2c 55bc fd11 70be
000001b0: b955 acbe 918c f2bd 914d d4be 5402 bebd
000001c0: 7fee f5be 4f90 1bbd 215a 2abe e04b 02bb
000001d0: b514 3cbf a9ff 5bbe 3448 82be bc0a 983e
000001e0: 5373 1d3e 14c4 3bbd 3da3 cabe 38f2 b93e
000001f0: 225c 79be 51b5 243e 7d36 ae3d a8a6 613e
00000200: 6325 8ebc a5fa e5ba fb9c 993d 1ae3 5abf
00000210: 4a97 ca3c dad1 0ebe 5364 21be 79f5 b6be
00000220: b25e c7be 75cd dd3d 6490 173e 995d 19be
00000230: 583f 6d3c 3a6e 90bd 9a16 263e 866a 06be
00000240: 4b66 bdbd 9a25 b3bd 9951 7f3d 4720 59bf
00000250: 5b77 a53d c351 5f3d c101 0e3d deac b7be
00000260: abb2 253d 7053 31be dcd5 acbd d0fb d3bc
00000270: 469f 53bd 977a 203e b5f7 0b3e bc37 353e
00000280: 3484 44be 2355 7e3d 1890 a1b8 1de2 04bf
00000290: 1575 0ebe a035 babc 69bb f13c da52 30be
000002a0: 09af 4ebf 7a26 b4be a0e7 1abd d1d3 8cbe
000002b0: 5514 77be 54d1 adbe b77d 2e3c ee90 9abd
000002c0: 5fd5 a1be 8629 c93d dc7b 2cbe 7d21 cabd
000002d0: 32d5 e1be 4343 063d ffad 8dbe 1f99 3dbe
000002e0: 9806 8f3d d985 14bd 088b bfbe f02b 543e
000002f0: b16e 643e 1873 57bc 400e 0a3d 5dec 823e
00000300: 0d90 78be f341 bfbe a024 6ebe 61ba 7abe
00000310: 1dbe 8d3d b603 573d b28c 883d e195 57bc
00000320: bff3 f03e 2b72 2ebe dc4f f4bc ec32 1cbe
00000330: 7ccb f43d 0057 51bd 61ae 0cbf 3516 69be
00000340: 36a8 60be 7cce 233e 86ba 45be f6a4 85be
00000350: d2cd 1ebe ffbb 2cbd 477f 07bf ccac 63be
00000360: 43d0 d3be 9423 bbbd a8a9 f83b e6e1 2bbd
00000370: 1993 ce3c 8c6d cbbd 764f 943d 3325 77bd
00000380: f41e c4bc aaa6 fabd a1c7 2c3e 0635 8b3e
00000390: 5935 1ebe 6e60 02be d3ca 0f3e df52 95bc
000003a0: 5427 7ebe 0bb8 183d b062 8a3e 7166 893e
000003b0: c026 03be bbbd 9b3e 6566 063f a93b 0f3e
000003c0: 3f40 c8bc 1d7b dbbd 0cfb 7b3c e905 79be
000003d0: 02a4 973d 02f3 5d3d 64d0 adbd b6f9 2a3e
000003e0: 83f3 09bd 63a2 163d 63bb fb3d ec73 99bd
000003f0: f415 a73c 0459 583c 4462 46bf 8c1e 0bbe
0.48272496 0.04508501 -0.09100507 -0.545784 -0.07923102 -0.11780002 -0.2889888 -0.12568414
-0.0072393576 0.014447212 -0.077674896 -0.08644584 0.029247731 -0.034642287 -0.014804909 -0.20994343
-0.20166482 0.045557883 0.16934139 -0.8543059 -0.31910297 -0.15203667 0.11160722 -0.3206652
0.00020996855 0.18471386 0.056728613 -0.1262662 0.18742299 0.069720134 -0.31531876 -0.23099299
-0.05485442 -0.16249904 0.21262948 -0.42599103 -0.15909569 -0.24589616 -0.18252218 -0.12178337
-0.41141632 -0.43436646 0.24459332 -0.09940235 -0.27781186 -0.4224556 -0.15613317 0.4423808
-0.5075769 0.055259317 -0.1788316 -0.07355321 -0.31877643 -0.037037898 -0.053285114 0.22312145
-0.053306244 -0.015898595 -0.61936903 0.34043214 0.024482101 0.23181789 -0.015593448 0.39751363
0.06525484 -0.23941119 0.06306056 -0.68040836 -0.08067985 -0.17938225 -0.31136236 -0.1870664
-0.1366836 -0.028270662 -0.14754601 -0.35462654 -0.07596119 -0.13953128 0.11530208 -0.114011124
0.11178605 0.097501956 0.0353487 -0.74816096 -0.08917723 0.021172047 -0.1750076 -0.5853951
0.11270474 0.43148848 -0.030150082 0.041744262 -0.14434455 -0.050905988 -0.14278437 0.023094695
-0.16693409 0.012112644 0.19309731 -0.3324788 -0.13561897 -0.16820022 -0.12811683 -0.041705094
-0.59662235 -0.50599307 -0.013011052 -0.23444362 -0.3365915 -0.11843217 -0.41465428 -0.09277788
-0.4803352 -0.03797942 -0.16635944 -0.001988165 -0.73469096 -0.21484245 -0.25445712 0.2969569
0.15376024 -0.04584129 -0.39577666 0.3631761 -0.24351552 0.16084792 0.085064866 0.2203623
-0.017351812 -0.0017546011 0.07500645 -0.8550278 0.024730343 -0.1394724 -0.15760927 -0.35734156
-0.38939434 0.108302034 0.14801174 -0.14977111 0.014480434 -0.07052274 0.1621956 -0.13126573
-0.092480265 -0.08747406 0.062333677 -0.84814876 0.08079406 0.054521333 0.03466964 -0.35874075
0.040453594 -0.17316985 -0.08439228 -0.02587691 -0.051665567 0.15671764 0.13668711 0.17697042
-0.19191056 0.06209291 -7.703918e-05 -0.5190752 -0.13911851 -0.022730649 0.02950831 -0.17219105
-0.8073583 -0.35185605 -0.03781855 -0.27505353 -0.2412885 -0.33948767 0.01065009 -0.075471744
-0.31608102 0.09822373 -0.16844124 -0.09869669 -0.44107968 0.03277899 -0.2767181 -0.18515442
0.069836795 -0.03626046 -0.3741076 0.20719886 0.2230785 -0.013149999 0.033704996 0.25570956
-0.24273701 -0.37355003 -0.23256159 -0.2448516 0.06921027 0.052493773 0.066674605 -0.0131582925
0.47060964 -0.17035739 -0.029823236 -0.152538 0.11952874 -0.05110836 -0.5495358 -0.22762378
-0.21939167 0.15996736 -0.19309434 -0.26102418 -0.15508202 -0.042171475 -0.52928585 -0.22233886
-0.4136983 -0.09137645 0.007588584 -0.04196348 0.025216626 -0.09933004 0.072417185 -0.06033821
-0.02394054 -0.1223882 0.16873027 0.2718889 -0.15450038 -0.12732098 0.14042215 -0.018227993
-0.2481969 0.037284892 0.27028418 0.2683597 -0.1280775 0.3041819 0.5249999 0.13987602
-0.024444697 -0.10716841 0.015379678 -0.24318661 0.07404329 0.05418683 -0.08487013 0.1669682
-0.033679496 0.036775958 0.122916006 -0.074928135 0.02039621 0.013204817 -0.7749369 -0.13585871

sequential_6/conv1d_26/Conv1D f4 [128, 1, 3, 64]
00000000: c3ac cebd 4d0e 0ebe 40d6 ad3d 4050 24bb
00000010: 333d 08bd ef9b 83bd 41c1 4bbe caf0 05be
00000020: 0419 8dbd 8c0f bebd c84f e6bd c2db 693d
00000030: aeb7 3abd cde1 1bbe 6ced 89bc 8825 08be
00000040: e8ac a23d 0237 f0bd 224d 86bd 5871 bd3d
00000050: f439 49bc 9e2c fd3c f4c7 4dbe f2db 163b
00000060: 6832 1abd 390c 863d 273a bb3c 34c8 a6bd
00000070: 2cc7 bfbd d248 a13c aeb3 7c3d e496 debc
00000080: 19a7 b73d 3408 fbbd 7885 0ebc e8ce 91bc
00000090: 8622 cb3d 748d 343d ac7a 96bd 9079 0f3d
000000a0: 0e8c 743d 8ee8 883d c33c d43d 63a7 54be
000000b0: 74e2 8c3d 5719 17be 234b 03be f156 c9bd
000000c0: e6fa 10bd f405 c3bc 6dc2 60bd 6c4a 55bd
000000d0: cc21 15be 0a8a a63d fbc9 a8bd a896 0dbc
000000e0: 0b18 5c3d 3fef 4e3d 4509 21be 5ca2 e3bc
000000f0: 1ce6 8ebc 17fe 793c f620 eabc 4a01 17bd
00000100: 3e6f 34bc 41c2 e0bd b053 a2bc 386b af3c
00000110: 219f 5ebd e1da 2e3c 0b24 48bd a8d2 99bd
00000120: 3a27 26be f554 b63b 0b2c e4bd b689 69bd
00000130: cf0d f3bd 358d c1bd c3d1 6a3d de1c f4bd
00000140: 0b53 8e3d fdba 383d 5bd2 acbd d23f 6bbd
00000150: c7bc cfbd 327d 173e b332 08be e8a0 b6bd
00000160: d009 3d3d f84d a2bd 978a 74bc e8cd fc3c
00000170: 7f0a 11be e741 99bc be22 90bd b98c 80bd
00000180: b056 66bb b8d6 cfbd 58fb 9d3d 8d2b 19bd
00000190: 3bbd e43c 26c1 4ebd 2cb1 bbbd 1c07 5fbd
000001a0: 1398 e23d cdc4 933d 772f 833d 881d 413c
000001b0: 9d6d e2bc 2577 39bd 9bab 69bd e834 08be
000001c0: 0517 b7bd 3bed 90bc 45d9 4cbe 9fcf e2bd
000001d0: 4edb f9bc c3c1 c5bd e512 a8bd b0c2 33bc
000001e0: 205b 2b3d 51cc 76bd 34cf 35bd 8acf c13d
000001f0: a08f 2b3d 707f 58bd e5b3 95bd eb54 3abe
00000200: 5b99 c03d 7f18 30bd 9287 383b e4fb a0bd
00000210: c530 7abd 6a34 0e3e 4d51 ccbd 7556 bcbd
00000220: 3f82 2ebe 053b 3cbe 4cc5 5cba fcbc b33c
00000230: d9c7 31bd c4ca 60bd 43da c43c 329d a1bd
00000240: 1003 9c3d 4b4d 9bba f6fb ba3d 48cc 463d
00000250: 6e62 85bd 8077 0a3e d1d0 3fbe 145c 6ebd
00000260: 98b3 43be 1a94 7cbc 2cfd ef3a 3d4e e7bd
00000270: e45a 07be 223d 663c f08c ddbb 2c0c 013d
00000280: c97d 8abc dbcd 08bd 8bc7 82bc f5f1 8b3b
00000290: b533 a63d 23e8 573c 5ccc 5bbc 95ac 76bd
000002a0: f561 0a3d eb76 4dbd 4869 6ebd e31d f43c
000002b0: f129 39bd ad2e faba 4544 73bd 066d c2bd
000002c0: 3a66 c7bd 3fc0 2dbd 726f 563d 435c 6dbd
000002d0: 0104 0fbe ecba 2f3d 63ee e93d 62a6 32bd
000002e0: 840b c1bc de72 54be 00f6 2e3c cad3 f5bd
000002f0: 1c8c 15be 1617 77bc ae39 3abe f404 54be
00000300: d934 0dbf ec45 493d afbf aebc 733a 1cbd
00000310: 4557 d93e f9f4 9bbd 0ac4 9abc 6a1e 893d
00000320: d3e2 21be f059 7dbd ab42 efbd c978 41bd
00000330: 36e9 2fbb 3ca9 f0bd f39d f13d fa99 38be
00000340: d678 bc3e aeda 2b3d a9dd e9bd b4d3 1a3d
00000350: 7a58 e33d 49c3 0f3d b891 a5bc 1b1c fc3d
00000360: e1c0 683e 2c5d 20be 0673 4fbe 73c5 a73e
00000370: 73d7 00be bac8 df3e 3df7 8f3d 1f10 913c
00000380: 7f21 553e 0399 eabd 6ee2 ba3d d168 29be
00000390: 05b9 95be fd3e 6bbe fcd5 793e e32e 213c
000003a0: 3aaf d3bd abac e9bd 051b d9bd b539 c13d
000003b0: e8d5 a13b f34d c0be 8f35 4abe 8f9f 13be
000003c0: 1c63 c13e 9b62 bbbe 0d2e 563c d845 c53d
000003d0: 518d 093d 4d82 f3bd 3fdf e93c c258 13be
000003e0: a37f 14be 63a8 c13d a878 03bf 0475 3fbc
000003f0: 2134 a3bc e1ef 5a3e d49a 60be 65f3 e93b
-0.100915454 -0.13872643 0.084881306 -0.0025072247 -0.03326149 -0.06426226 -0.1989794 -0.13080135
-0.06889537 -0.09280309 -0.11245686 0.057094343 -0.045585327 -0.15222855 -0.016836844 -0.13295567
0.079431355 -0.11729242 -0.06557681 0.09250134 -0.0122818835 0.030905064 -0.20095807 0.0023019281
-0.037645727 0.065453 0.022854878 -0.081436545 -0.09364161 0.019688044 0.061694793 -0.02717156
0.08967418 -0.12257424 -0.008698814 -0.017798856 0.09918694 0.044080213 -0.073476166 0.03502804
0.05970388 0.06684981 0.10363152 -0.20766978 0.0687913 -0.1475576 -0.12821631 -0.09831036
-0.035395525 -0.02380655 -0.05487292 -0.052072927 -0.14563674 0.081317976 -0.0824165 -0.008641876
0.053733867 0.05052113 -0.15726192 -0.02778738 -0.01744371 0.015258334 -0.02858017 -0.036866464
-0.01101285 -0.10974551 -0.019815296 0.02141343 -0.054350976 0.010672302 -0.0488625 -0.075108826
-0.16225901 0.005564327 -0.11141213 -0.057016097 -0.11867868 -0.09450761 0.05732895 -0.119195685
0.06949433 0.0451002 -0.084385596 -0.05743391 -0.10143428 0.14793852 -0.1330059 -0.08917409
0.046151936 -0.079250276 -0.0149256205 0.030859903 -0.1416416 -0.018708182 -0.070378765 -0.06276841
-0.0035146885 -0.10148376 0.07713956 -0.03739505 0.027922263 -0.05047717 -0.09164652 -0.05445014
0.11064162 0.07215271 0.064055376 0.011786826 -0.027640158 -0.04527964 -0.05704842 -0.13301432
-0.089399375 -0.017691245 -0.20004757 -0.11074757 -0.03050008 -0.09656098 -0.08206729 -0.01097171
0.04183495 -0.060253445 -0.044387057 0.09463413 0.04188502 -0.05285591 -0.07309703 -0.18196456
0.0940425 -0.04299211 0.0028156978 -0.07860544 -0.061081666 0.13887182 -0.099764444 -0.09196178
-0.17041872 -0.18381889 -0.00084217335 0.0219407 -0.04340348 -0.054880872 0.024029857 -0.07891311
0.076177716 -0.0011848597 0.09130089 0.04853466 -0.065129146 0.13522148 -0.18732001 -0.05819328
-0.19111478 -0.01541617 0.0018309704 -0.1129422 -0.13218266 0.014052661 -0.006761186 0.03150575
-0.016905682 -0.033399444 -0.01596429 0.004270787 0.08115331 0.013177904 -0.013415422 -0.06022318
0.033784825 -0.050162237 -0.058205873 0.029799407 -0.045206014 -0.0019087397 -0.05939128 -0.09493451
-0.09736295 -0.04241967 0.052352376 -0.057949316 -0.13966371 0.042902872 0.11422422 -0.043615706
-0.023565061 -0.20746943 0.010678768 -0.12003286 -0.14604229 -0.015081188 -0.18186066 -0.20705014
-0.55158764 0.04913895 -0.021331636 -0.03814168 0.42449394 -0.07615084 -0.018892307 0.06695254
-0.15809183 -0.06185335 -0.11682638 -0.04723433 -0.0026841885 -0.11751029 0.117977045 -0.18027487
0.3681094 0.041956596 -0.114192314 0.037799552 0.1110086 0.035098348 -0.020211086 0.12310048
0.22729827 -0.15660542 -0.20258722 0.3276783 -0.12582187 0.4370783 0.07029579 0.017707882
0.20813559 -0.11454966 0.09125219 -0.1654389 -0.2924272 -0.22973247 0.24398035 0.009837839
-0.10336156 -0.11409887 -0.10600857 0.09434835 0.0049388297 -0.3755947 -0.19746993 -0.14416336
0.37770927 -0.36598668 0.013072503 0.09632462 0.033582035 -0.11890087 0.028548835 -0.14389327
-0.14501815 0.09455945 -0.5135598 -0.011685614 -0.019922318 0.21380569 -0.21934062 0.0071396106

sequential_6/conv1d_27/Conv1D f4 [128, 1, 3, 128]
00000000: 17a2 213e 178b 233e 2f3f b9bb 8d86 92bd
00000010: 9792 3abd 628c 133e 33da 4cbc 29af 34bf
00000020: 32f8 583c e34c 8bbe 48a4 7b3d fd20 4abe
00000030: 596b a2bd 8f86 bebd 2bdb 1abe c6c5 70be
00000040: 7a06 56bd a303 e43d a3a7 97be ddc8 dfbd
00000050: 90a1 6fbe 1f82 89be 8600 ae3d ed74 6bbd
00000060: 6638 b93c bbbb 08be 5830 43bd db0e 2fbd
00000070: 51e7 adbd bc9c b93a 1ca4 17be c3cd 1a3e
00000080: 9aae 4cbc b619 223d 06dc a4be 7660 663e
00000090: 7144 8dbe f4d0 b1bd a1a7 e9bd 4239 df3d
000000a0: 0efa 29be cfae 2b3c 2584 ca3d 107c 8fbd
000000b0: b08a 393d 224b 26bc 136d 473e c453 463e
000000c0: 4bf1 a03d 26c3 8d3d 2681 843e 59df f4be
000000d0: beb5 08bd 2203 d63c d084 7c3d 5324 993e
000000e0: f8e9 23be 082f 223e c8e3 c5bd 6436 0ebe
000000f0: 8ae8 6d3e 63c0 0fbe 5fd8 fc3e fa91 4ebc
00000100: ae4a 8d3e 27d8 adbd a26a 113e 5a09 4fbd
00000110: a023 403c 53b0 72bd 6b88 f4bd 1e8f d6be
00000120: 0aa5 203e f882 63be 2692 2d3d 3972 c1bd
00000130: 8ac4 42bd 7bb4 93bb 4058 2c3b d945 993e
00000140: bde3 953d 56e3 70be 1d02 a9bd 8b4b bebd
00000150: 1602 523d 298c c1be 52c2 6fbe 6054 29be
00000160: 7e0b 193e f4e9 c7bd 54d0 aabb ab16 6cbe
00000170: 2fb3 9c3e 3d83 84bc cae8 9bbd f166 cdbd
00000180: b613 40be 366e 803e fa57 80be 1014 a5bd
00000190: 9d27 c2bd 5545 9fbe 0a1f 74be 629c 5ebe
000001a0: a710 babe 96ee 7cbe 1cb5 813e 3269 ccbc
000001b0: 4616 2fbd 4c5f 933c 83ea 023e ab5a 94be
000001c0: 80a6 06be 1973 7fbe f0c0 8cbd f92e 733d
000001d0: bb2b 4fbd 9b2b c33d 0a8b a0bd e156 93bd
000001e0: 468d 49be 3775 92bc 0a4c 383d af6f 943e
000001f0: 180f af3d d579 243e 319f 6ebe cf02 5f3e
00000200: bad9 163e 1cd2 763e fef4 1a3e f58f 2dbe
00000210: f3ca 44bd eb1b 09be 3739 363e d2b1 26bf
00000220: f64c f83b ce35 77bd 33ad 02be 31bd c8bd
00000230: 7f2e 613e 7c40 1c3e edfd 20bd 37f2 d6bd
00000240: ff2e d13d 9bc4 623e df7c 893e c57b abbc
00000250: 3e52 51be fa5a fabb 30da 513e 323b 2cbd
00000260: 7c57 0e3e 1d1f f6bd 75cc 29be 51bf 643d
00000270: b2c4 fdbd 368a a33d 8f65 873d 79ef 5ebd
00000280: 276b 8fbc 4139 48bd 51fe e0be d6f0 2c3e
00000290: 47f5 edbc a615 ed3d dfd8 26be 91ce 8a3e
000002a0: 5924 02be fbae b83d 54d7 f93c 1b4c 4abd
000002b0: 481d 903d 6e9c fabd f5b0 3e3e 0858 a63d
000002c0: e453 1dbe 6f35 0cbe 869e 843c 73b4 5dbe
000002d0: a5ae de3c 8fee 4f3d 835f 41bc cb94 cb3e
000002e0: 5a7b 2abe 73ab a63d 0307 26be 7ebb 10be
000002f0: 5843 2a3e 68f1 933c 47e7 f0bd 9937 d53d
00000300: 4d2f 573d 180f 7dbc cb64 25be d82a 55bd
00000310: 5c2f 44be b71d f5bd 69e0 27be fbdf 87be
00000320: a89c 14bd 3d23 87be 20ad 39bb 73b7 95bb
00000330: b2b9 27bc 5ff5 693e f44f 73bd f9fe 1d3d
00000340: 22bb 833d b2aa 75be 4642 7bbd e50d e9bd
00000350: 2c8b 77be 33f9 3fbe adcd 273e bed4 bf3d
00000360: 0541 90be 0e34 a8bc 6931 75bd 13f8 eabd
00000370: 8bf5 9a3d 0889 48be 1b34 013e 61de f0bd
00000380: 7feb 223d c69d 343e 9d8f b0be 8754 e6bc
00000390: 9966 6bbd f330 02be a211 b3be 97a3 21be
000003a0: a115 8c3d 6305 92be 6519 2f3e 5b41 f0bc
000003b0: 0a09 043e 4a13 a43d b72a 193e caf8 d0be
000003c0: 294e 293e 2dd2 1abe 3338 053d 207d 4c3c
000003d0: c3b7 13bd 1d82 75be e42a d7bc 61ef 81bd
000003e0: a9e4 86be edbb d03d 8ce7 0d3c 571f 043d
000003f0: 960d 163e 8a16 093e adde 2f3d 9e32 333e
0.15784489 0.15971027 -0.005653284 -0.0715457 -0.045549955 0.1440902 -0.012503195 -0.70579773
0.013242768 -0.27207097 0.061435968 -0.19739147 -0.07930631 -0.09303009 -0.15122668 -0.23512945
-0.05225227 0.11133506 -0.29620084 -0.109269835 -0.23401475 -0.26857087 0.084961936 -0.057484556
0.0226099 -0.13352863 -0.047653526 -0.042738777 -0.08491386 0.001416109 -0.14808697 0.15117554
-0.0124928 0.0395753 -0.32199115 0.22497734 -0.2759128 -0.08682433 -0.11408926 0.10899593
-0.16599295 0.010478689 0.09888486 -0.07006085 0.04529828 -0.010149749 0.19475202 0.19367892
0.07858523 0.06921987 0.25879782 -0.4782665 -0.033376448 0.02612454 0.061650097 0.29910526
-0.16007221 0.15838253 -0.096625865 -0.13887936 0.23233238 -0.14038233 0.49383828 -0.012608046
0.2759604 -0.084884934 0.14200833 -0.050546028 0.011727244 -0.059250187 -0.11940082 -0.41906065
0.15687957 -0.2221793 0.042375706 -0.09445614 -0.047550716 -0.004507599 0.0026297718 0.29936102
0.07318828 -0.23524222 -0.08252356 -0.092917524 0.05127152 -0.37802246 -0.23413971 -0.16536093
0.1494579 -0.0976142 -0.005212823 -0.23055522 0.30605456 -0.01617586 -0.0761276 -0.100294
-0.18757519 0.25084084 -0.2506712 -0.08060467 -0.09480212 -0.31107584 -0.23839965 -0.21739343
-0.3634083 -0.24700388 0.25333488 -0.024952505 -0.04274585 0.017989777 0.12784772 -0.28975424
-0.13149452 -0.2494625 -0.068727374 0.05937097 -0.050578814 0.095298015 -0.078390196 -0.07194305
-0.19682798 -0.017878158 0.04499439 0.28991458 0.08547801 0.160621 -0.23302914 0.21778415
0.14731494 0.24103588 0.1513252 -0.16949446 -0.04804511 -0.13389556 0.17795263 -0.6511508
0.007577534 -0.060354047 -0.12761383 -0.098017104 0.21990393 0.15258974 -0.039304662 -0.104954176
0.10214042 0.22145312 0.26853082 -0.020933041 -0.20441529 -0.00764024 0.20493388 -0.04204864
0.1390056 -0.12017653 -0.165819 0.055846516 -0.12391032 0.07985346 0.06611168 -0.054427598
-0.017507149 -0.048882727 -0.43944028 0.16888747 -0.029047621 0.11576395 -0.16293667 0.27110723
-0.12709178 0.0901775 0.030498184 -0.049388986 0.07036835 -0.12236868 0.18622191 0.081222594
-0.15364033 -0.13692258 0.016188871 -0.21650867 0.027182886 0.050764617 -0.011802557 0.39761958
-0.16648617 0.0813817 -0.16213612 -0.14134023 0.16627252 0.018059447 -0.11762863 0.10410995
0.052535344 -0.015445493 -0.1615173 -0.052042812 -0.19158691 -0.11968558 -0.163942 -0.2653807
-0.03628221 -0.26394072 -0.002833195 -0.004568988 -0.010237144 0.22847508 -0.05940242 0.03857324
0.06432177 -0.23990896 -0.0613425 -0.11379603 -0.24174184 -0.18747406 0.16387053 0.09366749
-0.28174606 -0.020532634 -0.059861574 -0.11473098 0.07566365 -0.19583523 0.12617533 -0.117611654
0.039775368 0.17638311 -0.34484568 -0.028116478 -0.05747089 -0.12713985 -0.3497439 -0.15785061
0.06840063 -0.28519735 0.17099531 -0.029328039 0.12894073 0.080114916 0.149577 -0.4081481
0.16533722 -0.15119238 0.0325243 0.012481004 -0.03606392 -0.23975416 -0.026265569 -0.06344486
-0.2634633 0.10192094 0.008661162 0.03225645 0.1465362 0.13387504 0.04293697 0.17499778

sequential_6/dense_13/BiasAdd/ReadVariableOp f4 [15]
00000000: 4e73 c8be 70fa a83e 0ca3 693e 609d 853a
00000010: a8d4 843e d9d8 37be 6e7f c5be 1f9a f4be
00000020: 0f25 cdbd a5dd 84ba 5633 4c3d bd49 1c3c
00000030: a696 893e 5445 ba3d 9235 593e
-0.3915047 0.3300357 0.22816104 0.0010193996 0.25943494 -0.17953815 -0.38573784 -0.47773835
-0.10016834 -0.0010136856 0.049853645 0.009539065 0.26872748 0.090952545 0.21211842

sequential_6/dense_12/BiasAdd/ReadVariableOp f4 [100]
00000000: 6b20 b53e 5919 16be a9bf 4fbe fe2d 323e
00000010: e3e7 7f3e ef13 d33e 5859 823e 7778 8c3d
00000020: 13fa 2cbe 9d53 40bd c0a5 8dbc da3e d03e
00000030: f199 8c3e 30db 933e 893d 82bd e43a 443e
00000040: 3e2a 913d e6a9 aa3e 88ef d23d e1cd 8a3e
00000050: e857 853e 648d 863e 94c9 bf3d 2a28 e5bd
00000060: 4bc6 55be 7b94 843e fc47 3dbe 3183 8bbe
00000070: cda6 013e 2550 cb3e 0fb5 cc3d bd16 d63e
00000080: 25ab 203e a171 d13e 652d 913d 9aa2 2a3e
00000090: f3dd 62bd 7f76 563e ccfa c43e e30d d43e
000000a0: 4817 583e ca55 b63d 86b8 d73e 26f6 10be
000000b0: 7618 b13d d865 6a3d 2b91 3c3e 8d4f 8d3e
000000c0: 62c7 553d 1f27 b13d 3275 1c3e 3aa5 763e
000000d0: 9d15 e03e 4cfe 893e 6b28 113e 8db6 b9bd
000000e0: ae60 af3d 5f49 c63e 3be5 06be 71c3 52bc
000000f0: 11a3 043e 7a72 313e 6fed 75be 465a 53be
00000100: b83d 373e 08a4 023e a347 883e f871 47be
00000110: 4d50 5b3e 9d25 efbc e27d 11be 13a1 97be
00000120: 91a9 cd3e 872d 963e de8d 063e c186 76bd
00000130: 4d63 983e 5ab4 d33e cb0b d23e 7b82 d13e
00000140: 7632 06bc cc17 f4bd ac37 f43d 32d2 813e
00000150: 59f4 f93d 46d5 7d3d 2f04 d63d a471 96be
00000160: 180e c6bc b007 353e 4093 aabd e168 a63d
00000170: 1e6c 983e 9bab c53e 0613 703e 9cbc 533e
00000180: a9e5 bb3e 9182 793e 15c5 b23e 3f9f 8fbd
0.35376295 -0.14658107 -0.20287956 0.17400357 0.24990802 0.41226146 0.2545879 0.06858914
-0.1689227 -0.04695474 -0.01729095 0.40672952 0.27461198 0.28878164 -0.06359393 0.1916309
0.07088135 0.33332747 0.10299593 0.27110198 0.2604363 0.26279747 0.0936462 -0.11189301
-0.20876424 0.25894532 -0.18484491 -0.2724853 0.12661286 0.39709583 0.09995472 0.41814223
0.15690286 0.40907004 0.070887364 0.1666359 -0.05538745 0.2094364 0.38472593 0.41416845
0.21102631 0.08903082 0.42132968 -0.14156398 0.08647244 0.057226032 0.18414752 0.27599755
0.0521921 0.0865004 0.15279081 0.24086466 0.4376649 0.26951826 0.14175574 -0.09068022
0.08563362 0.38727853 -0.13173382 -0.01286398 0.1295283 0.17328826 -0.24016355 -0.20639905
0.17894638 0.12757885 0.26617154 -0.1947707 0.21417351 -0.02919274 -0.14208177 -0.29615077
0.4016843 0.2933161 0.13140056 -0.060187105 0.2976326 0.41348535 0.41024622 0.4091986
-0.008190742 -0.119186014 0.11924681 0.2535568 0.12204809 0.06197097 0.10450017 -0.29383576
-0.024176642 0.17678714 -0.08328867 0.08125473 0.29769987 0.38607487 0.23444757 0.20677418
0.36698654 0.24366213 0.34915987 -0.07012796

sequential_6/dense_12/MatMul f4 [100, 384]
00000000: 8feb c33e 491e 543e fd63 73be ccd5 cb3d
00000010: a617 4abb 7e42 f3bd 0ba4 9d3e e5c3 91be
00000020: 47f2 f9be 17b6 13bf f4e0 48bd 45ce bcbc
00000030: be4f 84be 8cc0 6b3e c58e 503c 5ead 63be
00000040: 18e5 3a3d dde2 aabe e300 523e c4f8 99bd
00000050: 75a5 93bd 60e7 253c 2f92 99be 7464 75bd
00000060: c7bd cbbd bf99 0d3f 155a 983e c10a 61be
00000070: a6f8 e33b c76b 8cbd 622b 473e c447 593e
00000080: 7e8c 993d e5c0 7e3e 3725 413c 5654 dfbe
00000090: e18c bf3b 35a4 18bf 906b ab3e 2ed5 fb3d
000000a0: ba2e 40be d107 b8be 157f 01be 7c46 c2bd
000000b0: aa1f b23c 69c1 613e 584f 3bbd db4b 02be
000000c0: 31c4 113e 7710 11bd 5aa6 78bd c512 233d
000000d0: 3b8d a83e a329 3bbe 6aee 17be 4f64 273e
000000e0: 6655 4a3d 263b b2bb 0047 8d3e 8a9d b1be
000000f0: 10ab a53e 7a36 acbd d788 2cbe bd1a 453d
00000100: c741 22be 6135 54be b989 d23d 7562 3cbe
00000110: d2cf 5e3e 4227 8c3d 9e0d 523d 1205 8cbd
00000120: 3439 7b3c de74 8dbd 3285 4abc 5c1c d03e
00000130: 58f9 dabd 1477 b8ba f767 2bbf b696 14be
00000140: 89f4 4bbd c251 20be e588 c73d 167e 79be
00000150: d43f 89be 0a9c 5c3d d0e3 1ebd dcde 02be
00000160: fecf 97bc ce18 43bd e76a 9abd 0345 28bd
00000170: fd5d 2ebf b725 b1bd c362 0f3d 3e71 2dbb
00000180: 8435 183e da50 3f3d f189 64bc f39d 0d3e
00000190: f560 5bbe d058 a0bd 30ae 57bd 6f4b e73e
000001a0: c169 82be 3728 a73d fbfa bd3d f9ce e1be
000001b0: e2d9 94be a886 363e 173a aabd 9c36 363d
000001c0: f9a1 1dbd 7b2e 3d3e 6f3c 673e 9f58 f93d
000001d0: 3d80 82bc 2a7e 5cbe 78d9 213e 6c2e 363c
000001e0: a663 ccbd e708 4e3d 996c 963e 9580 35bd
000001f0: 97c0 953e 3d7d f23d ffcc fa3d ed5b b33d
00000200: f679 a33e 626e e03e 9bfc 86be bf85 15bd
00000210: 32c3 8d3d 7956 a9be 117c bc3d 6546 23be
00000220: 8e46 08bf 5c4c fcbe 23bf 1fbd c1ea 7b3e
00000230: c509 eebd c6b9 c13d ea7f db3d 0fe7 dabe
00000240: c30a 36bd 853b bcbe db3b 803e 9ffa 39bd
00000250: 95b6 ae3d 7c2d fe3d 9b54 78be 05ad ad3d
00000260: 7361 fb3b e3d1 6a3e 919d d1bb 51c1 1b3e
00000270: 1506 c5bd 0d3b 853d d8a3 7ebd 17e4 14be
00000280: 8580 7b3e 1d34 1ebe 485c 6f3d fe8d d2be
00000290: 1684 193e d9d3 c6be 727f 1d3d 0a17 293c
000002a0: 8f21 573d 4dcc a8be 66b5 61bd 6512 133e
000002b0: c8f9 a53c fd6c 4e3e 1d12 92bd 10cd 2dbe
000002c0: f9cb 55be daa7 02bc 1baf 7abe f440 b23d
000002d0: 0264 5c3e 4627 0b3e 7476 1c3e 4b3b a8bd
000002e0: 1bfd 71bc 1407 343e cdba 9fbd 4643 cfbe
000002f0: dbfb 6c3e 91e7 e53c 051e 5dbd bdf9 313e
00000300: bff9 72be 62a5 2cbe 5240 993d 1dd6 9b3d
00000310: 7d29 f4bc 80eb f1bd 0be2 8a3d d999 f93c
00000320: 639e be3d eb9f 653e 5744 dabc 1c51 1f3f
00000330: 7a8b 68be 97d7 12be 7049 a2bd 35ec 05be
00000340: b5e1 e1bd f7a5 bbbe 2a02 de3d 6981 9dbe
00000350: c314 8abd 0777 6c3d 9c93 3abe 19ce d5bd
00000360: fd1c 993d 737a 3d3d 26d3 133e 5a60 febc
00000370: ef2b 05bf d8f5 3cbd bfb0 1abe c8f8 54bd
00000380: 0c4e b73d 8873 493a 6fba 21be c091 18bb
00000390: c28a 3f3e c3b9 7cbd bc51 653d 8df8 6d3d
000003a0: b026 dabd 63ff 95bd 7b5a a1bc 3510 ccbe
000003b0: 702f 92bd 3adc 743e 1738 57bd e03d 65bd
000003c0: 7961 cabc 7599 aabd 9d3c 1f3e bf6e f33d
000003d0: c706 78bd 42d7 b2bd d7c9 13be 9e31 6fbd
000003e0: dfae c3bd c2b2 893e 76fd 653e 4db7 81be
000003f0: 778d b8bd c6ad e6bd 0333 0a3e c5f3 22bc
0.38265654 0.20714678 -0.23768611 0.09952888 -0.003083685 -0.11877917 0.30789217 -0.28469768
-0.48817655 -0.5769972 -0.049042657 -0.023047576 -0.25842088 0.2302267 0.012729351 -0.22234103
0.045628637 -0.33376208 0.20508151 -0.075181514 -0.07209293 0.010125965 -0.29994342 -0.059910253
-0.099483065 0.5531272 0.29756227 -0.21976759 0.0069571314 -0.068564944 0.19450143 0.21218783
0.074975 0.24878271 0.011788658 -0.4361903 0.0058456515 -0.5962556 0.334805 0.1229652
-0.18767825 -0.35943463 -0.12646134 -0.094861 0.021743614 0.22046436 -0.045729965 -0.12724249
0.14234997 -0.035416093 -0.06070552 0.039812822 0.3292025 -0.18277602 -0.14837041 0.16346858
0.04939785 -0.00543918 0.2759323 -0.34690505 0.32357073 -0.08408828 -0.16849075 0.048121203
-0.15845405 -0.20723487 0.10280175 -0.18396933 0.21758965 0.06843425 0.051282518 -0.068369046
0.0153334625 -0.06907056 -0.012360858 0.40646636 -0.1069209 -0.0014073574 -0.6695551 -0.14510617
-0.049793754 -0.15656188 0.097429074 -0.24364504 -0.2680651 0.053859748 -0.038791478 -0.12780327
-0.018531796 -0.047631077 -0.07539921 -0.04108144 -0.68112165 -0.08649772 0.035006296 -0.0026465203
0.14864165 0.046707965 -0.013948903 0.13829784 -0.21423705 -0.0782944 -0.052656353 0.4517474
-0.2547131 0.08161967 0.09276386 -0.4410322 -0.2907248 0.17824805 -0.08311861 0.044485673
-0.038484547 0.18474762 0.22581647 0.12175106 -0.01593029 -0.21532503 0.15805614 0.011119466
-0.09979944 0.05030146 0.29379728 -0.04431208 0.29248497 0.118402936 0.12246131 0.08757768
0.31928986 0.43834215 -0.26364598 -0.036504503 0.06921996 -0.33073786 0.09203351 -0.15944822
-0.5323266 -0.49277008 -0.03900064 0.2460127 -0.11622957 0.094592616 0.10717757 -0.4275441
-0.044443857 -0.3676416 0.25045666 -0.045405027 0.085309185 0.12411019 -0.24251024 0.084802665
0.007671529 0.22931628 -0.006396957 0.15210463 -0.09620301 0.06505404 -0.062167972 -0.14540134
0.24560745 -0.15449567 0.058437616 -0.41123956 0.14991793 -0.38833502 0.03845162 0.010320434
0.05252224 -0.3296837 -0.055104636 0.14362486 0.020260707 0.20158763 -0.07132361 -0.16972756
-0.2087859 -0.007974589 -0.2448086 0.08703795 0.21522525 0.135892 0.15279561 -0.08214434
-0.014769818 0.17580825 -0.07799301 -0.40481013 0.2314295 0.028064521 -0.053983707 0.17380424
-0.23728083 -0.16859964 0.07482971 0.07609198 -0.02980494 -0.11812496 0.067813955 0.030468868
0.093075536 0.22424285 -0.026643915 0.6223314 -0.22709456 -0.14340053 -0.07924163 -0.13078387
-0.11029378 -0.3665006 0.108402565 -0.30762795 -0.06742241 0.0577307 -0.18220371 -0.10439701
0.07476232 0.046259355 0.14436015 -0.031051803 -0.5202016 -0.046132892 -0.15106486 -0.05199507
0.08950433 0.0007684757 -0.15793775 -0.0023280233 0.18705276 -0.061700594 0.05598615 0.058098365
-0.1065191 -0.07324102 -0.019696465 -0.39856115 -0.07137954 0.23912135 -0.052543726 -0.05596721
-0.024704682 -0.08330051 0.15550466 0.118863575 -0.06055334 -0.087324634 -0.14432465 -0.058396928
-0.095548384 0.26894194 0.22459969 -0.2533516 -0.09011357 -0.112636134 0.13496022 -0.0099458145

sequential_6/dense_13/MatMul f4 [15, 100]
00000000: 5572 863e 865a 4bbf 9647 d2bd 57b2 4f3e
00000010: 00f7 32be 5af4 46bd a8cf aabd 92f8 bb3d
00000020: ce4a 44bf fa8c eebe 4dfd fbbe b785 86bf
00000030: 7d07 183e b193 0c3e f207 733d 66c0 04be
00000040: ca44 133d 59a2 1b3e dc3b b6bc eade 173d
00000050: 0b15 9dbd 9998 cdbb e73b 423e 5eb8 99bf
00000060: f7aa 423e f3f0 febe ce96 a2be 07fd c5be
00000070: 7d93 2f3e cfb6 fcbd c24d 19bf 4465 1cbc
00000080: 6917 7fbd 42ff 6e3d e6d1 babe 8c34 003e
00000090: 6ee0 37bf 07b9 bf3d 8f85 86bd 5cc5 86bf
000000a0: a125 87bf 4db0 393b 3ec2 1a3e 83ad e5be
000000b0: 1511 47bf f704 5f3e 4fa6 b3bf 1aff 533e
000000c0: 9c31 44bc d6d1 56bf c782 103e 9db0 80bb
000000d0: 27ca 4dbe a48c 56bd e80f 56bd 5e25 a83d
000000e0: c62f 96bc 7213 0b3e b007 0bbf 32df 213e
000000f0: 882a 9dbe 2ef6 ff3d 32b4 70bf d665 45be
00000100: d325 94be 7f9c f9be be42 3a3d c0b5 5bc0
00000110: 35a2 343e a473 01bd 14fa 33bf c95a 02bf
00000120: 1571 ccbd c7a4 c0be 220c 35bf 431d f2bf
00000130: 6696 bebd 984f cfbd 4424 67bd 93b6 75be
00000140: 23e8 f1be 1f71 06bf 7712 3b3c 6006 f2be
00000150: 8ab9 41bb 94c1 683e bf32 743e 3014 6bbe
00000160: 62e3 34bf 64a3 bc3d 4680 d8be f64c 77be
00000170: 96d1 0cbe 5601 723e d7db 0b3e dbd4 303d
00000180: cca0 31bf 3278 62bc e98b 133e c94c f9be
00000190: 6c8d ee3d 8c75 5abf 32f0 6abe 0e7d acbf
000001a0: 8897 743d 64b1 023e fa4f 12bf c59e cfbf
000001b0: 8121 81bf 3657 4dbf 7a70 05bf ded2 44be
000001c0: 4e60 8abf ead3 9abe 3e97 303e 5d3f bcbb
000001d0: 06e6 40bf 3ae4 99bf bdb1 983d 3819 003e
000001e0: dd5f 253e 76f1 193e f839 dd3c fc58 6abe
000001f0: 3482 1c3d a23c fc3d 995d 83bf 63b1 cabd
00000200: ff12 333e 9db2 d3bd 7192 17bf 265e f13d
00000210: e452 273e 99cc a4bf f784 95be c29a a1bf
00000220: b554 0cbd d55c 01be ee65 853d a0ee 86be
00000230: 8665 85bf 5dcc 0d3e 8f6e 323e 730a 94bf
00000240: 223a 99be b410 d3bf 3cb7 0bbd c2a1 14bf
00000250: e55d 533c b106 89bf 3c2a c0bf 634c 343e
00000260: 2755 13be bf7f c03d 88f8 29bf 902f c7be
00000270: e440 143e 738b 8bbf 32bb 38be f9e9 b0bf
00000280: e8a6 2a3d 917d 98bf a51e 58bf 67f1 4fbe
00000290: 8b55 eebd 9a20 bebd 754f 4d3d 9b6d 19bf
000002a0: 4421 523e 0f8e 15bf 0ffb c8bf a198 86be
000002b0: 7895 6b3c dadd 213e 2d45 14bc a377 1dbf
000002c0: b2b2 c7be 98b0 163e da3e ed3d 201e cd3d
000002d0: 6659 01bf 35a6 1fbf 54c4 e13d e44b fb3d
000002e0: 1a12 673e c2b2 a5bf 0b37 63bf 7589 c9bd
000002f0: 3bad 9bbc 28a7 7c3e 4c0c 21c0 3f96 21bf
00000300: 9842 58bf bb33 1e3e 2ccc 103e 7c2e 82bf
00000310: f213 8abf 678c bc3d 07cd 633e 0864 0abe
00000320: d278 073d 8822 873c 0efd d3bd a63b 14be
00000330: 021d 24be 3d59 69bf f026 78bb 8ad7 e4be
00000340: 0955 093e 778b 38bf 7776 88bf 8d0f d13c
00000350: 4f6c 3b3e 0092 5abf 4ed3 043e 689c 06bf
00000360: bf5d dfbd d8a9 9ebc 0c5c d9be 6198 c8bd
00000370: 75e4 9a3d 0576 e23c 14b1 de3d b5d7 dcbe
00000380: 09fc e73d 8e1b 95bf 43a9 eb3d e423 0c3e
00000390: 6d2e ecbe b19f 3c3e a58d 6cbe cdde b6bf
000003a0: aad0 78bf edf4 27c0 e313 80bf 598e a8ba
000003b0: 043b 31bf 9c46 a0bf 00d9 07bf ad38 323e
000003c0: 2b9e b33d bb3a 06bd 3160 123e a874 13bf
000003d0: 4e4e fd3d 4441 21bf a423 1b3e 98ea cbbc
000003e0: 9f28 16bf 05a8 d93c 5421 bd3c 42a4 30bf
000003f0: 1954 353e 76ec c9bd 8f99 91be 8925 0d3e
0.26259103 -0.79435 -0.1026756 0.20282875 -0.17477036 -0.048572876 -0.083403885 0.091782704
-0.7667664 -0.46591932 -0.4921669 -1.0509557 0.14846607 0.13728215 0.05933375 -0.12964019
0.035954274 0.1519865 -0.02224534 0.03707782 -0.07670029 -0.0062742946 0.18968163 -1.2009389
0.1901053 -0.49793205 -0.3175568 -0.38669607 0.17146106 -0.123395555 -0.59884274 -0.009545628
-0.062278185 0.0583489 -0.36488265 0.12520045 -0.7182683 0.09361463 -0.06568443 -1.0528979
-1.0558358 0.0028333843 0.1511316 -0.4485894 -0.7776044 0.21779238 -1.4035128 0.20702782
-0.011974718 -0.83913934 0.14112388 -0.003927304 -0.20096646 -0.05238022 -0.052261263 0.08210252
-0.018333327 0.13581637 -0.54308605 0.15807799 -0.3069651 0.12498127 -0.94024956 -0.19277129
-0.28935108 -0.4875221 0.045473807 -3.4329681 0.17640002 -0.031604424 -0.70303464 -0.5091978
-0.09982506 -0.37625715 -0.7072164 -1.891518 -0.0930603 -0.10122603 -0.05643107 -0.23995428
-0.4724742 -0.5251636 0.011417977 -0.4727049 -0.0029560053 0.22730094 0.23847483 -0.2295692
-0.7065946 0.09210852 -0.42285365 -0.24150452 -0.13751826 0.23633322 0.13658081 0.043171745
-0.6938598 -0.013822602 0.1440884 -0.48691395 0.11648068 -0.8533561 -0.2294319 -1.3475664
0.059714824 0.12762982 -0.57153285 -1.6220328 -1.008835 -0.802112 -0.5212475 -0.19221064
-1.081064 -0.30239803 0.17245194 -0.005744858 -0.7535099 -1.2022774 0.07455776 0.1250962
0.1614985 0.15033516 0.02700518 -0.22885507 0.03821011 0.12316252 -1.0262939 -0.09897115
0.17487715 -0.10336802 -0.59207827 0.117855355 0.16340214 -1.2874938 -0.29203007 -1.2625353
-0.03426047 -0.12633069 0.06513582 -0.2635393 -1.0421607 0.1384749 0.17424987 -1.1565689
-0.29927164 -1.6489472 -0.034110293 -0.5805932 0.012900804 -1.0705167 -1.5012889 0.17607264
-0.14387952 0.09399366 -0.66394854 -0.38903475 0.14477879 -1.0901932 -0.1804016 -1.3821403
0.04166308 -1.191332 -0.8442176 -0.20306931 -0.1163741 -0.09283562 0.050124604 -0.5993287
0.20520502 -0.5841989 -1.5701617 -0.26288322 0.014378898 0.15807286 -0.009049696 -0.61510676
-0.3900352 0.14715803 0.115842536 0.100155115 -0.50527036 -0.62362987 0.11023775 0.12270334
0.22565499 -1.2945178 -0.88755864 -0.09840671 -0.019003501 0.2467314 -2.5163755 -0.6311988
-0.84476614 0.15449421 0.14140385 -1.0170436 -1.0787337 0.09206467 0.2224618 -0.13514721
0.033074208 0.016495958 -0.10351001 -0.14475879 -0.1602669 -0.9115179 -0.0037865005 -0.44695693
0.13411345 -0.72087806 -1.0661153 0.02552011 0.18303035 -0.8537903 0.12971231 -0.52582407
-0.109065525 -0.019368097 -0.4245304 -0.09794689 0.07563106 0.027644167 0.10873619 -0.4313332
0.11327369 -1.1649034 0.115068935 0.13685566 -0.4612917 0.18420292 -0.23100908 -1.4286743
-0.97193396 -2.624324 -1.0006069 -0.0012859806 -0.69230676 -1.2521548 -0.5306549 0.17404433
0.087704025 -0.032770853 0.14294507 -0.5759988 0.12368451 -0.6299021 0.15150315 -0.024892136
-0.5865573 0.026569376 0.023087181 -0.6900064 0.17707862 -0.098595545 -0.28437468 0.1378385
