app/src/main/assets/ten_sec.tflite (tflite, 514148 bytes, 12 tensors)

sequential_2/conv1d_8/BiasAdd/ReadVariableOp f4 [64]
-0.11699914 -0.042770386 -0.028668353 0.15794048 -0.075493775 -0.022266267 0.11755584 -0.03521012
0.047272783 -0.07998875 -0.05789482 -0.10459621 -0.036765903 0.055574376 -0.049968213 -0.031220704
0.05047255 0.05256841 0.010709307 -0.015760418 -0.0017701027 -0.06335701 -0.015316664 -0.1478571
-0.14948252 -0.04751237 0.07407033 -0.06884504 -0.016741298 -0.11811137 -0.067044325 -0.08073343
0.03400541 -0.09448618 -0.053228013 0.025680512 -0.16534461 -0.0049608 0.00158138 -0.0977113
-0.09547246 0.008986288 -0.012730899 -0.16295047 0.11291583 -0.13486443 -0.13082528 -0.09078391
0.0669924 -0.04804427 0.05636055 0.02254988 -0.030705672 0.043470595 0.06661692 -0.0791954
-0.018850699 -0.03879723 4.7443857e-05 -0.14986558 -0.09023546 -0.0034677128 0.012119004 0.019324753
00000000: 3f9d efbd 0030 2fbd e5d9 eabc 26bb 213e
00000010: 7b9c 9abd bf67 b6bc 1ec1 f03d 7d38 10bd
00000020: 1ba1 413d 24d1 a3bd 1e23 6dbd 8a36 d6bd
00000030: d897 16bd f5a1 633d 78ab 4cbd 90c2 ffbc
00000040: 4ebc 4e3d f951 573d 1776 2f3c fe1b 81bc
00000050: ca02 e8ba 52c1 81bd bff2 7abc da67 17be
00000060: f211 19be 559c 42bd 2fb2 973d a1fe 8cbd
00000070: 0c25 89bc 60e4 f1bd 894e 89bd 9257 a5bd
00000080: 4249 0b3d f881 c1bd 9e05 5abd f05f d23c
00000090: 1950 29be 358e a2bb 4f46 cf3a dd1c c8bd
000000a0: 1187 c3bd 393b 133c 4395 50bc 7ddc 26be
000000b0: 6a40 e73d e719 0abe 10f7 05be eaec b9bd
000000c0: 5033 893d 12ca 44bd 52da 663d 87ba b83c
000000d0: 768a fbbc 390e 323d 746e 883d 3331 a2bd
000000e0: c86c 9abc d8e9 1ebd 74fe 4638 5d76 19be
000000f0: 5ecd b8bd 9142 63bb c98e 463c f24e 9e3c

sequential_2/conv1d_9/BiasAdd/ReadVariableOp f4 [64]
-0.05015926 -0.049685787 -0.06530361 -0.00919 -0.030300101 -0.011061229 -0.029990328 -0.013319399
0.022835378 -0.042041015 -0.035376504 -0.013333708 -0.02897803 -0.030775674 -0.01440656 -0.010014477
-0.015722236 -0.052265786 -0.04423123 0.020441655 -0.006244619 -0.046243493 0.030550344 -0.0131531805
-0.08146197 -0.029911727 0.007161226 0.070974775 0.014355388 -0.04928377 0.023701856 -0.02663551
-0.03152068 0.051848873 0.026087012 -0.124660574 0.016775407 0.0055160844 -0.019633474 -0.048018113
0.0053424044 -0.05769505 -0.15924487 0.018678939 -0.03668898 0.034949828 0.0059754364 0.0068787704
0.0031485555 -0.03684681 -0.014387162 -0.055165496 -0.029579164 -0.046137262 -0.016563788 0.03222044
-0.09081263 -0.00062187907 -0.04097988 -0.024465783 -0.022293724 -0.026805654 -0.03267864 -0.03429362
00000000: cc73 4dbd 5383 4bbd e6bd 85bd a791 16bc
00000010: eb37 f8bc 283a 35bc 47ae f5bc 9c39 5abc
00000020: 4211 bb3c 3333 2cbd f4e6 10bd a075 5abc
00000030: 5563 edbc 441d fcbc 7e09 6cbc c313 24bc
00000040: ebcb 80bc a614 56bd ce2b 35bd 4275 a73c
00000050: a99f ccbb d169 3dbd b744 fa3c 7080 57bc
00000060: 89d5 a6bd 7009 f5bc b8a8 ea3b 395b 913d
00000070: dc32 6b3c c7dd 49bd 652a c23c b732 dabc
00000080: d41b 01bd 7c5f 543d 6eb4 d53c 0b4e ffbd
00000090: 946c 893c 45c0 b43b 61d6 a0bc a4ae 44bd
000000a0: 560f af3b a551 6cbd 1611 23be 9304 993c
000000b0: 2f47 16bd 8d27 0f3d 98cd c33b 4f67 e13b
000000c0: ff57 4e3b aeec 16bd 22b8 6bbc 37f5 61bd
000000d0: 0150 f2bc 6dfa 3cbd c8b0 87bc 95f9 033d
000000e0: f9fb b9bd 9905 23ba 85da 27bd 776c c8bc
000000f0: 54a1 b6bc 8897 dbbc 0ada 05bd 7877 0cbd

sequential_2/conv1d_10/BiasAdd/ReadVariableOp f4 [128]
0.13383824 -0.074100606 0.098349825 -0.035230685 0.09816756 0.0106118275 0.13076928 -0.078618206
-0.043932375 -0.07886579 -0.1416686 -0.018139817 -0.005457125 -0.005999619 0.04776511 0.0360149
0.104107715 -0.089083366 0.0770473 0.13788204 0.10779885 0.08440433 -0.035153154 0.07537291
-0.14626771 0.10484766 -0.13429447 0.048518885 -0.11404793 -0.0061911494 0.14371286 -0.03049133
-0.07483051 0.117510416 -0.03493778 0.12989016 -0.11374349 -0.030727157 -0.01700955 0.091740675
-0.009641607 -0.0747467 0.123040624 0.168059 0.043467622 -0.03401293 -0.106853954 -0.019560255
0.0115741445 -0.067861736 0.06382867 0.049679015 0.04925618 -0.050293475 -0.013506336 0.040294237
-0.0536593 0.077278115 0.011852894 0.12225952 0.045227498 -0.04330597 -0.040137514 -0.025199857
0.05686388 0.0009020453 0.02837559 0.06737495 -0.04419558 0.13116814 -0.09565177 0.0843448
-0.05558881 -0.008912313 -0.026850691 -0.018143987 0.007213492 0.043498788 0.029047973 -0.044026025
0.09419561 -0.03462334 0.01744065 -0.024268417 0.0258608 0.0365065 0.015794553 0.15722169
-0.027355252 0.036836423 0.09201495 -0.06977937 0.07156268 0.12921403 0.14188007 0.009401466
0.00028616784 0.1271978 0.005445635 -0.081716426 -0.048677728 -0.07286898 -0.08619467 -0.01374437
0.12937355 0.020682978 0.0004684434 -0.016267408 -0.058556873 0.058593918 -0.035448093 -0.04964201
-0.028324636 0.015475913 -0.07510665 0.015467103 -0.03371452 -0.0421235 -0.011144289 -0.018603487
-0.05006861 0.021535808 0.075065166 -0.029303255 -0.10392818 -0.022230178 0.082872964 0.03109683
00000000: e40c 093e 0fc2 97bd a26b c93d 0d4e 10bd
00000010: 130c c93d 3bdd 2d3c 62e8 053e 9502 a1bd
00000020: 6ff2 33bd 6384 a1bd 9311 11be f499 94bc
00000030: afd1 b2bb 7498 c4bb 59a5 433d 5c84 133d
00000040: 6d36 d53d 5771 b6bd faca 9d3d f330 0d3e
00000050: a5c5 dc3d 2ddc ac3d c1fc 0fbd 1d5d 9a3d
00000060: 34c7 15be 5fba d63d 7d84 09be bdbb 463d
00000070: f691 e9bd 20df cabb 7729 133e f4c8 f9bc
00000080: bd40 99bd 4da9 f03d eb1a 0fbd ed01 053e
00000090: 59f2 e8bd 85b7 fbbc 9d57 8bbc 89e2 bb3d
000000a0: d5f7 1dbc cc14 99bd b9fc fb3d a917 2c3e
000000b0: 1b0b 323d 2451 0bbd 3fd6 dabd d43c a0bc
000000c0: 7ba1 3d3c 18fb 8abd 9bb8 823d 397c 4b3d
000000d0: d9c0 493d 8800 4ebd ae49 5dbc 920b 253d
000000e0: dbc9 5bbd fd43 9e3d a432 423c 3363 fa3d
000000f0: 7840 393d 9a61 31bd 3c67 24bd ee6f cebc
00000100: 1aea 683d 3c77 6c3a ed73 e83c e1fb 893d
00000110: 6d06 35bd f150 063e 13e5 c3bd f7bc ac3d
00000120: 18b1 63bd f304 12bc fbf5 dbbc b3a2 94bc
00000130: 285f ec3b c92b 323d 04f6 ed3c a254 34bd
00000140: a1e9 c03d 34d1 0dbd b2df 8e3c 8fce c6bc
00000150: 07da d33c d787 153d 9463 813c b9fe 203e
00000160: 1f18 e0bc cae1 163d 5672 bc3d 7de8 8ebd
00000170: 748f 923d af50 043e 0249 113e 9b08 1a3c
00000180: cc08 9639 2440 023e 4c71 b23b f15a a7bd
00000190: 4c62 47bd 553c 95bd d586 b0bd 1130 61bc
000001a0: 807a 043e 596f a93c 6999 f539 3a43 85bc
000001b0: 55d9 6fbd 2d00 703d 0532 11bd 6c55 4bbd
000001c0: 1109 e8bc af8e 7d3c 84d1 99bd bb69 7d3c
000001d0: 3d18 0abd b189 2cbd 8996 36bc 5766 98bc
000001e0: be14 4dbd dd6b b03c c4bb 993d 610d f0bc
000001f0: 4cd8 d4bd 101c b6bc 4db9 a93d c7be fe3c

sequential_2/conv1d_11/BiasAdd/ReadVariableOp f4 [128]
-0.03298822 0.037371233 0.061685644 0.0461555 0.054255087 -0.041483473 -0.013896209 -0.01623225
-0.027801743 0.11849649 -0.07354622 0.05730992 -0.13288896 -0.020788595 -0.02249695 -0.001298863
-0.13932829 0.023727223 0.11227711 -0.06934262 -0.032950364 -0.041478705 -0.016248386 0.071687296
0.016940195 -0.07951547 0.06761765 0.04058006 0.024580084 -0.008081506 0.08518467 0.05960347
-0.0033690578 -0.025339453 0.049721785 -0.037662584 -0.017750056 0.086712465 -0.0035190221 0.05980961
-0.0057637496 -0.07853611 -0.14881536 -0.06483292 -0.04041755 -0.04402969 -0.026077453 -0.03939396
-0.0024655892 0.039653875 -0.052696306 0.04179065 0.042711 -0.010705602 -0.010041122 -0.04458293
0.016288996 0.03832256 -0.0020425937 -0.04799334 0.04187196 0.004553924 -0.025883997 0.13127701
0.03949952 -0.035239007 0.116148904 0.105655566 -0.13491255 -0.03184262 0.12666771 -0.013170345
0.024721155 -0.048592713 0.09768093 0.03972032 -0.109148264 0.08616251 -0.12565874 -0.08509086
-0.11962283 0.03943458 -0.059312634 -0.16549778 0.07396912 0.08737406 0.05862702 -0.0073287627
0.02080036 0.060644593 0.033921972 0.018411558 0.007122411 -0.15632011 -0.027767638 -0.13033608
-0.18323497 0.029117696 -0.01749506 -0.026276339 -0.14203447 -0.029116984 0.006342774 -0.033862274
0.06722477 -0.009280165 0.060014766 0.10735111 -0.08912686 0.017787825 -0.04683864 0.054422032
-0.05061046 0.05500928 -0.08775189 0.071286544 0.013354445 0.056054812 0.04423592 -0.12771
0.053694475 0.054107 0.08187587 0.0037051416 0.05550497 0.059207924 -0.009736687 -0.011016034
00000000: a81e 07bd 9412 193d 16aa 7c3d 8d0d 3d3d
00000010: 953a 5e3d 93ea 29bd edac 63bc 7ff9 84bc
00000020: 7bc0 e3bc 4aae f23d 679f 96bd cfbd 6a3d
00000030: 0b14 08be d84c aabc 864b b8bc 9c3e aaba
00000040: 13ac 0ebe 985f c23c 8bf1 e53d 8103 8ebd
00000050: f6f6 06bd 93e5 29bd 561b 85bc cad0 923d
00000060: 2ac6 8a3c 02d9 a2bd 1f7b 8a3d 4737 263d
00000070: 2c5c c93c 4b68 04bc 4d75 ae3d c522 743d
00000080: 69cb 5cbb af94 cfbc 12a9 4b3d 1544 1abd
00000090: 9168 91bc 4e96 b13d 659f 66bb ecfa 743d
000000a0: d6dd bcbb 8ad7 a0bd 0e63 18be 1fc7 84bd
000000b0: df8c 25bd 7a58 34bd 62a0 d5bc 905b 21bd
000000c0: b995 21bb 1a6c 223d 15d8 57bd ac2c 2b3d
000000d0: bbf1 2e3d 8d66 2fbc 8583 24bc 979c 36bd
000000e0: 8070 853c 1ef8 1c3d 09dd 05bb aa94 44bd
000000f0: ef81 2b3d 1539 953b ad0a d4bc 7b6d 063e
00000100: 40ca 213d c756 10bd 7adf ed3d f261 d83d
00000110: 8426 0abe 686d 02bd 2eb5 013e 6ec8 57bc
00000120: 0584 ca3c 2709 47bd f00c c83d c6b1 223d
00000130: 2089 dfbd f875 b03d afac 00be 1e44 aebd
00000140: d0fc f4bd 2786 213d cef1 72bd 4078 29be
00000150: 1f7d 973d 2cf1 b23d e322 703d 1e26 f0bb
00000160: 8465 aa3c 7766 783d c4f1 0a3d d6d3 963c
00000170: 1d63 e93b 6112 20be f578 e3bc d276 05be
00000180: f3a1 3bbe 3c88 ee3c cd51 8fbc 7a41 d7bc
00000190: 7c71 11be be86 eebc 0bd7 cf3b 2bb3 0abd
000001a0: 24ad 893d d50b 18bc 0bd2 753d e6da db3d
000001b0: 2588 b6bd c6b7 913c e0d9 3fbd a3e9 5e3d
000001c0: ea4c 4fbd 6951 613d 43b7 b3bd aefe 913d
000001d0: 9acc 5a3c bb99 653d b930 353d 69c6 02be
000001e0: bdee 5b3d 4d9f 5d3d 89ae a73d f6d1 723b
000001f0: 2e59 633d 0284 723d a086 1fbc 987c 34bc

sequential_2/conv1d_8/Conv1D f4 [64, 1, 3, 3]
-0.1749994 -0.15215942 -0.060144518 -0.23214701 0.019596213 -0.031946577 0.18203731 -0.083474845
0.102431715 -0.023280283 0.35986722 -0.11108458 0.0072609354 0.39101857 0.041236307 -0.23719381
0.41853723 0.0073974347 -0.10965551 0.124213725 0.013368364 0.05636392 0.1090647 0.03581721
-0.13196364 0.077974126 0.200514 0.4469451 0.13570051 0.18899795 0.008900375 -0.101916745
-0.104707986 -0.45597336 0.054023337 -0.09039942 0.21052492 0.040382132 -0.42420325 0.07560201
-0.11635697 0.1036942 -0.18498422 -0.095219165 0.33677027 0.15510632 -0.11027239 0.14876756
0.29957086 0.14446454 0.089806765 0.09607542 0.08269591 -0.18177997 -0.21681099 -0.07527893
-0.19914158 0.06669109 0.011031915 -0.21452747 0.18349347 0.12266795 0.35705343 -0.05130946
-0.15403135 0.14455228 0.047730036 0.078666896 0.16807789 0.06926815 -0.017603848 0.13921587
-0.055361167 0.13471393 -0.3986971 0.034550797 -0.15981096 0.12081405 0.031441767 0.00017546453
0.3015957 -0.07019693 0.104675256 -0.14116162 -0.14811659 -0.11267527 0.07371906 -0.22824094
0.12419828 -0.2133614 -0.05616213 0.24158771 -0.06809554 0.053147476 -0.1589336 -0.13397725
-0.15853558 -0.15434994 0.0971239 0.16610375 -0.061604794 -0.21663396 0.19778098 0.10708344
-0.2279457 -0.13163531 -0.14505199 -0.18010089 0.09503493 0.08260162 -0.1558211 0.18931831
0.1816526 -0.090820715 -0.14044952 0.12772459 -0.119158305 0.14521997 0.15634793 -0.27456716
0.13206045 -0.11223257 0.16453646 -0.29640085 -0.018413827 0.12898043 -0.051631905 0.122190945
-0.0668349 0.14187895 0.37429637 0.0674457 0.20591098 0.3040238 -0.09281919 -0.012560765
-0.11105202 0.024848502 0.08329424 0.14928818 0.012141078 -0.1400038 -0.08057855 0.26126423
-0.20431434 -0.21378368 0.05776275 0.14569905 0.014401946 0.13834389 0.09311947 0.1995519
-0.20436512 0.2181449 0.053806227 0.30565813 -0.1708616 0.064182304 0.042292982 -0.1282003
-0.105015896 -0.26669484 0.081282064 0.23508337 -0.03697514 -0.04169473 0.057436366 0.17462537
0.23238933 0.03473387 -0.19340435 0.27462056 0.10691326 0.14989826 0.06611026 -0.116613835
0.11769311 -0.33267617 8.756473e-05 -0.28484297 0.24602968 0.12661478 -0.20117475 -0.14032423
0.10170199 0.04032684 -0.12811124 -0.23647776 0.15968904 -0.10375006 -0.09809087 0.02099995
0.06801341 0.100961454 -0.1462431 -0.09597271 0.013427816 -0.032797918 0.16504592 0.31716052
-0.062993154 0.09575858 0.21310118 0.024254695 0.008344414 -0.08707251 -0.10367949 0.30103692
-0.15192737 -0.090078846 -0.036409255 0.12477609 0.12507921 -0.25979558 -0.2160068 0.24731833
-0.1933477 -0.043215398 -0.11803261 0.099837616 -0.038558513 0.030413816 0.13869265 -0.08258943
-0.047933657 -0.06042198 0.08605495 -0.28661332 0.07717533 -0.09797595 0.021794358 -0.12383112
0.041722152 0.15211935 0.05047247 -0.024679147 -0.3179099 0.2858344 0.06666788 0.21808828
-0.35126477 -0.017756546 0.10517122 -0.2931082 0.16711542 0.08495821 0.13567238 -0.1708856
0.05260244 0.14582238 -0.14386496 -0.17168257 0.20244947 0.29042575 -0.0076066502 0.081416816
00000000: 0b33 33be aecf 1bbe 195a 76bd f2b7 6dbe
00000010: 3d88 a03c 6ada 02bd fd67 3a3e dcf4 aabd
00000020: b8c7 d13d 4bb6 bebc 8440 b83e 5080 e3bd
00000030: 24ed ed3b 9633 c83e 67e7 283d efe2 72be
00000040: 834a d63e 2e66 f23b 1193 e0bd c463 fe3d
00000050: fc06 5b3c dbdd 663d 505d df3d 11b5 123d
00000060: 7a21 07be e6b0 9f3d 8b53 4d3e fdd5 e43e
00000070: 13f5 0a3e ae88 413e e1d2 113c bab9 d0bd
00000080: 2471 d6bd 5775 e9be 9347 5d3d 5523 b9bd
00000090: d893 573e bc67 253d 2b31 d9be 3ad5 9a3d
000000a0: 904c eebd a05d d43d 816c 3dbe 4402 c3bd
000000b0: 276d ac3e 31d4 1e3e 7ed6 e1bd 8656 183e
000000c0: 5a61 993e 83ee 133e 9cec b73d 31c3 c43d
000000d0: 795c a93d 8724 3abe b303 5ebe d72b 9abd
000000e0: c5eb 4bbe 5795 883d 35bf 343c 17ad 5bbe
000000f0: b6e5 3b3e 5639 fb3d b5cf b63e de29 52bd
00000100: 65ba 1dbe 8305 143e 9280 433d 1c1c a13d
00000110: 9c1c 2c3e 76dc 8d3d f235 90bc 9b8e 0e3e
00000120: 64c2 62bd 73f2 093e 0722 ccbe 2385 0d3d
00000130: 7ca5 23be 5b6d f73d 15c9 003d e7fc 3739
00000140: c06a 9a3e 68c3 8fbd fb5f d63d ac8c 10be
00000150: e0ab 17be 4bc2 e6bd 05fa 963d feb7 69be
00000160: ab5b fe3d 697b 5abe 430a 66bd c562 773e
00000170: ad75 8bbd 2bb1 593d 7dbf 22be 5531 09be
00000180: 2757 22be e90d 1ebe e5e8 c63d 1a17 2a3e
00000190: 4f55 7cbd 4bd5 5dbe 1987 4a3e 904e db3d
000001a0: 996a 69be 68cb 06be 8288 14be 5e6c 38be
000001b0: aca1 c23d 0a2b a93d 918f 1fbe a9dc 413e
000001c0: 2403 3a3e 3600 babd 00d2 0fbe 3cca 023e
000001d0: 4509 f4bd 8bb4 143e ac19 203e 1194 8cbe
000001e0: db3a 073e 31da e5bd 3f7c 283e dac1 97be
000001f0: 98d8 96bc 7213 043e fa7b 53bd 3f3f fa3d
00000200: bce0 88bd b748 113e c6a3 bf3e f920 8a3d
00000210: 54da 523e 02a9 9b3e fd17 bebd abcb 4dbc
00000220: 3e6f e3bd 168f cb3c 2c96 aa3d 00df 183e
00000230: 5feb 463c 285d 0fbe 5e06 a5bd 6dc4 853e
00000240: c737 51be 1cea 5abe a298 6c3d 2232 153e
00000250: 24f6 6b3c 05aa 0d3e 6cb5 be3d 5557 4c3e
00000260: 1745 51be 6061 5f3e eb63 5c3d 397f 9c3e
00000270: 58f6 2ebe 0372 833d 683b 2d3d f046 03be
00000280: 9312 d7bd 3a8c 88be 3677 a63d b2b9 703e
00000290: 3f73 17bd 18c8 2abd 6542 6b3d fed0 323e
000002a0: 78f7 6d3e 1a45 0e3d ca0b 46be 119b 8c3e
000002b0: 57f5 da3d ee7e 193e d164 873d 3cd3 eebd
000002c0: 1609 f13d 8854 aabe f5a2 b738 f0d6 91be
000002d0: 34ef 7b3e 4ea7 013e c100 4ebe 28b1 0fbe
000002e0: 2249 d03d c22d 253d 982f 03be 3a27 72be
000002f0: 8685 233e e97a d4bd dee3 c8bd 1608 ac3c
00000300: 9d4a 8b3d e1c4 ce3d c0c0 15be 578d c4bd
00000310: 5800 5c3c 1c57 06bd cc01 293e dd62 a23e
00000320: 8e02 81bd 131d c43d 3237 5a3e c8b1 c63c
00000330: 02b7 083c 1253 b2bd ea55 d4bd 8321 9a3e
00000340: d992 1bbe 427b b8bd df21 15bd 9b8a ff3d
00000350: c414 003e ed03 85be e330 5dbe 0441 7d3e
00000360: f1fc 45be a102 31bd 15bb f1bd aa77 cc3d
00000370: 88ef 1dbd 6526 f93c 7205 0e3e a624 a9bd
00000380: 1556 44bd 0a7d 77bd 943d b03d fbbe 92be
00000390: 190e 9e3d 9da7 c8bd 158a b23c 2c9b fdbd
000003a0: d9e4 2a3d 2dc5 1b3e 38bc 4e3d ec2b cabc
000003b0: 16c5 a2be e358 923e 2b89 883d 8952 5f3e
000003c0: fad8 b3be 2d76 91bc 0264 d73d 4712 96be
000003d0: 4e20 2b3e 92fe ad3d b3ed 0a3e a2fc 2ebe
000003e0: a875 573d 7652 153e 5651 13be 8ecd 2fbe
000003f0: ea4e 4f3e afb2 943e 3541 f9bb dcbd a63d

sequential_2/conv1d_9/Conv1D f4 [64, 1, 3, 64]
-0.17300507 -0.10033515 0.08832815 -0.15620294 0.056300882 -0.22753266 0.17353919 -0.1358658
0.05728687 -0.1356758 -0.19140884 -0.109347716 0.066784844 -0.15014933 0.04538401 -0.029025732
0.031892877 0.035704073 -0.15328981 -0.23294424 -0.1517926 0.014118241 -0.10940297 0.04945115
-0.03361383 0.07932944 0.13355908 -0.046983823 -0.015346705 -0.032768715 -0.09623012 -0.048475042
-0.05997936 -0.09161857 0.00033808986 -0.1266541 0.10760412 -0.10948511 -0.034157306 -0.19767492
0.10005018 -0.0448467 -0.09290038 -0.036365394 -0.19662915 0.14750166 -0.044855792 -0.013366808
-0.08871857 0.048742216 -0.079473175 -0.11435081 0.11670354 0.017849 -0.14979956 -0.0042029633
-0.10877294 -0.09542433 0.023642804 0.10456284 -0.062024258 0.066549 0.09030174 0.20068689
-0.11935701 0.09596102 0.17833582 -0.08767741 0.035819326 -0.12403996 0.012188081 -0.12566482
-0.025293306 -0.07205126 -0.074924596 0.028421776 0.033645034 0.14817867 0.11263975 0.0731699
0.023587417 -0.13380963 -0.23517904 0.10530958 -0.014320978 0.14497551 0.023824742 0.12486391
-0.18452086 0.006147365 0.09925224 -0.03426788 0.1681692 -0.14106783 0.042957563 0.019691102
-0.120049834 -0.14584519 0.070038825 0.1190489 -0.14153975 -0.012092809 0.0365332 -0.26180422
0.13473643 -0.02844843 0.011426031 -0.035565842 -0.19959469 -0.057876475 -0.06683248 0.081176534
-0.021501604 0.012082031 -0.16983424 -0.015939774 0.029979698 0.018873045 -0.06788189 -0.1097643
-0.23529004 0.073443376 0.035177022 -0.053039048 -0.08549525 0.15275896 0.17534006 -0.0047393246
-0.043128807 0.27347636 0.10861204 -0.100167796 -0.095054686 -0.21906869 -0.043089125 0.067499384
0.18873087 0.013360368 -0.10569332 -0.04877541 -0.06593866 -0.06870907 0.066652164 0.088258825
-0.16648674 0.032784287 -0.031694762 -0.1404091 0.07779887 0.06467712 -0.007038188 0.06406071
0.01826203 0.020239498 0.028959526 -0.0605645 -0.026224373 -0.0825219 0.05483703 0.021755528
0.010779162 -0.14863022 -0.003796765 0.13973802 0.07395898 -0.012746887 0.03665942 -0.16337673
0.17884669 0.15516055 0.073382065 -0.1662056 -0.014262702 -0.044720527 -0.035679534 0.07416913
0.01431851 -0.1279484 0.12080393 0.08374971 0.06517895 0.13620205 0.012626505 0.08404447
-0.22080919 0.061159085 0.12844272 0.0008863243 -0.23482198 -0.07189405 0.025312487 0.06537582
-0.01897567 -0.11467581 -0.22886345 -0.05544694 -0.012029183 0.2326429 0.02490883 -0.1128757
0.14973469 -0.08321227 0.047616996 0.3837733 -0.012651099 -0.09205358 -0.08873654 -0.098976865
0.124462605 -0.17491618 -0.004787312 -0.04169342 -0.037749346 -0.013669916 -0.059565566 -0.10090134
0.048727334 -0.12082504 -0.08143066 0.023416087 -0.07592255 -0.02224478 -0.039848354 0.20327367
-0.005742786 0.0018330165 0.21904878 -0.06569554 -0.200002 -0.20599498 -0.24806187 -0.003351976
0.08337837 0.05866893 -0.14954545 0.2987632 -0.22131446 0.1474154 0.017942265 0.19592889
0.0033185543 -0.10187783 -0.08619371 0.061672427 0.00895043 -0.025283355 0.03738338 -0.027492296
0.2601813 0.117063746 -0.16403458 0.1411008 -0.098192945 -0.15528396 -0.17794734 -0.022678394
00000000: 3e28 31be 847c cdbd 64e5 b43d aaf3 1fbe
00000010: c19b 663d 52fe 68be 42b4 313e 6720 0bbe
00000020: a3a5 6a3d 99ee 0abe ae00 44be b2f1 dfbd
00000030: 7ec6 883d bfc0 19be 95e4 393d 5fc7 edbc
00000040: 1ba2 023d 6f3e 123d 01f8 1cbe ef88 6ebe
00000050: 856f 1bbe 3250 673c aa0e e0bd 4a8d 4a3d
00000060: a8ae 09bd 7977 a23d b6c3 083e 1c72 40bd
00000070: bf70 7bbc 7d38 06bd 4c14 c5bd c48d 46bd
00000080: ebac 75bd 84a2 bbbd a741 b139 9db1 01be
00000090: 8d5f dc3d bb39 e0bd 88e8 0bbd 4b6b 4abe
000000a0: 1ce7 cc3d 2cb1 37bd 8e42 bebd e1f3 14bd
000000b0: 2759 49be ad0a 173e b5ba 37bd 7500 5bbc
000000c0: 15b2 b5bd eba5 473d d5c2 a2bd c230 eabd
000000d0: 4402 ef3d 1138 923c 0e65 19be 03b9 89bb
000000e0: 59c4 debd d56d c3bd 8eae c13c 0b25 d63d
000000f0: 260d 7ebd d84a 883d 1ef0 b83d dd80 4d3e
00000100: 7371 f4bd 3687 c43d aa9d 363e 3790 b3bd
00000110: 49b7 123d aa08 febd 84b0 473c 47ae 00be
00000120: e833 cfbc 9c8f 93bd 1172 99bd c9d4 e83c
00000130: 60cf 093d 26bc 173e abaf e63d 1ada 953d
00000140: 663a c13c 6405 09be c6d2 70be 8dac d73d
00000150: 89a2 6abc 7674 143e 1b2c c33c a6b8 ff3d
00000160: 09f3 3cbe d66f c93b c244 cb3d 7a5c 0cbd
00000170: 8c34 2c3e 1674 10be 45f4 2f3d 3c4f a13c
00000180: b0dc f5bd 7158 15be 8470 8f3d e9cf f33d
00000190: ccef 10be eb20 46bc d6a3 153d 340b 86be
000001a0: 59f8 093e af0c e9bc 3f34 3b3c 7dad 11bd
000001b0: 8d62 4cbe e20f 6dbd 78df 88bd e23f a63d
000001c0: 2224 b0bc b6f3 453c 07e9 2dbe 2194 82bc
000001d0: fc97 f53c a59b 9a3c a905 8bbd 1bcc e0bd
000001e0: dfef 70be 7b69 963d c815 103d 793f 59bd
000001f0: 2218 afbd d86c 1c3e 588c 333e 564c 9bbb
00000200: d5a7 30bd 1805 8c3e fd6f de3d c624 cdbd
00000210: 08ac c2bd 8b53 60be 397e 30bd 1e3d 8a3d
00000220: aa42 413e 72e5 5a3c bd75 d8bd b9c8 47bd
00000230: d90a 87bd 57b7 8cbd ee80 883d 0bc1 b43d
00000240: 807b 2abe d148 063d 5ed2 01bd 67c7 0fbe
00000250: 0455 9f3d 7075 843d 9aa0 e6bb 4332 833d
00000260: 419a 953c 4ecd a53c 873c ed3c 7b12 78bd
00000270: 7fd4 d6bc 3e01 a9bd cb9c 603d a638 b23c
00000280: 159b 303c 8532 18be 26d3 78bb 7c17 0f3e
00000290: ce77 973d 52d8 50bc 3028 163d 3b4c 27be
000002a0: 9623 373e 68e2 1e3e 5649 963d cd31 2abe
000002b0: 1cae 69bc df2c 37bd b424 12bd fce5 973d
000002c0: 2f98 6a3c e804 03be 0d68 f73d f884 ab3d
000002d0: 8b7c 853d 8d78 0b3e 67df 4e3c 821f ac3d
000002e0: ce1b 62be f381 7a3d 7d86 033e 3858 683a
000002f0: 2c75 70be 303d 93bd 225c cf3c c2e3 853d
00000300: dd72 9bbc 27db eabd 2e5b 6abe 551c 63bd
00000310: 0d16 45bc f139 6e3e 9a0d cc3c 602b e7bd
00000320: 0d54 193e 326b aabd 0a0a 433d ef7d c43e
00000330: 8e46 4fbc 9686 bcbd 81bb b5bd 62b4 cabd
00000340: 40e6 fe3d 3a1d 33be e2de 9cbb b8c6 2abd
00000350: 0f9f 1abd c9f7 5fbc 06fb 73bd 5da5 cebd
00000360: 5096 473d 1e73 f7bd 1ec5 a6bd 18d3 bf3c
00000370: 487d 9bbd af3a b6bc 0738 23bd f926 503e
00000380: fb2d bcbb d441 f03a 534e 603e 628b 86bd
00000390: 53cd 4cbe 59f0 52be ee03 7ebe d3ac 5bbb
000003a0: 47c2 aa3d d54e 703d 7122 19be 7df7 983e
000003b0: 42a0 62be 10f4 163e a8fb 923c 95a1 483e
000003c0: 1a7c 593b 53a5 d0bd 5486 b0bd 3a9c 7c3d
000003d0: d3a4 123c 0a1f cfbc 511f 193d 8637 e1bc
000003e0: 7c36 853e 1ebf ef3d aef8 27be ba7c 103e
000003f0: 6219 c9bd c202 1fbe d437 36be 0ac8 b9bc

sequential_2/conv1d_10/Conv1D f4 [128, 1, 3, 64]
-0.031555664 -0.04621492 0.036273807 -0.21969883 -0.03021009 -0.07312414 0.094146036 -0.051994152
-0.13259529 -0.059961908 0.0515724 -0.34743142 -0.23651558 -0.18196712 -0.13288173 0.06097013
-0.10248779 0.11162018 -0.20425785 -0.13186502 0.050042618 0.10325239 0.054915804 -0.11763675
0.11772916 0.06998188 0.068204015 -0.12881579 -0.033875074 -0.003418026 -0.05308461 -0.034346063
-0.18319844 -0.13093299 0.007813128 -0.05120481 -0.064483464 -0.14405207 -0.20435914 -0.12648359
-0.15833892 0.02635451 0.011772377 0.054104898 -0.08938379 -0.2421225 0.014146008 -0.18448122
-0.2772202 0.07319074 0.028131137 0.039288074 0.033882905 -0.10363678 -0.1819255 0.010665814
0.18893628 0.03677001 0.07959829 0.0017344813 -0.061788447 -0.004631792 0.06061142 0.055103283
0.0026978995 0.028149258 0.101149775 -0.0795396 0.030714558 -0.047136046 -0.031865194 0.041466925
-0.10828903 0.07992499 0.104186505 -0.213035 -0.28566968 -0.09273777 -0.04246861 -0.07259339
-0.09892438 -0.052144304 -0.09485894 -0.13020247 0.044286214 0.023980677 -0.065717444 -0.115426086
-0.054849476 -0.016392637 0.044830553 -0.25370947 -0.059772313 -0.12587549 -0.13600996 -0.019778753
-0.116078876 -0.09864625 0.056807768 -0.15748665 -0.06098675 -0.17224361 -0.12175397 -0.084081136
-0.09766886 -0.060039416 -0.069360465 -0.05892804 -0.024226896 -0.23661028 0.12009294 0.056005176
-0.138616 0.06515454 -0.0016803988 -0.01945193 0.039879516 -0.16481641 -0.21303134 0.04059273
0.009939782 0.079600856 -0.097000934 -0.087588385 -0.069491275 -0.025422608 -0.08824783 0.09770305
0.028889922 -0.10127063 0.10195675 -0.052281264 0.05989769 -0.10677767 -0.005756011 -0.0038532799
-0.10593964 0.11938262 -0.025423052 -0.27321562 -0.13589038 0.048877962 0.07132629 -0.038364813
-0.06673559 -0.0039248513 -0.2485839 -0.076623365 0.15601008 -0.05167937 0.046568695 -0.15280803
0.05544732 -0.055161223 0.034662563 -0.26757398 0.07197631 0.034682266 -0.032002144 -0.0444169
-0.06228344 -0.12444822 0.035817493 -0.21050169 -0.12967756 -0.06765054 -0.1825682 -0.22950268
-0.22301002 -0.023066098 0.009097135 0.03580322 -0.032611147 -0.14271528 0.08549361 0.022821896
-0.069906555 -0.05418832 -0.0526786 0.04525335 -0.020294655 -0.058401957 -0.052621283 0.06493834
0.14686683 0.12178327 0.08425424 -0.25335488 -0.15938361 0.09213921 -0.006460033 0.007496765
-0.093471006 -0.046623673 -0.0563913 -0.1072924 -0.19363944 -0.04724069 -0.17089576 0.09184304
0.016879912 -0.026113695 -0.029612971 0.077821635 0.021051342 0.2128372 -0.0699661 0.17910634
-0.12912367 -0.1359124 -0.09475372 -0.15026265 0.09855904 -0.21792209 -0.1930693 0.04147205
-0.15112233 -0.08309696 -0.012585362 0.2830234 -0.07622589 -0.24782752 -0.21063636 -0.04818648
-0.08725136 -0.004449911 -0.22609198 0.12527764 -0.09554846 0.07236421 -0.06881238 -0.10132121
0.15863545 0.0024087294 -0.25315207 0.07188299 -0.06571573 0.14175907 -0.0131108025 -0.060168326
0.077039786 -0.13199152 0.20886932 -0.16024439 -0.12577127 -0.22143073 -0.066983454 0.031884383
-0.081257425 0.011454172 0.031507906 -0.07022235 -0.039017174 -0.08990493 -0.23164295 -0.11625645
00000000: 8340 01bd db4b 3dbd d893 143d bbf8 60be
00000010: 277b f7bc 1cc2 95bd a3cf c03d d2f7 54bd
00000020: 0fc7 07be 9e9a 75bd 953d 533d 88e2 b1be
00000030: 2431 72be 9755 3abe 2612 08be d1bb 793d
00000040: 1ee5 d1bd 1f99 e43d f828 51be a007 07be
00000050: 7df9 4c3d fd75 d33d 65ef 603d 89eb f0bd
00000060: fc1b f13d a952 8f3d 8cae 8b3d 49e8 03be
00000070: 97c0 0abd f600 60bb 3f6f 59bd 75ae 0cbd
00000080: 5f98 3bbe 4c13 06be a202 003c 23bc 51bd
00000090: e80f 84bd 6382 13be 8643 51be ea84 01be
000000a0: 9923 22be 6ae5 d73c eee0 403c 199d 5d3d
000000b0: d90e b7bd f6ee 77be a8c4 673c a5e8 3cbe
000000c0: ceef 8dbe 07e5 953d 4573 e63c 88ec 203d
000000d0: cdc8 0a3d 853f d4bd ae4a 3abe abbf 2e3c
000000e0: 8378 413e 269c 163d 6e04 a33d 8957 e33a
000000f0: e215 7dbd 4ac6 97bb ae43 783d fbb3 613d
00000100: 3ecf 303b 4699 e63c 9d27 cf3d a8e5 a2bd
00000110: 199d fb3c ba11 41bd 1485 02bd 39d9 293d
00000120: a4c6 ddbd b7af a33d bc5f d53d d925 5abe
00000130: 4c43 92be 4ded bdbd 91f3 2dbd d8ab 94bd
00000140: de98 cabd 4495 55bd 6745 c2bd cc53 05be
00000150: 7665 353d 2073 c43c de96 86bd 8364 ecbd
00000160: d8a9 60bd da49 86bc 3ea0 373d 35e6 81be
00000170: d0d3 74bd 81e5 00be 3246 0bbe 0d07 a2bc
00000180: c3ba edbd 0c07 cabd 43af 683d 2e44 21be
00000190: 3ecd 79bd a160 30be 255a f9bd bb32 acbd
000001a0: 9c06 c8bd e4eb 75bd dc0c 8ebd 875e 71bd
000001b0: 7c77 c6bc f749 72be 4af3 f53d af65 653d
000001c0: 5af1 0dbe be6f 853d d440 dcba a759 9fbc
000001d0: b458 233d a2c5 28be e324 5abe 9044 263d
000001e0: 78da 223c c605 a33d 6da8 c6bd 8a61 b3bd
000001f0: 7151 8ebd 1343 d0bc 47bb b4bd 8918 c83d
00000200: 8faa ec3c fa66 cfbd b3ce d03d e124 56bd
00000210: 4857 753d 40ae dabd ec9c bcbb 4f87 7cbb
00000220: e2f6 d8bd e07e f43d 0144 d0bc ebe2 8bbe
00000230: d926 0bbe 4234 483d 8513 923d 6c24 1dbd
00000240: abac 88bd 0a9c 80bb c78c 7ebe b6ec 9cbd
00000250: 1bc1 1f3e bfad 53bd d1be 3e3d b579 1cbe
00000260: bb1c 633d bcf0 61bd 55fa 0d3d 75ff 88be
00000270: 5168 933d fe0e 0e3d ae14 03bd 7fee 35bd
00000280: ec1c 7fbd b5de febd 5db5 123d c18d 57be
00000290: 32ca 04be 5e8c 8abd 29f3 3abe c002 6bbe
000002a0: bd5c 64be 1df5 bcbc 260c 153c 66a6 123d
000002b0: 4493 05bd f423 12be 4617 af3d fcf4 ba3c
000002c0: 2b2b 8fbd 92f4 5dbd 84c5 57bd 945b 393d
000002d0: fa40 a6bc e436 6fbd 6a89 57bd 64fe 843d
000002e0: 4264 163e 8269 f93d 7d8d ac3d bbb7 81be
000002f0: 7535 23be 7bb3 bc3d afae d3bb 6ca7 f53b
00000300: ba6d bfbd 77f8 3ebd 90fa 66bd 1ebc dbbd
00000310: 6b49 46be 747f 41bd 4cff 2ebe 3418 bc3d
00000320: be47 8a3c 63ec d5bc e796 f2bc f360 9f3d
00000330: dd73 ac3c fff1 593e 634a 8fbd a767 373e
00000340: ff38 04be 9f2c 0bbe 3d0e c2bd 74de 19be
00000350: 52d9 c93d f826 5fbe f5b3 45be 99de 293d
00000360: d0bf 1abe bd2e aabd d632 4ebc 71e8 903e
00000370: 521c 9cbd 7fc6 7dbe 0fb1 57be 305f 45bd
00000380: d7b0 b2bd 8fd0 91bb a884 67be c848 003e
00000390: e9ae c3bd b033 943d 81ed 8cbd 7f81 cfbd
000003a0: 5571 223e c6db 1d3b 269d 81be 6437 933d
000003b0: f895 86bd 4a29 113e b1ce 56bc 1073 76bd
000003c0: 09c7 9d3d c928 07be d7e1 553e 1b17 24be
000003d0: 2fca 00be bdbe 62be 9f2e 89bd 3399 023d
000003e0: 4b6a a6bd 48aa 3b3c 6f0e 013d bcd0 8fbd
000003f0: 79d0 1fbd 1320 b8bd cf33 6dbe dd17 eebd

sequential_2/conv1d_11/Conv1D f4 [128, 1, 3, 128]
-0.09702824 -0.0029646896 -0.05038692 -0.051454607 -0.11427601 -0.32094175 0.07833475 -0.023933982
0.07018955 -0.29362234 -0.12634471 -0.15546562 -0.2674529 -0.16702133 0.04567882 -0.257838
-0.11685732 -0.10829478 0.030951817 -0.0091496045 -0.2931467 0.019796193 0.01976054 -0.008619462
0.0020370416 0.18106453 -0.13781731 -0.43141282 -0.13420437 -0.120413065 0.053508904 0.020191755
-0.17119531 -0.024913993 0.036468256 -0.08263205 0.03899658 -0.07353118 -0.12693878 -0.0434028
-0.26750076 0.039776936 -0.050142422 0.048587266 0.16028398 -0.053123668 -0.1166034 -0.19776334
-0.09730395 0.04103052 -0.012628954 0.012093091 -0.060604725 -0.17328428 -0.04769948 -0.117185615
-0.1887138 0.028561898 -0.15676662 -0.04981509 -0.018378325 -0.24514039 -0.0038371086 0.042381942
0.03432536 -0.07533195 0.0046945033 -0.045372456 -0.07079955 -0.11794639 -0.029402403 0.013299683
-0.16563287 -0.33785665 -0.08354331 -0.049784385 -0.033456907 -0.025783058 -0.098178916 -0.1111866
0.11786052 0.04228438 -0.22202799 -0.10704629 -0.13110656 -0.0384515 -0.18352962 0.14092766
-0.13410045 0.027562395 0.026944246 -0.20018624 -0.018175991 -0.12947634 -0.043668855 -0.025847787
-0.28064924 -0.043677453 -0.016366571 0.015786609 -0.24824883 -0.05760405 0.025012285 -0.027857514
-0.058967575 -0.040629752 0.0094000595 0.0126429 -0.08562389 0.009243844 -0.028802954 -0.37943527
-0.0668065 -0.10295488 -0.14749877 -0.05727238 0.025492726 -0.09089064 -0.3460576 0.038145058
-0.09691648 0.057726223 0.019271469 0.049979467 -0.080443986 0.015161176 -0.021259144 0.031593904
0.04332953 0.14975159 0.1561576 0.06376803 -0.12406787 -0.029296018 0.0133266905 -0.023846569
0.11913108 -0.058565006 0.0460482 0.08854236 -0.1127806 -0.09782107 0.014526891 -0.2023968
0.022773724 0.012799048 -0.021510262 -0.005911372 -0.08434439 0.033523683 0.051236637 0.09640594
0.0547804 0.021136574 -0.042219143 -0.03662017 -0.07230345 -0.13070965 -0.069784455 0.073594496
0.02629976 0.038895905 -0.0039971736 -0.16556375 -0.076740354 0.07943397 -0.13201798 0.0059568533
-0.109958984 -0.0037474788 0.027790586 0.109125175 0.14486481 0.020148916 -0.027112773 -0.302058
-0.0830694 0.05944445 0.07128989 -0.097740635 -0.0753231 -0.10589719 -0.187946 -0.15080866
-0.20821622 0.111813545 0.026146006 -0.043832276 0.008696549 -0.0840876 0.10712564 0.00010796453
-0.067315735 0.048190102 0.12356895 0.025542561 -0.01109805 -0.1686526 -0.042570923 0.03621958
0.037039734 -0.2318864 -0.0286641 -0.0016764104 0.010504007 0.02769541 -0.03826343 0.01715985
0.07566205 0.08349043 -0.08143194 -0.0895055 -0.04530376 -0.01317576 -0.054733254 0.21947724
0.053961847 0.035841305 -0.019204479 0.06963844 -0.111580335 -0.071667664 -0.146205 0.0009576782
-0.16997512 -0.03887186 -0.053853314 0.095382236 -0.18468119 -0.050394755 -0.055261295 0.018815693
0.007691316 -0.09134988 0.05555843 -0.039679386 -0.062629685 -0.09052431 -0.0028933801 0.045787793
-0.10042118 -0.07394041 -0.072323486 -0.11226587 0.019858088 -0.23678371 -0.18623109 -0.019824618
0.03407281 0.06346307 -0.05643647 0.04813074 -0.04928093 0.013878286 0.017595898 -0.059527874
00000000: beb6 c6bd 3d4b 42bb 8462 4ebd 11c2 52bd
00000010: 8a09 eabd 7a52 a4be f86d a03d 3311 c4bc
00000020: 8abf 8f3d ab55 96be 8260 01be 6132 1fbe
00000030: 96ef 88be a407 2bbe b719 3b3d 5803 84be
00000040: e452 efbd a7c9 ddbd aa8e fd3c 39e8 15bc
00000050: 5317 96be a02b a23c dbe0 a13c a538 0dbc
00000060: e37f 053b fb68 393e fb1f 0dbe 24e2 dcbe
00000070: df6c 09be 209b f6bd 272c 5b3d 2e69 a53c
00000080: d34d 2fbe 6e18 ccbc bd5f 153d fe3a a9bd
00000090: e1ba 1f3d 8497 96bd 3dfc 01be 22c7 31bd
000000a0: dcf5 88be 24ed 223d 2462 4dbd 7103 473d
000000b0: 7c21 243e 3498 59bd c3cd eebd 7982 4abe
000000c0: 4b47 c7bd 9e0f 283d ace9 4ebc 1a22 463c
000000d0: a93c 78bd 6f71 31be 8860 43bd 03ff efbd
000000e0: 313e 41be a4fa e93c 6e87 20be e80a 4cbd
000000f0: 248e 96bc 1506 7bbe 0078 7bbb b098 2d3d
00000100: c098 0c3d a347 9abd 59d4 993b 78d8 39bd
00000110: 5bff 90bd e08d f1bd 4fdd f0bc eae6 593c
00000120: aa9b 29be 8cfb acbe c118 abbd b6ea 4bbd
00000130: 1c0a 09bd fe36 d3bc 0712 c9bd cdb5 e3bd
00000140: db60 f13d 6332 2d3d 4e5b 63be 163b dbbd
00000150: cc40 06be 527f 1dbd 30ef 3bbe 574f 103e
00000160: a151 09be 88ca e13c 2eba dc3c 9ffd 4cbe
00000170: d1e5 94bc 7295 04be 1dde 32bd bdbe d3bc
00000180: 42b1 8fbe 21e7 32bd 3013 86bc eb52 813c
00000190: f134 7ebe 39f2 6bbd 90e6 cc3c 7135 e4bc
000001a0: fc87 71bd 626b 26bd b502 1a3c 2b24 4f3c
000001b0: 945b afbd 7e73 173c 2cf4 ebbc 5745 c2be
000001c0: d9d1 88bd 02da d2bd eb09 17be 7196 6abd
000001d0: 1fd6 d03c df24 babd 762e b1be fe3d 1c3d
000001e0: 267c c6bd 5572 6c3d 33df 9d3c 45b7 4c3d
000001f0: d1bf a4bd 9566 783c a827 aebc 9c68 013d
00000200: 4e7a 313d 7b58 193e c7e7 1f3e d098 823d
00000210: 4c17 febd 34fe efbc 3158 5a3c e159 c3bc
00000220: fffa f33d dce1 6fbd 0a9d 3c3d b255 b53d
00000230: 84f9 e6bd 6a56 c8bd 3202 6e3c 1b41 4fbe
00000240: f68f ba3c 19b3 513c 4a36 b0bc 2fb4 c1bb
00000250: c0bc acbd 2150 093d 82dd 513d 7a70 c53d
00000260: 6a61 603d 9c26 ad3c fbed 2cbd 08ff 15bd
00000270: d513 94bd c0d8 05be 27eb 8ebd b6b8 963d
00000280: 9872 d73c 5051 1f3d b9fa 82bb 8b89 29be
00000290: 0c2a 9dbd 47ae a23d b92f 07be b531 c33b
000002a0: 2d32 e1bd 4398 75bb 15a9 e33c 057d df3d
000002b0: 7157 143e 570f a53c 9b1b debc 59a7 9abe
000002c0: 4a20 aabd 067c 733d 6f00 923d 3e2c c8bd
000002d0: ff42 9abd a0e0 d8bd eb74 40be 966d 1abe
000002e0: a236 55be 80fe e43d 2630 d63c 7989 33bd
000002f0: f87b 0e3c 1f36 acbd b064 db3d 046b e238
00000300: d5dc 89bd fc62 453d b811 fd3d a23e d13c
00000310: 98d4 35bc 44b3 2cbe d95e 2ebd fb5a 143d
00000320: fab6 173d a173 6dbe fad0 eabc 00bb dbba
00000330: 0019 2c3c 7ce1 e23c 1dba 1cbd d092 8c3c
00000340: b4f4 9a3d 08fd aa3d cac5 a6bd a94e b7bd
00000350: 6f90 39bd 25df 57bc fa2f 60bd a4be 603e
00000360: 1907 5d3d 55ce 123d b652 9dbc 999e 8e3d
00000370: 3b84 e4bd 7fc6 92bd c3b6 15be b20c 7b3a
00000380: f50d 2ebe 1938 1fbd 4b95 5cbd c357 c33d
00000390: 111d 3dbe bb6a 4ebd ab59 62bd 5e23 9a3c
000003a0: 6f07 fc3b a515 bbbd 3c91 633d da86 22bd
000003b0: fe43 80bd cf64 b9bd dd9e 3dbb fb8b 3b3d
000003c0: 9fa9 cdbd 126e 97bd 561e 94bd a6eb e5bd
000003d0: 6ead a23c 6e77 72be 5db3 3ebe 3d67 a2bc
000003e0: ee8f 0b3d edf8 813d ee29 67bd bd24 453d
000003f0: cdda 49bd c061 633c 4625 903c 80d3 73bd

sequential_2/dense_5/BiasAdd/ReadVariableOp f4 [11]
-0.18827228 -0.102390535 -0.1756464 -0.040218808 -0.06761046 0.078062475 -0.32804585 0.1464342
-0.09029408 0.2986271 0.011443029
00000000: 73ca 40be 21b2 d1bd a6dc 33be 7abc 24bd
00000010: 5a77 8abd 38df 9f3d a0f5 a7be d9f2 153e
00000020: 1aec b8bd a7e5 983e 8b7b 3b3c

sequential_2/dense_4/BiasAdd/ReadVariableOp f4 [100]
0.1646931 -0.0844424 0.16561154 0.054096036 0.3419523 0.1570493 0.18609564 0.0589703
0.031203795 0.14796604 0.13848992 0.29761407 0.25082493 0.24217221 0.10595271 0.18365021
-0.024655966 0.0022474125 0.005429759 0.10355776 0.2666318 0.09624054 0.24756885 0.1682557
0.094979234 0.05460532 0.10176288 0.036328364 0.14887019 0.09137655 0.004775084 -0.014150153
0.28172636 0.005535129 0.010782368 -0.063807 -0.031559393 0.07409122 0.07282652 0.24408205
-0.019962193 0.046193477 0.2587793 0.17281951 0.039450217 -0.022959983 0.023184432 0.038742002
0.012257375 0.19601063 -0.056504704 -0.0063600913 0.067963615 0.009741027 0.12456354 -0.0028446754
0.028472856 0.18415868 0.18633404 0.058258582 0.22085875 -0.048211556 0.24885799 -0.021771543
0.26972038 0.02394689 0.05236261 0.11111267 0.08574893 0.1512313 -0.09560459 -0.01511887
0.14085677 -0.016038258 0.1666918 -0.0112575665 0.18194757 -0.064062715 0.09197225 0.0343564
0.3030887 0.21699998 0.11436916 0.24965407 -0.024797529 0.028447894 0.007907166 -0.04904457
0.10674966 0.18664835 0.17889602 0.009250226 0.10857716 -0.0103104515 0.049445704 0.1550535
0.08993286 0.19872418 0.170771 0.08418559
00000000: 4fa5 283e 23f0 acbd 1296 293e ce93 5d3d
00000010: 5f14 af3e 88d1 203e db8f 3e3e d78a 713d
00000020: 1a9f ff3c 6984 173e 4dd0 0d3e df60 983e
00000030: 206c 803e fefb 773e bcfd d83d cd0e 3c3e
00000040: 4ffb c9bc 5349 133b 1fec b13b 1716 d43d
00000050: f783 883e c319 c53d b082 7d3e 394b 2c3e
00000060: 7984 c23d d4a9 5f3d 0f69 d03d 0dcd 143d
00000070: 6d71 183e a123 bb3d 4f78 9c3b 0bd6 67bc
00000080: 703e 903e 0760 b53b 87a8 303c 3fad 82bd
00000090: 6c44 01bd 23bd 973d 1226 953d a5f0 793e
000000a0: c187 a3bc 5f35 3d3d b87e 843e 99f7 303e
000000b0: 8d96 213d 9316 bcbc 47ed bd3c efaf 1e3d
000000c0: 28d3 483c 03b7 483e 7a71 67bd 5068 d0bb
000000d0: 8230 8b3d d498 1f3c 2b1b ff3d bc6d 3abb
000000e0: e83f e93c 1894 3c3e 5ace 3e3e 8da0 6e3d
000000f0: cc28 623e 7b79 45bd a1d4 7e3e 3c5a b2bc
00000100: ca18 8a3e 452c c43c 2d7a 563d 0a8f e33d
00000110: 239d af3d 61dc 1a3e 57cc c3bd 23b5 77bc
00000120: c23c 103e aa62 83bc 41b1 2a3e a871 38bc
00000130: 7750 3a3e 5033 83bd f25b bc3d 4cb9 0c3d
00000140: 712e 9b3e 3e35 5e3e 613a ea3d 51a5 7f3e
00000150: 3024 cbbc 8f0b e93c 0f8d 013c f6e2 48bd
00000160: 919f da3d bf20 3f3e 8530 373e 438e 173c
00000170: b45d de3d 2bed 28bc 9487 4a3d 58c6 1e3e
00000180: b82e b83d 5a7e 4b3e 98de 2e3e 7f69 ac3d

sequential_2/dense_4/MatMul f4 [100, 384]
0.017763609 -0.11541692 -0.20323248 0.09568609 -0.08289832 -0.1576142 0.012148479 -0.1466342
-0.06108598 0.044438154 0.0077563175 0.15039237 0.024886347 -0.029486857 -0.32880908 -0.1949017
-0.0038975524 -0.22788358 -0.1655175 -0.006492165 0.06181069 -0.04574435 -0.14783332 0.15489139
-0.030663515 -0.26898688 0.072978884 -0.20863739 0.11149167 0.027539566 0.0951097 0.038941216
-0.18244132 -0.14842363 0.10256666 0.033802662 0.058707178 0.09073003 -0.11841747 0.1467051
-0.08279252 -0.07080646 -0.090659544 0.021324027 -0.15583792 0.04524561 -0.07427047 0.042819694
-0.17876975 0.18638104 0.14301957 -0.002418378 -0.06757875 -0.079413675 0.012653165 -0.030411175
0.11013922 0.030475637 -0.17561595 0.0886745 -0.0013302902 0.15171006 -0.028691763 -0.066043556
0.044314165 0.049090274 0.063199 0.051681116 0.04338666 0.12254123 0.016836004 -0.030690674
-0.13698302 0.03439308 -0.24590349 0.16433579 -0.13961597 0.043015227 -0.25366613 -0.12288685
0.06935371 0.040567882 -0.04146806 -0.17456003 -0.020538386 0.119461656 -0.09979696 0.08092059
0.12834291 -0.0131691275 0.06637378 -0.17062426 0.084262356 -0.017829666 -0.071291246 -0.07824223
0.09841368 0.06589498 0.10390216 -0.07590394 0.006759465 -0.122644894 0.02825269 0.09003242
0.17691503 0.0633402 -0.022767428 0.16974255 -0.18912521 0.043622974 0.035653006 -0.102200545
0.19273625 0.011896473 0.1428602 0.039618645 -0.050651338 0.08540498 -0.0618299 -0.10472605
-0.20739123 0.094535254 0.17601241 -0.11304974 -0.005482571 -0.049822267 0.022082414 -0.08214807
0.08664808 0.2213917 -0.10762645 0.102746226 0.0149220005 -0.11192375 -0.114793025 -0.04613427
-0.06375153 -0.061007228 -0.053789146 -0.022541244 -0.08908408 -0.06203127 -0.072229505 -0.0067463103
-0.013189808 -0.08851618 -0.21064089 -0.029925428 0.016191024 -0.09107301 -0.0473041 0.08333271
-0.0062186536 -0.04004698 0.19738379 -0.18296705 0.04176079 -0.063265905 -0.13233566 0.14684165
-0.2167585 0.0805593 0.08629507 0.10929383 -0.07526335 -0.058358025 -0.15345617 0.1586525
-0.12203675 0.0056860354 -0.10738834 0.16669135 -0.07113804 0.033372287 0.043391738 -0.00892369
-0.1774826 0.07983524 -0.07192561 0.060870014 0.035279285 0.0072392854 0.05668701 -0.15623386
0.21379961 -0.13024603 -0.031274658 0.085953 -0.08504611 0.037245717 -0.07853325 -0.15174346
0.06334189 -0.011703491 0.0168762 0.186454 0.0030627765 -0.04011292 0.0036864202 0.2557964
-0.09391531 0.002022855 -0.25132164 -0.0076625324 0.13273981 -0.09007051 -0.052421834 -0.119506106
0.082183294 -0.10418737 -0.20362855 -0.09023066 -0.13893278 0.16945446 -0.16661765 0.005684747
-0.02269402 -0.14109685 0.028439557 -0.22465022 0.06527659 0.043783784 -0.053199034 0.0029866064
-0.050347805 -0.040643677 0.07249967 -0.06258777 0.0449927 0.07049052 0.07106589 0.06377747
0.009568311 0.079006635 0.011086283 0.04162743 -0.12703404 -0.113111116 -0.14716534 -0.15652467
-0.044345703 -0.04228186 -0.13177598 -0.014890558 -0.07141122 0.09586646 -0.13884573 -0.18160287
-0.14037763 0.029730763 0.031016748 -0.117524005 -0.061511032 0.10884503 -0.036506653 -0.19510813
00000000: fd84 913c b55f ecbd 2d1c 50be 12f7 c33d
00000010: 98c6 a9bd 9e65 21be 6a0a 473c 4727 16be
00000020: 4b35 7abd c804 363d b528 fe3b 7500 1a3e
00000030: 74de cb3c 6c8e f1bc aa59 a8be 5094 47be
00000040: 146e 7fbb 505a 69be 6b7d 29be 3abc d4bb
00000050: 352d 7d3d 6d5e 3bbd 9e61 17be d99b 1e3e
00000060: 0d32 fbbc a6b8 89be f475 953d 0aa5 55be
00000070: bf55 e43d a89a e13c e0c8 c23d d380 1f3d
00000080: e6d1 3abe 5dfc 17be 780e d23d a974 0a3d
00000090: f076 703d aad0 b93d dc84 f2bd dd39 163e
000000a0: 208f a9bd fa02 91bd b6ab b9bd baaf ae3c
000000b0: fa93 1fbe 7653 393d 1e1b 98bd b463 2f3d
000000c0: 6b0f 37be acda 3e3e b973 123e a67d 1ebb
000000d0: ba66 8abd a3a3 a2bd 384f 4f3c db20 f9bc
000000e0: ac90 e13d 0ba8 f93c abd4 33be fa9a b53d
000000f0: 225d aeba e259 1b3e fd0a ebbc d841 87bd
00000100: c582 353d e212 493d 7a6e 813d 94af 533d
00000110: 36b6 313d e5f6 fa3d a9eb 893c 026b fbbc
00000120: 4745 0cbe c2df 0c3d 20ce 7bbe a447 283e
00000130: 7df7 0ebe bc30 303d 87e0 81be 1aac fbbd
00000140: 5109 8e3d 822a 263d 6ada 29bd ddbf 32be
00000150: 1e40 a8bc 50a8 f43d 5962 ccbd b2b9 a53d
00000160: 536c 033e 53c3 57bc faee 873d 20b8 2ebe
00000170: be91 ac3d 850f 92bc 2501 92bd 763d a0bd
00000180: 1d8d c93d f3f3 863d a8ca d43d 8673 9bbd
00000190: 817e dd3b 3f2d fbbd 2f72 e73c eb62 b83d
000001a0: 3729 353e 82b8 813d c282 babc fed0 2d3e
000001b0: 0aaa 41be 01ae 323d e308 123d 854e d1bd
000001c0: a75c 453e 6de9 423c f249 123e 2947 223d
000001d0: c777 4fbd cee8 ae3d 5941 7dbd 9c7a d6bd
000001e0: 5e5e 54be b39b c13d 993c 343e 9f86 e7bd
000001f0: 24a7 b3bb 6f12 4cbd 2ee6 b43c 3f3d a8bd
00000200: 8c74 b13d 81b4 623e 426b dcbd 9d6c d23d
00000210: 687b 743c 4738 e5bd 9b18 ebbd 4af7 3cbd
00000220: 2a90 82bd b7e2 79bd 0252 5cbd 6aa8 b8bc
00000230: b771 b6bd 8014 7ebd 10ed 93bd 2710 ddbb
00000240: 111a 58bc f947 b5bd 3fb2 57be 2c26 f5bc
00000250: 0aa3 843c 7c84 babd f2c1 41bd 57aa aa3d
00000260: d9c5 cbbb 4d08 24bd fa1e 4a3e b75b 3bbe
00000270: 5d0d 2b3d 8e91 81bd 0083 07be a85d 163e
00000280: f1f5 5dbe 46fc a43d 78bb b03d 72d5 df3d
00000290: ac23 9abd d308 6fbd 9d23 1dbe cd75 223e
000002a0: 67ee f9bd ec51 ba3b 6bee dbbd 23b1 2a3e
000002b0: d2b0 91bd 61b1 083d 89bb 313d ab34 12bc
000002c0: 00be 35be a980 a33d bc4d 93bd d652 793d
000002d0: 0381 103d 8737 ed3b a330 683d c5fb 1fbe
000002e0: 49ee 5a3e 375f 05be db19 00bd 2008 b03d
000002f0: a82c aebd f78e 183d 0ad6 a0bd a362 1bbe
00000300: 65b9 813d 00c0 3fbc f53f 8a3c cced 3e3e
00000310: ddb8 483b 724d 24bd de97 713b bff7 823e
00000320: ac56 c0bd e091 043b 3bad 80be fb15 fbbb
00000330: f2ec 073e e376 b8bd 47b8 56bd 9ebf f4bd
00000340: b74f a83d 3060 d5bd 0184 50be daca b8bd
00000350: 6544 0ebe 7885 2d3e d19d 2abe 1d47 ba3b
00000360: cfe8 b9bc b17b 10be 13fa e83c b50a 66be
00000370: bcaf 853d a056 333d 3be7 59bd f1ba 433b
00000380: 8039 4ebd fc79 26bd b57a 943d 042e 80bd
00000390: 444a 383d 555d 903d fe8a 913d c39d 823d
000003a0: 68c4 1c3c 3bce a13d 3ea3 353c 8681 2a3d
000003b0: 3615 02be cda6 e7bd 83b2 16be 0148 20be
000003c0: d7a3 35bd be2f 2dbd 48f0 06be 87f7 73bc
000003d0: 0c40 92bd a255 c43d 932d 0ebe 1af6 39be
000003e0: 27bf 0fbe ee8d f33c d616 fe3c 6db0 f0bd
000003f0: fef2 7bbd 25ea de3d 0088 15bd 6dca 47be

sequential_2/dense_5/MatMul f4 [11, 100]
0.098951176 -0.28261724 -0.1736752 0.13527347 0.118808754 0.10509013 0.20526482 0.04557093
0.31344536 -0.124439836 0.0656489 0.15609524 -0.043633346 -0.1771633 -0.4545377 0.21595183
-0.07419317 0.07689096 0.1115324 0.21981739 -0.13757712 0.33239114 0.14070751 0.33653203
0.021437546 -0.13517717 0.17621973 0.2582766 0.15864693 0.019219771 -0.002120877 -0.16596086
0.265024 -0.19718975 0.2151383 -0.033404414 0.044232573 -0.11280948 -0.012761799 0.0076313685
0.054851603 -0.3859367 -0.07915169 0.1672728 -0.24691421 -0.077820934 0.056120668 -0.50744873
-0.022420278 -0.18586248 -0.0065138564 -0.39825207 0.06632577 -0.08498559 -0.066046424 -0.26846355
0.118158735 -0.03217637 -0.41167352 -0.09015444 0.1094722 -0.10224477 0.1254337 -0.31815177
-0.057829555 0.21996893 -0.1353589 0.26030204 0.08556413 0.16426305 -0.14859559 0.044643074
-0.28928927 -0.5997528 -0.20170207 0.10308884 -0.5920563 -0.1499747 0.24197933 -0.31424794
0.19934952 0.16881315 -0.09807545 -0.4355524 0.012869203 -0.10583789 -0.4690207 0.09675623
0.2254533 -0.1919791 0.026390363 0.124667056 0.21905322 0.186442 0.23392603 -0.19337884
0.13812648 -0.48920977 0.09971245 -0.40053824 -0.86454046 -0.06744044 0.009480775 -0.27019542
0.11936403 0.15188314 0.23535419 0.056491334 -0.04847946 -0.23104186 0.075223766 0.17005798
-0.47339052 0.06962958 -0.6642019 -0.087698475 0.11902318 -0.44714284 0.16360691 0.23044269
-0.42026588 -0.050083492 0.19977412 -0.12142827 0.114333555 0.030694615 0.19516847 0.0082410555
-0.53525436 0.15400226 -0.060821597 -0.030593079 -0.3994505 -0.26760525 -0.33218083 0.10587389
0.071924575 -0.074167356 0.09173575 -0.16760945 0.10240609 -0.46852773 -0.14706726 -0.51626956
-0.41165015 0.17177533 -0.060622297 -0.31786823 0.056019045 0.0008624891 -0.2208884 -0.08339178
-0.45872653 -0.077356726 0.16047567 -0.23803614 0.16828749 0.18909128 -0.27265134 0.057982903
-0.6804159 0.101344846 0.13471022 -0.07458661 -0.3467827 -0.20426373 0.030419556 -0.047733516
-0.3159088 -0.004162372 0.115641646 0.08510797 -0.6444523 -0.47780442 -0.8161723 -0.8355424
-0.77254385 0.0897701 -0.45303568 -0.23299773 0.20930263 0.23464346 0.007630329 -0.5391913
0.14514403 0.02761289 -0.64028853 0.14991511 -0.14551975 -0.12899658 -0.368803 0.11810013
0.2516013 0.07906572 -0.112637736 -0.086575404 0.19380927 -0.15577517 0.09878774 -0.04067008
0.02345268 0.120532095 0.039854966 -0.00040096822 0.056251556 -0.40288663 0.15692535 -0.27810004
-0.82012326 -0.58214194 0.10118826 -0.55221224 -0.09424751 0.1456688 0.071908735 0.113107845
-0.18332443 0.014935346 -0.14699408 -0.28817084 -0.44699156 -0.39964932 0.04512989 0.1841833
0.09625428 0.022869844 0.11716426 -0.32681897 -0.028344428 0.054582436 -0.21042287 0.1427938
0.19112389 0.24170354 -0.20466924 0.049418144 -0.12374729 0.10372251 -0.10067824 -0.7856078
-0.21423516 0.14699022 -0.6700326 -0.018140769 -0.45393282 -0.23705989 0.13764408 0.00974617
0.0070936247 -0.05686897 0.1283908 -0.0061153253 0.021747468 0.062054135 0.1361795 -0.3692091
00000000: eaa6 ca3d 35b3 90be e9d7 31be 2185 0a3e
00000010: 0152 f33d 7e39 d73d f130 523e 95a8 3a3d
00000020: e97b a03e 50da febd ee72 863d 6ed7 1f3e
00000030: e1b8 32bd 4c6a 35be 2ab9 e8be 7a22 5d3e
00000040: 97f2 97bd 0279 9d3d 196b e43d cf17 613e
00000050: 04e1 0cbe 2c2f aa3e a115 103e ed4d ac3e
00000060: cb9d af3c e26b 0abe f272 343e d53c 843e
00000070: 5774 223e c872 9d3c 69fe 0abb a5f1 29be
00000080: 3ab1 873e 1cec 49be 374d 5c3e 11d3 08bd
00000090: 372d 353d a808 e7bd dd16 51bc 8f10 fa3b
000000a0: 13ac 603d 7f99 c5be 481a a2bd 9049 2b3e
000000b0: 14d7 7cbe 9560 9fbd c9de 653d 29e8 01bf
000000c0: bbaa b7bc bc52 3ebe 3072 d5bb b2e7 cbbe
000000d0: ced5 873d ed0c aebd 5943 87bd 0e74 89be
000000e0: 35fd f13d 5fcb 03bd dfc6 d2be e4a2 b8bd
000000f0: f632 e03d b565 d1bd b171 003e cae4 a2be
00000100: afde 6cbd 893f 613e 869b 0abe 4f46 853e
00000110: 3f3c af3d 9334 283e 7129 18be a8db 363d
00000120: b91d 94be 6689 19bf fd8a 4ebe 3e20 d33d
00000130: 0091 17bf f892 19be 6ec9 773e 1be5 a0be
00000140: 4822 4c3e 5bdd 2c3e c8db c8bd b900 dfbe
00000150: 5ad9 523c 89c1 d8bd 7b23 f0be 2128 c63d
00000160: 3bdd 663e 2b96 44be 9a30 d83c 7151 ff3d
00000170: 7d4f 603e a7ea 3e3e 4e8a 6f3e 1a05 46be
00000180: 0771 0d3e b479 fabe 0a36 cc3d 5913 cdbe
00000190: 8652 5dbf 371e 8abd 4155 1b3c 0e57 8abe
000001a0: 2175 f43d 4187 1b3e b000 713e 7563 673d
000001b0: 6692 46bd 3d96 6cbe eb0e 9a3d ae23 2e3e
000001c0: 3e60 f2be f499 8e3d 2309 2abf 429b b3bd
000001d0: 6dc2 f33d e8ef e4be 9288 273e 2bf9 6b3e
000001e0: 172d d7be 5924 4dbd 9691 4c3e 63af f8bd
000001f0: b627 ea3d 4673 fb3c 3eda 473e 7e05 073c
00000200: 6e06 09bf c5b2 1d3e 1120 79bd 569e fabc
00000210: c784 ccbe 8e03 89be 9b13 aabe 69d4 d83d
00000220: 314d 933d 0ee5 97bd f4df bb3d d0a1 2bbe
00000230: 49ba d13d dee2 efbe cd98 16be 3e2a 04bf
00000240: cfc3 d2be dfe5 2f3e 164f 78bd a0bf a2be
00000250: 3a74 653d aa18 623a 9230 62be 4fc9 aabd
00000260: 34de eabe 346d 9ebd bc53 243e bfbf 73be
00000270: 8e53 2c3e 25a1 413e f598 8bbe 7b7f 6d3d
00000280: bd2f 2ebf e38d cf3d 7af1 093e ddc0 98bd
00000290: 818d b1be 832a 51be 6f32 f93c 3884 43bd
000002a0: ccbe a1be 8264 88bb 87d5 ec3d 164d ae3d
000002b0: d3fa 24bf c8a2 f4be abf0 50bf 1be6 55bf
000002c0: 6fc5 45bf 63d9 b73d 4bf4 e7be f596 6ebe
000002d0: 6e53 563e 6046 703e d707 fa3b 7108 0abf
000002e0: a3a0 143e 6d34 e23c f3e9 23bf 5983 193e
000002f0: 2103 15be ae17 04be bfd3 bcbe 7bde f13d
00000300: e3d1 803e 35ed a13d 9dae e6bd 724e b1bd
00000310: f075 463e 8783 1fbe 3a51 ca3d ab95 26bd
00000320: d61f c03c 88d9 f63d f63e 233d 0b39 d2b9
00000330: 0868 663d 2847 cebe 0ab1 203e 2163 8ebe
00000340: 99f3 51bf 4107 15bf ca3b cf3d c85d 0dbf
00000350: d704 c1bd 342a 153e e344 933d 16a5 e73d
00000360: 66b9 3bbe 62b3 743c 9e85 16be 218b 93be
00000370: 14dc e4be d69e ccbe 1fda 383d 8c9a 3c3e
00000380: f720 c53d 8a59 bb3c d1f3 ef3d d154 a7be
00000390: 9332 e8bc d591 5f3d 1879 57be 8a38 123e
000003a0: fbb5 433e 2281 773e d094 51be ae6a 4a3d
000003b0: 386f fdbd 786c d43d 6530 cebd 981d 49bf
000003c0: 7660 5bbe 9b84 163e 4287 2bbf f39b 94bc
000003d0: e269 e8be d4bf 72be 92f2 0c3e 66ae 1f3c
000003e0: a371 e83b 70ef 68bd e178 033e 1163 c8bb
000003f0: bf27 b23c 7a2c 7e3d a472 0b3e fa08 bdbe
