app/src/main/ml/model.tflite (tflite, 240824 bytes, 8 tensors)

sequential/lstm/Read_2/ReadVariableOp f4 [400]
000000 46 18 59 3d 75 ac 85 bc 40 31 69 3c f4 50 3f 3d
       0.053001665 -0.016317585 0.0142329335 0.046708062
000010 64 73 90 bd 18 41 0e 3d 83 0c 10 bd ed f6 06 bd
       -0.07053259 0.034730047 -0.035168182 -0.03295033
000020 a5 08 33 3b 4a 24 7c 3a d7 96 42 3d a0 61 32 3d
       0.0027318385 0.00096184446 0.047507133 0.043550134
000030 25 c0 e0 bb f0 ad 8a bc c5 c5 ca bc b5 35 15 bd
       -0.006858843 -0.016928643 -0.024752507 -0.036428172
000040 a2 93 fe 3c e4 04 e5 3c ff c9 ab bb 1d 60 af bc
       0.031076256 0.027956434 -0.0052425857 -0.021408135
000050 f3 99 9a 3d b3 97 22 bd 9a c5 3c bd e0 4c 32 bd
       0.07548895 -0.039695453 -0.046086885 -0.043530345
000060 15 0b 30 bc 34 0d fd 3d 8f e9 90 bc 5c 50 87 3c
       -0.01074483 0.12356034 -0.017689494 0.01651781
000070 50 65 66 bb 38 62 26 3d 11 70 c3 bc e8 6e 39 3b
       -0.0035155602 0.040621012 -0.023857148 0.0028294865
000080 84 1f 67 bc f1 9b a6 bc 36 31 3b bd e7 78 af bc
       -0.014106635 -0.02033803 -0.045701228 -0.021419955
000090 db 75 18 bd 91 f5 af bb 9b 0d 2c 3d 4d 7b 29 bc
       -0.03722177 -0.00536985 0.042005163 -0.010344339
0000a0 e6 a4 c8 bc 91 36 ed bc 77 05 5d 3b f5 b5 0d 3c
       -0.024492692 -0.028956683 0.003372518 0.008649339
0000b0 7e c0 0a bd ca 54 6b bb 51 8d c9 3b 0a 0c dd bc
       -0.03387498 -0.0035908693 0.0061508794 -0.02698328
0000c0 de 9e aa 3d 4b 86 f6 3c 8d 0c 00 3c 3d de 11 3d
       0.08331083 0.030093333 0.007815492 0.035612334
0000d0 3e a7 a6 bc b2 0f 9d 3c 92 5b a0 bb 6d 61 be 3c
       -0.02034342 0.019172523 -0.0048937285 0.023239816
0000e0 58 88 b1 3c a9 54 55 3c 12 80 f0 3d 28 b9 84 bc
       0.02167146 0.013020673 0.117431775 -0.01620157
0000f0 9e 5b 7c bc 7d f1 0b 3d 92 56 9f bd 6b 8e 67 bc
       -0.015402703 0.034165848 -0.07780184 -0.014133076
000100 f1 c9 99 3c 80 7d ef 3c 62 04 58 3d de f7 6b bc
       0.018773051 0.029234648 0.052738555 -0.014402358
000110 64 64 5e 3c f9 67 73 bb c3 c5 c9 bc 9e fa ed 3c
       0.01357374 -0.003714083 -0.024630433 0.029050168
000120 92 f1 0a 3d 8f b1 0a 3c 99 8c 2b bd b9 38 c1 3b
       0.033921786 0.008465185 -0.04188213 0.0058966544
000130 dc fa 4e bc 2b 65 34 bc ed 8f 06 3d 7f a6 70 3c
       -0.012633052 -0.011010448 0.032852102 0.014688133
000140 62 27 c1 bc 83 98 7e 3b 0c e6 0b 3d 93 f3 b6 bc
       -0.02357835 0.0038848228 0.034154937 -0.022332942
000150 57 b2 87 3c fc 2b 05 bd 28 b0 89 3c e0 6d 22 3c
       0.016564531 -0.03251265 0.01680763 0.009913892
000160 af aa 24 3d 97 6c e5 bc 6b a7 3d bd be 74 e6 bc
       0.04020184 -0.028005881 -0.04630224 -0.028131839
000170 80 bf a6 3c 15 0d 47 bc 51 43 82 bc 61 cd 95 3b
       0.020354986 -0.012149115 -0.01590124 0.004571602
000180 35 be 30 3d 2f 0e e1 bb d8 6e 95 bc a8 51 3a bc
       0.043150146 -0.006868146 -0.018241331 -0.011372007
000190 d3 b2 8a 3f 32 2d 87 3f b0 9f 8b 3f 96 0f 87 3f
       1.0835823 1.0560668 1.0908108 1.0551631
0001a0 e9 c6 83 3f 73 ca 84 3f e1 37 8e 3f a0 51 8b 3f
       1.0295078 1.0374283 1.1110803 1.0884285
0001b0 66 58 8a 3f ed 35 8e 3f 93 9c 93 3f 14 81 8d 3f
       1.0808227 1.1110207 1.1532158 1.1055017
0001c0 00 f3 87 3f d1 93 84 3f 07 47 8b 3f 55 77 88 3f
       1.0621033 1.035761 1.0881051 1.0661417
0001d0 14 87 84 3f 6a e2 8b 3f b8 87 87 3f cd a1 7a 3f
       1.0353723 1.0928471 1.0588293 0.9790314
0001e0 27 ec 8c 3f 80 e3 83 3f 69 56 86 3f 81 4b 8d 3f
       1.1009568 1.0303802 1.049512 1.1038667
0001f0 83 23 8b 3f 47 5a 92 3f ee ce 84 3f 4f c8 8a 3f
       1.0870212 1.14338 1.037565 1.0842379
000200 aa 9c 87 3f 7d 07 84 3f f2 6d 85 3f c3 8c 89 3f
       1.0594685 1.0314785 1.0424178 1.0746082
000210 39 97 8f 3f ff b8 86 3f e6 bd 89 3f 67 1b 86 3f
       1.1218024 1.0525206 1.0761077 1.0477113
000220 e2 98 88 3f 98 f0 8c 3f c1 0d 8f 3f 84 01 87 3f
       1.0671656 1.1010923 1.1176072 1.0547338
000230 24 6f 8c 3f a5 46 87 3f ee 7c 8f 3f 83 00 8b 3f
       1.0971417 1.0568434 1.121 1.0859531
000240 2e de 85 3f 23 d9 8d 3f b3 e8 88 3f ed ed 8a 3f
       1.0458429 1.108189 1.0696014 1.0853859
000250 29 07 8e 3f 83 05 93 3f 1a 46 89 3f 4e c3 94 3f
       1.1095935 1.1486057 1.0724518 1.1622102
000260 9d f1 88 3f 3a 3b 8b 3f 93 75 8e 3f 08 ad 8d 3f
       1.0698735 1.087745 1.1129631 1.106843
000270 c1 af 8a 3f 40 2e 8e 3f 81 1d 8e 3f 2d ca 89 3f
       1.0834886 1.1107864 1.1102754 1.0764824
000280 ab 5f 83 3f 9d 95 91 3f 58 64 89 3f 39 42 82 3f
       1.026357 1.1373783 1.0733747 1.017646
000290 8b 46 8c 3f 4d 67 88 3f 56 c4 85 3f dc e7 81 3f
       1.0959028 1.0656525 1.0450542 1.0148883
0002a0 9d c1 89 3f b1 b1 8a 3f 80 f0 8c 3f c7 ee 90 3f
       1.0762211 1.0835477 1.1010895 1.1322869
0002b0 a2 de 8a 3f 9e 4c 90 3f bb 2a 85 3f d2 7f 94 3f
       1.0849192 1.1273382 1.0403665 1.1601508
0002c0 5c 22 86 3f 4b 0d 8d 3f d4 ca 88 3f 52 d5 89 3f
       1.0479236 1.1019682 1.0686898 1.0768225
0002d0 b2 4f 85 3f 98 eb 89 3f 5b 7c 85 3f ae b9 85 3f
       1.0414946 1.0775023 1.0428575 1.044729
0002e0 8f f5 88 3f e7 91 81 3f 76 9c 8a 3f 6f 33 8b 3f
       1.0699939 1.0122651 1.0828998 1.0875071
0002f0 02 0a 89 3f 92 6a 81 3f 8e 2b 88 3f 04 5e 85 3f
       1.0706179 1.0110648 1.0638292 1.0419316
000300 13 ed 9a 3f 80 6f 86 3f ca df 89 3f 59 a6 8c 3f
       1.2103599 1.0502777 1.077142 1.0988265
000310 11 59 8a 3f 43 fa 86 3f 38 06 83 3f e5 6c 86 3f
       1.0808431 1.0545124 1.0236273 1.0501982
000320 64 77 e6 3b 8d 1a 6b 3c 00 1d 3f bd 25 e9 07 bc
       0.0070332754 0.014349592 -0.046658516 -0.008295332
000330 64 6a 6a 3c 90 78 d8 bc 83 01 d4 bc 94 b8 d0 3c
       0.014307592 -0.026424676 -0.025879627 0.025478639
000340 95 5b 9e bc 94 6e 95 3d dc af e4 3c 3d 36 22 3c
       -0.01933078 0.07296482 0.027915888 0.009900627
000350 ac 7c d5 bd 4a 80 17 3d df da 1c 3d 21 e9 43 3d
       -0.1042417 0.03698758 0.03829467 0.04782975
000360 67 d6 e7 bc 4e 1a 85 bd bb ef 4a bd f0 2b 71 bc
       -0.028300477 -0.06499158 -0.04954503 -0.014719948
000370 cb 45 08 3c 1e 28 b4 3c e2 80 ac 3c 18 71 79 3b
       0.008317421 0.021991786 0.02105755 0.0038061794
000380 f5 4a 48 bd d2 8c 64 3d e2 06 17 bd c9 e9 90 bd
       -0.04889961 0.05579836 -0.0368718 -0.07075841
000390 21 2f 4b bd d7 cd a5 bd 6d 80 42 bd e8 5a c0 3c
       -0.049605493 -0.080959015 -0.047485758 0.023480847
0003a0 89 16 fc 3c 00 28 7b bd 81 42 20 bc c2 d4 77 bc
       0.030772464 -0.061317444 -0.009781481 -0.015126409
0003b0 9d 92 b5 3c 41 6a 88 3d 55 ab 23 bc 78 45 98 3c
       0.022164637 0.06660891 -0.009989579 0.018587813
0003c0 2e 4a 52 3d 71 c2 1d bd ca 15 43 bd c3 9a 10 bd
       0.051340275 -0.038515512 -0.0476282 -0.035303842
0003d0 1e fc 52 bd fe 48 27 3d d3 91 db bb 55 9e 32 3d
       -0.05150997 0.040841095 -0.006700733 0.04360803
0003e0 bb 81 11 3d a7 52 80 bd 6d bd 88 3d 0e 80 9c bc
       0.03552411 -0.06265765 0.06676755 -0.01910403
0003f0 63 0d 52 3d da 31 1f bd 00 f2 bb 3d ac 97 fa 3b
       0.051282298 -0.0388659 0.09177017 0.007647475

sequential/dense/BiasAdd/ReadVariableOp f4 [100]
000000 e6 bf 17 3c 99 fd 59 3e b7 09 34 3d 5f 68 4f 3e
       0.009262061 0.21288146 0.043954577 0.20254658
000010 74 2a 4f 3c 2a 73 da 3d 6c f6 5d 3d bf 45 9e 3d
       0.012644399 0.10666497 0.054190084 0.07728147
000020 65 d5 88 3c 29 30 93 3d 36 10 fe 3d a9 89 04 3e
       0.016703317 0.0718692 0.12405436 0.12943138
000030 76 a0 b2 3d 58 fe 17 3e 59 7f 42 3d 5d d3 65 3e
       0.08722012 0.14843118 0.04748473 0.2244391
000040 c4 18 d3 3d 0c b2 67 3e fe cf f5 3d 51 2e b1 3d
       0.10307458 0.22626513 0.12002562 0.08651412
000050 5b dc 36 3e 5c 79 aa 3d 35 68 25 3e 40 81 1a 3e
       0.17857496 0.08323929 0.16153033 0.15088367
000060 11 b4 2b 3e 7e cb 88 3d 45 d4 93 3c de 13 80 3d
       0.16767909 0.06679438 0.018045554 0.06253789
000070 bc 6a 51 3e c7 b6 26 3e ac 9b ed 3c f6 30 c7 3d
       0.20450872 0.16280662 0.029004894 0.097261354
000080 67 e9 a4 3d 49 59 e1 3d 80 d7 8d 3e 69 ab 5b 3e
       0.080523305 0.11003358 0.27703476 0.21452107
000090 10 54 9c 3c 77 54 97 3d 01 3a 1a bd 10 12 5a 3e
       0.019083053 0.07389157 -0.037652973 0.21295953
0000a0 45 8f 1d 3d 6c ca 19 3e e2 72 13 3d f2 fd c3 3d
       0.03846671 0.15018624 0.035998233 0.095699206
0000b0 95 9f aa 3c 8e d0 4b 3d 68 58 21 3e 2f 82 a3 bc
       0.020828048 0.04975944 0.1575638 -0.019959537
0000c0 65 d7 13 3a 61 59 a0 3e 5b 61 43 3d e8 f3 ad 3d
       0.0005639701 0.3131819 0.047700267 0.08493787
0000d0 5d a3 0f 3e 7a 22 b5 3c b6 b7 4c 3d 87 52 f4 3c
       0.14027162 0.022111166 0.049979888 0.029824508
0000e0 2a 5f 07 bd 22 b7 ef 3d 4a 3b 07 3e f0 ff 1b 3d
       -0.03304974 0.11704852 0.1320621 0.038085878
0000f0 54 29 be 3d 2b 77 d1 3c ec bb 81 3d c6 66 68 3d
       0.092852265 0.025569519 0.063346714 0.056738637
000100 c4 06 18 bd 59 e5 9a 3d 50 80 69 3e ec e9 bc 3d
       -0.037115827 0.07563276 0.22802854 0.092243046
000110 d7 3d 4c 3e 88 fc c8 bb 09 0c ca 3d d8 1b 8b 3d
       0.19945465 -0.0061336197 0.09865577 0.0679242
000120 9a 5a 17 bd 1c 30 59 3d 8a 1a 47 3d 6c e8 8e 3e
       -0.03695164 0.053024396 0.048609294 0.279117
000130 90 fb 13 3e 7f cf de 3d 13 22 bf 3d 10 31 30 3e
       0.14451432 0.108794205 0.09332671 0.17206216
000140 29 5d 11 bd fc 84 56 3e a2 0a d8 3d 9f 78 16 3e
       -0.035489235 0.20949167 0.10548903 0.14694451
000150 ab bb 46 3d ef 87 47 3e 53 e9 ec 3d 4a 7d 21 3e
       0.048518818 0.19485448 0.115679406 0.1577045
000160 ed 6a 1c 3e 4d 30 6d 3d 50 bc 58 3d 3e 56 f1 bc
       0.15275164 0.05790739 0.052913964 -0.029460069
000170 1b de 3d 3d 0a 4b 2c 3e b8 59 22 bd 6d 78 83 3e
       0.046354394 0.168255 -0.039636344 0.25677815
000180 59 19 4c 3d a3 47 4b 3e c4 75 02 3e 89 2a 16 3d
       0.04982886 0.19851546 0.12740237 0.03666166

sequential/dense_1/BiasAdd/ReadVariableOp f4 [44]
000000 1a d8 df bd 1d a8 7e bc 74 0d 08 bd 30 0e 5d 3d
       -0.1092989 -0.015543011 -0.033215955 0.05396861
000010 7b ef bd ba 7d 8f c0 3d d8 2b e9 3d e7 8a b3 3d
       -0.0014490926 0.09402368 0.11385316 0.08766728
000020 a9 8f d3 bc 8a 86 42 bd 34 e9 94 bd 34 4e 48 bb
       -0.025825338 -0.047491588 -0.072710425 -0.003056419
000030 66 07 55 3c c0 45 bf 3c 6d cd 7c 3d 9d 99 d8 3c
       0.013002252 0.02334869 0.061719347 0.026440436
000040 a5 9c 88 bc 28 3c a6 3d 7b f5 c7 bc 8e f4 ed 3c
       -0.016676256 0.08116943 -0.024409046 0.029047277
000050 d3 c5 91 bd ac fe cb bc 8e fa a5 bd 0e d3 aa 3d
       -0.0711781 -0.02490171 -0.0810443 0.08341037
000060 0f 4d 75 3b b7 88 99 3b 06 3e af bc dd f9 39 bd
       0.0037429964 0.004685487 -0.02139188 -0.045404304
000070 fa 75 ff 3d 13 65 b0 bd 91 47 aa bd d4 cb 7a 3b
       0.12473674 -0.086130284 -0.083144315 0.0038268464
000080 e8 4f 73 bd c7 e2 b1 3b 0c 45 8c 3c 02 81 35 bd
       -0.059402376 0.0054286453 0.017122768 -0.044312485
000090 12 f5 12 3d 62 26 5c bd 0b bb cb bc 25 88 af bd
       0.03587825 -0.053747542 -0.024869462 -0.085708894
0000a0 c2 dd 4f 3c da 3e a4 3c f7 21 09 3c f0 1b 60 bb
       0.0126871485 0.020049501 0.008369914 -0.003419634

sequential/dense/MatMul f4 [100, 100]
000000 56 bf 11 3d ae 97 1d be 16 e3 3c bd ca dd f9 bd
       0.035582863 -0.15389892 -0.046115004 -0.12200506
000010 57 7c 91 3b e0 a0 2c 3e 52 bf 35 3d a2 95 75 bc
       0.0044398713 0.16858244 0.04437191 -0.0149892885
000020 6b 80 56 be 60 7c 3c be b5 a2 86 bd e6 7d ae bd
       -0.20947425 -0.1840682 -0.06574003 -0.08520107
000030 fa b5 b6 bc d3 b3 7c 3d f8 fe f1 3d 02 af 04 3e
       -0.02230357 0.06169493 0.118162096 0.12957385
000040 b5 c6 8e bd 21 41 23 3e c4 2f 1a 3e e3 d1 14 3e
       -0.06971494 0.15942813 0.15057284 0.1453319
000050 65 ca 2d bd 34 22 e5 bd ce 5e 8a bd 18 a5 59 3e
       -0.042429347 -0.11188164 -0.06756364 0.21254385
000060 f4 8c 6c 3e 0f 05 ae 3d 8c 1e a3 3d 9a 6e 74 be
       0.23100644 0.084970586 0.07964811 -0.23870316
000070 42 7d e0 bd 1f 6b 75 bd bd 76 da 3d d6 f0 97 bd
       -0.10961391 -0.05991661 0.10667179 -0.07418983
000080 66 cf f3 bc ff cc 15 be 64 a0 0c bc 34 e8 06 be
       -0.029761981 -0.14628981 -0.008583162 -0.13174516
000090 ff 34 c0 bd e0 46 88 3e e5 d3 0a bd 16 d9 e1 bd
       -0.09385108 0.26616573 -0.033893485 -0.11027734
0000a0 58 1d e8 bd bf 0c 97 3d df a8 b9 bd 79 b6 80 be
       -0.11333722 0.07375478 -0.09065413 -0.25139216
0000b0 93 97 08 3c d2 1e 0a be 59 92 fe 3d 2f 57 73 bd
       0.008336919 -0.1348832 0.12430257 -0.059409317
0000c0 e7 97 6e be d3 70 1e 3d 77 48 06 bd 1a 61 54 bd
       -0.23300134 0.038681816 -0.03278395 -0.051850416
0000d0 91 70 ee 3c fc 79 70 be df da 63 3c bb a5 12 bd
       0.02910641 -0.23484033 0.013907163 -0.035802584
0000e0 e4 aa 76 bd e3 4b 42 be db 85 b4 bd d1 ba 9b 3d
       -0.060221568 -0.18974261 -0.088145934 0.07603992
0000f0 51 11 3f be 4e b2 3e be 89 76 d2 bd 04 ea 09 3e
       -0.1865895 -0.18622705 -0.10276515 0.13468176
000100 1a 2e d6 bd 5e a7 cb be 97 e3 cb bd c2 ab 80 bd
       -0.10458012 -0.3977613 -0.09955519 -0.0628276
000110 fa d5 47 bc 10 0f 5c be 92 15 c7 bc 29 30 03 3d
       -0.012197012 -0.21490121 -0.024302278 0.03202835
000120 83 ac 2a bc d6 80 15 bd ae 1e 3a be 1e 33 81 3e
       -0.010417107 -0.03649982 -0.18175766 0.25234312
000130 7b 78 8d be d0 14 c1 bd 2d 57 1b be 47 28 0e bd
       -0.27630982 -0.09427798 -0.15169974 -0.03470638
000140 8d 4b 5d 3d fa 1a 18 3c b5 e6 b6 bc 3d 58 1e 3e
       0.05402713 0.009283775 -0.022326807 0.15463348
000150 fc a2 dd bd d5 e4 9a 3e 97 0a f8 bd 34 dc 67 be
       -0.108221024 0.3025271 -0.12111395 -0.22642595
000160 5d fa 85 bd 2d 94 98 3d 19 52 29 3e 99 77 01 3e
       -0.06541894 0.07450137 0.16535224 0.12643279
000170 cd 73 28 3e 80 06 8d bd 8e 2f 5d 3e 9b 11 4c 3c
       0.16450424 -0.068860054 0.21600172 0.012455369
000180 88 11 1e be 26 89 ef 3c bb ca 95 bd 01 de 4b bd
       -0.15436375 0.029240202 -0.073140584 -0.049772266
000190 cd 71 ac be fe 17 a3 3e 57 db 56 be 58 b0 0c 3e
       -0.33680573 0.31854242 -0.20982109 0.13739145
0001a0 c5 af d1 bd e5 c6 74 bd 7d 20 1b 3e a4 d4 2d bd
       -0.102386035 -0.059759993 0.15149112 -0.042439118
0001b0 e6 9e d0 bd f2 13 76 3e c9 4f 9c 3e c4 45 55 3d
       -0.101865575 0.24031046 0.3052962 0.052068487
0001c0 e4 47 a6 bd 3e 6c 8f 3d a5 59 15 be be 74 88 3d
       -0.08119181 0.070030674 -0.14584978 0.06662892
0001d0 6b 95 94 be 5f 15 71 be c7 8c 09 be e7 82 c6 bc
       -0.29020247 -0.23543309 -0.13432609 -0.024232341
0001e0 72 b4 29 3e 93 4c 3c 3e 6f 76 49 3d cf 1a 6e be
       0.1657274 0.18388586 0.049185213 -0.23252414
0001f0 1b f7 2b 3d 93 66 45 3e d5 21 1d be 6a d4 53 be
       0.041983705 0.1927741 -0.15344937 -0.20686498
000200 d5 e5 60 bd ea dc 70 be a2 b7 78 3c e5 f0 87 bd
       -0.054906685 -0.23521772 0.0151805 -0.06637744
000210 ac 39 1a 3e b0 a5 c2 3d f0 87 50 3c 0f 2a 9c 3d
       0.15061063 0.09504259 0.0127277225 0.076252095
000220 37 8b e5 bc cc 81 6b be 42 17 a1 bd 2a f2 03 3e
       -0.028020484 -0.22998732 -0.07865764 0.12885347
000230 3e 0a 28 3e 81 5c 89 3e f9 49 a7 bd 28 36 48 3d
       0.16410157 0.26828387 -0.08168406 0.048879772
000240 a1 d4 6f be 40 59 8d be 22 42 f9 3d bf 2a 73 3e
       -0.23420955 -0.27607155 0.12170817 0.23746775
000250 7f ff ed 3b 6e 90 af be 6d 9a 87 bd 43 5a 4f be
       0.0072631235 -0.3428988 -0.06621251 -0.20249276
000260 94 8e b4 3e 24 cf 50 be ce 0f 4d 3e d8 0f cf bd
       0.35265028 -0.20391518 0.2002556 -0.10110444
000270 49 57 d6 bd df f1 51 bd 4b d8 7a 3e 62 33 11 3e
       -0.10465867 -0.051256057 0.24496572 0.14179757
000280 82 b0 14 be 66 1d 48 3e fe d1 26 3e fd 89 cd 3d
       -0.14520457 0.19542465 0.16291043 0.10036085
000290 76 cf 93 bb 84 17 1a 3e 13 99 32 bd e0 39 3c 3e
       -0.0045108153 0.15048033 -0.043603014 0.18381453
0002a0 3e 4f 3f be d1 a1 b0 3e 08 88 fe 3d df cf 1c be
       -0.18682572 0.34498456 0.1242829 -0.15313672
0002b0 0b 28 d5 bd 13 90 8b 3e cf ed aa bd 8a 2c 12 be
       -0.10408028 0.27258357 -0.0834614 -0.14274803
0002c0 ed d2 c3 bd 74 54 e7 3d 9f b7 05 3e ab e8 2c 3e
       -0.09561715 0.11295405 0.13058327 0.16885631
0002d0 ea 21 4a be 83 a8 42 3d 10 ca ee 3c ad b2 00 be
       -0.197395 0.047523987 0.029149085 -0.1256816
0002e0 48 42 63 be 6a 6e 93 3d 4e 57 2d bc 01 f4 1f 3e
       -0.22193253 0.07198794 -0.010579897 0.15620424
0002f0 1b 0a 58 be 66 28 88 3e af 24 16 3e ce 05 25 3d
       -0.21097605 0.26593322 0.14662431 0.04028874
000300 64 27 ad 3d d1 52 a2 be 17 ad 79 be 56 9a 84 3d
       0.08454779 -0.3170381 -0.24382435 0.0647475
000310 18 a8 8b bd 40 3d d7 3d d4 f9 a4 bd c9 27 14 3d
       -0.06819171 0.105097294 -0.080554634 0.036170755
000320 38 00 b6 3d 3e b4 d3 3d 75 55 01 be fe d3 6a be
       0.088867605 0.10337113 -0.12630256 -0.22932431
000330 66 5b ff bd 3f 80 8a bc d7 09 27 3e a6 93 bb bd
       -0.12468605 -0.016906856 0.16312347 -0.09159021
000340 c8 70 d1 3c 8f f5 f5 bc 96 75 e3 bc cf 3e 3d bd
       0.025566474 -0.030024318 -0.02776603 -0.046202477
000350 d6 15 91 3b d2 3c 79 3d 7b 0c 8c bd e5 1a 54 3e
       0.004427652 0.06084902 -0.06838318 0.20713384
000360 2b 95 56 3d 56 09 22 3d 90 7a 72 3e f5 3e 73 be
       0.05238835 0.039559685 0.23679566 -0.23754485
000370 81 da d8 3c 21 d4 b7 bc ac aa 1d bd 9f a6 c4 bd
       0.026471378 -0.022440018 -0.038492844 -0.09602093
000380 62 8a a6 3e 9c a6 a1 bd 97 69 c8 3d 18 dd 7c bd
       0.32527453 -0.07893106 0.09785765 -0.06173429
000390 4f cd 3a 3e 6d 42 ea bd b4 b3 12 bd 8d f2 34 be
       0.18242382 -0.11438451 -0.03581591 -0.17670651
0003a0 68 45 11 be 5a 28 d8 bd d6 be c0 bc 41 3e 8d 3d
       -0.14186633 -0.105545714 -0.023528498 0.068966396
0003b0 0a 89 d9 3d 06 25 68 be c5 7c 1c 3d 02 c9 8d bd
       0.10621841 -0.22670373 0.038204927 -0.06923105
0003c0 db 15 40 bd 59 96 a7 bd 0a fb 5a 3d 29 ef 81 be
       -0.046895843 -0.081829734 0.053462066 -0.25377777
0003d0 f7 61 30 be 35 85 37 bd de be 93 3d f9 e3 10 3d
       -0.1722487 -0.04480477 0.072141394 0.03537366
0003e0 57 d7 29 be 7a b0 a0 bd 19 66 3e 3d 52 f9 89 bd
       -0.16586052 -0.0784616 0.046484087 -0.06737007
0003f0 18 85 8d 3d 72 9f 91 be 1c d2 26 be cf e0 71 be
       0.06910151 -0.2844196 -0.16291088 -0.23620914

sequential/dense_1/MatMul f4 [44, 100]
000000 91 d5 fb bd 61 24 c9 be c3 36 b5 3b 1c d8 8f be
       -0.12296594 -0.39285567 0.0055302097 -0.28094566
000010 dd 55 9f 3c 78 d7 3f 3e bd ba 46 be 8a 24 1b 3e
       0.019450122 0.18734539 -0.19407173 0.15150657
000020 6d b2 a7 bd f2 a0 37 be 0b bb 63 be 3c ed 00 be
       -0.08188329 -0.1793249 -0.2223932 -0.12590498
000030 70 46 1b be 4e 1a f9 3d c8 d9 64 3e 0b 06 10 be
       -0.15163589 0.1216322 0.22348702 -0.14064805
000040 4d b9 58 be f4 f3 a9 be 65 8a dc 3d 93 b8 15 be
       -0.21164437 -0.33193934 0.10768584 -0.1462119
000050 41 3b 72 be 78 09 dd 3c 49 0d 29 be fc fd 75 be
       -0.23655416 0.026982054 -0.16508974 -0.24022669
000060 85 7c ca be b6 37 7d bc 48 96 22 be 71 56 53 3d
       -0.39548126 -0.015455177 -0.1587764 0.05159611
000070 a3 68 95 3d dd af 60 be a4 53 63 3e fc 8c 15 bd
       0.072953485 -0.21942087 0.22199875 -0.036511406
000080 c7 09 65 be b1 08 77 3e d1 03 91 be 08 1c ac be
       -0.22367011 0.2412441 -0.28323224 -0.33615136
000090 b3 ee ed bd 0a 2f 57 be 53 ad 24 3e 67 21 ab bd
       -0.11617794 -0.21014038 0.16081743 -0.0835598
0000a0 6b 86 34 3e 1f cf 8c be 35 a4 a5 3e b1 be 2a be
       0.17629401 -0.2750177 0.32351843 -0.16674305
0000b0 aa 22 6f be 34 f6 23 3d c5 ac 61 bd 24 8d 77 3d
       -0.23353067 0.04002972 -0.055096406 0.060437337
0000c0 1f 70 15 be 21 18 b8 be c4 51 1b 3e 0b a1 e4 3d
       -0.14593552 -0.3595591 0.1516791 0.11163529
0000d0 37 84 d7 be 7b 7a 3e be 9f d0 c5 be b4 93 6a bd
       -0.4209306 -0.1860141 -0.38635728 -0.057269767
0000e0 13 6e aa bb 59 83 8d be 2a bb 8a be 95 cc b9 3d
       -0.00520111 -0.27639273 -0.2709592 0.09072224
0000f0 3f b9 dc bc 37 23 e0 bd b6 f0 15 be 8b 2d 03 3e
       -0.026943801 -0.10944217 -0.14642605 0.12810342
000100 aa c0 f1 3d 92 9f 6d 3e 1a bc 0a 3d 4c 0a 80 bd
       0.11804326 0.23205402 0.033870794 -0.06251964
000110 bb 40 02 bd 41 59 2b 3e 41 43 54 3d 2d a5 0f 3d
       -0.031800013 0.16733266 0.05182195 0.035069633
000120 85 6a d3 3d 10 de 1e be 74 87 0c be 56 95 b5 be
       0.10323051 -0.15514398 -0.13723546 -0.35465497
000130 3a 23 51 be 36 c4 87 3d 31 93 b4 3d bd 20 03 3e
       -0.20423594 0.06629221 0.08817137 0.12805457
000140 53 01 19 3e 88 5f 44 be b1 fc 80 be 31 2f 99 3c
       0.14941911 -0.19177067 -0.25192788 0.01869926
000150 1e a8 87 3e 7d c9 ba bd 67 15 7b bd b0 56 93 be
       0.2649545 -0.09120462 -0.061299708 -0.28777075
000160 9c a9 07 3e f8 32 28 be d7 62 06 3d 55 16 65 be
       0.13248295 -0.16425693 0.032809105 -0.223718
000170 10 2f 32 3e 6e df 60 3e 71 b7 64 3e 96 06 b8 bd
       0.17400765 0.21960232 0.22335602 -0.08985631
000180 55 4a 39 3d 5c 21 cf bd 43 9b 50 3e 69 f6 4e 3e
       0.045236904 -0.10113785 0.20371728 0.20211186
000190 21 9f 66 be c0 4f 8e be ee 26 02 be 73 b4 a8 bd
       -0.2252164 -0.2779522 -0.12710163 -0.08237543
0001a0 71 a2 73 3d b3 05 4d 3e d3 6c 0e bd d7 8e 37 be
       0.059481088 0.20021705 -0.03477175 -0.17925583
0001b0 34 54 0f be 66 6c 62 3d 1a 62 a0 bd 63 64 b8 be
       -0.13996965 0.055279158 -0.078312114 -0.3601409
0001c0 4e 77 64 be c1 ac f6 3d 59 e2 47 3d 20 09 23 bd
       -0.22311136 0.12044669 0.048799846 -0.039803624
0001d0 8a 5b 86 3e cd 73 a9 be ab 21 4d 3d 65 b5 a8 be
       0.26241714 -0.3309616 0.050080936 -0.32950893
0001e0 c9 c8 23 be 07 62 6f 3e 1e 6c 82 be c7 cd 03 3e
       -0.15994562 0.23377238 -0.25473112 0.12871467
0001f0 63 d8 91 be e4 e5 06 3e cc b9 95 bd 05 7b 3c 3e
       -0.28485402 0.13173634 -0.073108286 0.18406303
000200 de a1 81 be 00 b8 fa 3d dc e6 ce 3d e6 93 05 be
       -0.25318807 0.122421265 0.10102627 -0.130447
000210 dd e6 d7 3d 91 b9 74 3e 12 e1 7a be 03 bd a7 be
       0.105420806 0.23898913 -0.2449992 -0.32761392
000220 7f 47 15 be 77 ff 7b bd 4a 3d 03 3e 1a 22 f4 bc
       -0.14578055 -0.061522927 0.12816349 -0.029801417
000230 d8 9c b7 bd 84 b7 91 3e de 09 c0 3d a2 57 5d be
       -0.089654624 0.28460324 0.09376882 -0.2161546
000240 b3 23 29 be 52 08 f1 bd 57 e3 8a 3e 78 67 2c 3e
       -0.16517524 -0.11769165 0.27126572 0.16836345
000250 00 c9 51 be b4 1c 0d be da 92 91 be eb 50 31 3e
       -0.20486832 -0.1378048 -0.2843235 0.17316024
000260 cf 81 e0 be 1a 25 66 3d f3 ac ad bd 12 14 9b bd
       -0.43849036 0.056187727 -0.08480253 -0.075721875
000270 e3 db 47 3e 35 fe df bd 50 80 d3 bd e5 63 81 3e
       0.19517474 -0.10937158 -0.10327208 0.25271526
000280 aa 7e 1a be b3 dd 15 bc 29 04 46 be 21 2a 30 bc
       -0.15087381 -0.0091470955 -0.19337524 -0.010752232
000290 2f fa 8a 3d d6 e9 ce 3d db f2 27 3e fb a3 10 3e
       0.06786 0.101031944 0.16401236 0.14125054
0002a0 d4 0d 05 3c 02 88 85 be d3 68 54 be e6 f6 75 3e
       0.008120973 -0.26080328 -0.20743112 0.24019966
0002b0 95 53 82 be f9 af 27 3d c1 4f 63 be 10 7d a9 bd
       -0.25454393 0.040939305 -0.22198392 -0.08275807
0002c0 9e b8 fa 3d 9c df 5c be 0a 65 f3 bd 31 69 cd bc
       0.12242244 -0.21569675 -0.11884506 -0.025074573
0002d0 d1 a0 c9 3d e3 f8 79 be 6d 88 f2 be 8f 18 27 3e
       0.098451264 -0.24411349 -0.4736971 0.16317962
0002e0 2f 26 39 3e 3d df 30 be a9 7a 84 3c 61 93 6c be
       0.18080972 -0.17272659 0.01617177 -0.23103096
0002f0 b6 20 91 3d 12 17 1d 3e 16 93 81 be 96 7b a6 bd
       0.07086317 0.15340832 -0.2530753 -0.08129041
000300 e3 6c 4a be 0b fe 6b 3e 00 0b 0c bd d4 68 06 be
       -0.197681 0.23046128 -0.034190178 -0.13125926
000310 9d 7f 3b 3e 28 30 2c be 33 65 b6 be 36 1a 33 be
       0.183104 -0.16815245 -0.35624084 -0.17490467
000320 28 a9 0a 3e 2f e1 c6 be 32 4c 61 be cc d8 5c 3e
       0.1354109 -0.38843676 -0.22001722 0.21567076
000330 79 a4 3a be 02 f1 df be c7 04 93 3c 69 6a 2c 3e
       -0.18226804 -0.43738562 0.017946614 0.16837467
000340 66 a5 06 3e 15 65 10 be 17 1d 9d be 10 cb 20 be
       0.13149032 -0.1410106 -0.30686256 -0.15702462
000350 2b ba cc be 84 7e 69 be ee 02 56 bd aa d0 5b 3d
       -0.39985785 -0.22802168 -0.052248888 0.053665794
000360 d6 59 16 bb 94 e2 05 be b2 c9 42 be 3f ae 51 bd
       -0.002294173 -0.13074714 -0.19022253 -0.051191565
000370 b1 10 6c be 7b 26 0d 3c ff 4f a3 bd 35 fc 80 be
       -0.23053242 0.0086151315 -0.079742424 -0.2519242
000380 74 99 05 3e c7 77 58 be 0a 70 5f 3d 33 9b 0d 3e
       0.13046819 -0.21139441 0.05455021 0.13828735
000390 02 b4 84 be 0c 32 06 be 84 9f ff 3d 74 45 ce bd
       -0.25918585 -0.13105029 0.12481597 -0.10071841
0003a0 98 bd e3 bd 06 7c 91 be d6 29 2c bd 05 0b 4e be
       -0.111201465 -0.28414935 -0.042032085 -0.20121391
0003b0 69 7b 50 3d 0e 42 65 be 8f 88 0b 3e 4a 12 8e 3d
       0.050898943 -0.22388479 0.13626312 0.06937082
0003c0 b6 d4 07 3e a9 4a 26 be 61 41 38 be 6f e6 9b 3d
       0.13264737 -0.16239418 -0.1799369 0.07612311
0003d0 84 ea e6 3d 40 90 3b 3e 52 71 e0 bd 3a 2a c9 3d
       0.11275199 0.18316746 -0.10959114 0.09822507
0003e0 57 4c 54 bd 32 1c 3f be d7 d9 60 3d fc 2f 34 be
       -0.051830616 -0.186631 0.05489525 -0.1759643
0003f0 7e a1 d6 be 4e cf ae 3c fc 58 db 3c f6 a3 68 bd
       -0.41920084 0.021339085 0.02677583 -0.05679699

sequential/lstm/Read_2/ReadVariableOp1 f4 [400]
000000 46 18 59 3d 75 ac 85 bc 40 31 69 3c f4 50 3f 3d
       0.053001665 -0.016317585 0.0142329335 0.046708062
000010 64 73 90 bd 18 41 0e 3d 83 0c 10 bd ed f6 06 bd
       -0.07053259 0.034730047 -0.035168182 -0.03295033
000020 a5 08 33 3b 4a 24 7c 3a d7 96 42 3d a0 61 32 3d
       0.0027318385 0.00096184446 0.047507133 0.043550134
000030 25 c0 e0 bb f0 ad 8a bc c5 c5 ca bc b5 35 15 bd
       -0.006858843 -0.016928643 -0.024752507 -0.036428172
000040 a2 93 fe 3c e4 04 e5 3c ff c9 ab bb 1d 60 af bc
       0.031076256 0.027956434 -0.0052425857 -0.021408135
000050 f3 99 9a 3d b3 97 22 bd 9a c5 3c bd e0 4c 32 bd
       0.07548895 -0.039695453 -0.046086885 -0.043530345
000060 15 0b 30 bc 34 0d fd 3d 8f e9 90 bc 5c 50 87 3c
       -0.01074483 0.12356034 -0.017689494 0.01651781
000070 50 65 66 bb 38 62 26 3d 11 70 c3 bc e8 6e 39 3b
       -0.0035155602 0.040621012 -0.023857148 0.0028294865
000080 84 1f 67 bc f1 9b a6 bc 36 31 3b bd e7 78 af bc
       -0.014106635 -0.02033803 -0.045701228 -0.021419955
000090 db 75 18 bd 91 f5 af bb 9b 0d 2c 3d 4d 7b 29 bc
       -0.03722177 -0.00536985 0.042005163 -0.010344339
0000a0 e6 a4 c8 bc 91 36 ed bc 77 05 5d 3b f5 b5 0d 3c
       -0.024492692 -0.028956683 0.003372518 0.008649339
0000b0 7e c0 0a bd ca 54 6b bb 51 8d c9 3b 0a 0c dd bc
       -0.03387498 -0.0035908693 0.0061508794 -0.02698328
0000c0 de 9e aa 3d 4b 86 f6 3c 8d 0c 00 3c 3d de 11 3d
       0.08331083 0.030093333 0.007815492 0.035612334
0000d0 3e a7 a6 bc b2 0f 9d 3c 92 5b a0 bb 6d 61 be 3c
       -0.02034342 0.019172523 -0.0048937285 0.023239816
0000e0 58 88 b1 3c a9 54 55 3c 12 80 f0 3d 28 b9 84 bc
       0.02167146 0.013020673 0.117431775 -0.01620157
0000f0 9e 5b 7c bc 7d f1 0b 3d 92 56 9f bd 6b 8e 67 bc
       -0.015402703 0.034165848 -0.07780184 -0.014133076
000100 f1 c9 99 3c 80 7d ef 3c 62 04 58 3d de f7 6b bc
       0.018773051 0.029234648 0.052738555 -0.014402358
000110 64 64 5e 3c f9 67 73 bb c3 c5 c9 bc 9e fa ed 3c
       0.01357374 -0.003714083 -0.024630433 0.029050168
000120 92 f1 0a 3d 8f b1 0a 3c 99 8c 2b bd b9 38 c1 3b
       0.033921786 0.008465185 -0.04188213 0.0058966544
000130 dc fa 4e bc 2b 65 34 bc ed 8f 06 3d 7f a6 70 3c
       -0.012633052 -0.011010448 0.032852102 0.014688133
000140 62 27 c1 bc 83 98 7e 3b 0c e6 0b 3d 93 f3 b6 bc
       -0.02357835 0.0038848228 0.034154937 -0.022332942
000150 57 b2 87 3c fc 2b 05 bd 28 b0 89 3c e0 6d 22 3c
       0.016564531 -0.03251265 0.01680763 0.009913892
000160 af aa 24 3d 97 6c e5 bc 6b a7 3d bd be 74 e6 bc
       0.04020184 -0.028005881 -0.04630224 -0.028131839
000170 80 bf a6 3c 15 0d 47 bc 51 43 82 bc 61 cd 95 3b
       0.020354986 -0.012149115 -0.01590124 0.004571602
000180 35 be 30 3d 2f 0e e1 bb d8 6e 95 bc a8 51 3a bc
       0.043150146 -0.006868146 -0.018241331 -0.011372007
000190 d3 b2 8a 3f 32 2d 87 3f b0 9f 8b 3f 96 0f 87 3f
       1.0835823 1.0560668 1.0908108 1.0551631
0001a0 e9 c6 83 3f 73 ca 84 3f e1 37 8e 3f a0 51 8b 3f
       1.0295078 1.0374283 1.1110803 1.0884285
0001b0 66 58 8a 3f ed 35 8e 3f 93 9c 93 3f 14 81 8d 3f
       1.0808227 1.1110207 1.1532158 1.1055017
0001c0 00 f3 87 3f d1 93 84 3f 07 47 8b 3f 55 77 88 3f
       1.0621033 1.035761 1.0881051 1.0661417
0001d0 14 87 84 3f 6a e2 8b 3f b8 87 87 3f cd a1 7a 3f
       1.0353723 1.0928471 1.0588293 0.9790314
0001e0 27 ec 8c 3f 80 e3 83 3f 69 56 86 3f 81 4b 8d 3f
       1.1009568 1.0303802 1.049512 1.1038667
0001f0 83 23 8b 3f 47 5a 92 3f ee ce 84 3f 4f c8 8a 3f
       1.0870212 1.14338 1.037565 1.0842379
000200 aa 9c 87 3f 7d 07 84 3f f2 6d 85 3f c3 8c 89 3f
       1.0594685 1.0314785 1.0424178 1.0746082
000210 39 97 8f 3f ff b8 86 3f e6 bd 89 3f 67 1b 86 3f
       1.1218024 1.0525206 1.0761077 1.0477113
000220 e2 98 88 3f 98 f0 8c 3f c1 0d 8f 3f 84 01 87 3f
       1.0671656 1.1010923 1.1176072 1.0547338
000230 24 6f 8c 3f a5 46 87 3f ee 7c 8f 3f 83 00 8b 3f
       1.0971417 1.0568434 1.121 1.0859531
000240 2e de 85 3f 23 d9 8d 3f b3 e8 88 3f ed ed 8a 3f
       1.0458429 1.108189 1.0696014 1.0853859
000250 29 07 8e 3f 83 05 93 3f 1a 46 89 3f 4e c3 94 3f
       1.1095935 1.1486057 1.0724518 1.1622102
000260 9d f1 88 3f 3a 3b 8b 3f 93 75 8e 3f 08 ad 8d 3f
       1.0698735 1.087745 1.1129631 1.106843
000270 c1 af 8a 3f 40 2e 8e 3f 81 1d 8e 3f 2d ca 89 3f
       1.0834886 1.1107864 1.1102754 1.0764824
000280 ab 5f 83 3f 9d 95 91 3f 58 64 89 3f 39 42 82 3f
       1.026357 1.1373783 1.0733747 1.017646
000290 8b 46 8c 3f 4d 67 88 3f 56 c4 85 3f dc e7 81 3f
       1.0959028 1.0656525 1.0450542 1.0148883
0002a0 9d c1 89 3f b1 b1 8a 3f 80 f0 8c 3f c7 ee 90 3f
       1.0762211 1.0835477 1.1010895 1.1322869
0002b0 a2 de 8a 3f 9e 4c 90 3f bb 2a 85 3f d2 7f 94 3f
       1.0849192 1.1273382 1.0403665 1.1601508
0002c0 5c 22 86 3f 4b 0d 8d 3f d4 ca 88 3f 52 d5 89 3f
       1.0479236 1.1019682 1.0686898 1.0768225
0002d0 b2 4f 85 3f 98 eb 89 3f 5b 7c 85 3f ae b9 85 3f
       1.0414946 1.0775023 1.0428575 1.044729
0002e0 8f f5 88 3f e7 91 81 3f 76 9c 8a 3f 6f 33 8b 3f
       1.0699939 1.0122651 1.0828998 1.0875071
0002f0 02 0a 89 3f 92 6a 81 3f 8e 2b 88 3f 04 5e 85 3f
       1.0706179 1.0110648 1.0638292 1.0419316
000300 13 ed 9a 3f 80 6f 86 3f ca df 89 3f 59 a6 8c 3f
       1.2103599 1.0502777 1.077142 1.0988265
000310 11 59 8a 3f 43 fa 86 3f 38 06 83 3f e5 6c 86 3f
       1.0808431 1.0545124 1.0236273 1.0501982
000320 64 77 e6 3b 8d 1a 6b 3c 00 1d 3f bd 25 e9 07 bc
       0.0070332754 0.014349592 -0.046658516 -0.008295332
000330 64 6a 6a 3c 90 78 d8 bc 83 01 d4 bc 94 b8 d0 3c
       0.014307592 -0.026424676 -0.025879627 0.025478639
000340 95 5b 9e bc 94 6e 95 3d dc af e4 3c 3d 36 22 3c
       -0.01933078 0.07296482 0.027915888 0.009900627
000350 ac 7c d5 bd 4a 80 17 3d df da 1c 3d 21 e9 43 3d
       -0.1042417 0.03698758 0.03829467 0.04782975
000360 67 d6 e7 bc 4e 1a 85 bd bb ef 4a bd f0 2b 71 bc
       -0.028300477 -0.06499158 -0.04954503 -0.014719948
000370 cb 45 08 3c 1e 28 b4 3c e2 80 ac 3c 18 71 79 3b
       0.008317421 0.021991786 0.02105755 0.0038061794
000380 f5 4a 48 bd d2 8c 64 3d e2 06 17 bd c9 e9 90 bd
       -0.04889961 0.05579836 -0.0368718 -0.07075841
000390 21 2f 4b bd d7 cd a5 bd 6d 80 42 bd e8 5a c0 3c
       -0.049605493 -0.080959015 -0.047485758 0.023480847
0003a0 89 16 fc 3c 00 28 7b bd 81 42 20 bc c2 d4 77 bc
       0.030772464 -0.061317444 -0.009781481 -0.015126409
0003b0 9d 92 b5 3c 41 6a 88 3d 55 ab 23 bc 78 45 98 3c
       0.022164637 0.06660891 -0.009989579 0.018587813
0003c0 2e 4a 52 3d 71 c2 1d bd ca 15 43 bd c3 9a 10 bd
       0.051340275 -0.038515512 -0.0476282 -0.035303842
0003d0 1e fc 52 bd fe 48 27 3d d3 91 db bb 55 9e 32 3d
       -0.05150997 0.040841095 -0.006700733 0.04360803
0003e0 bb 81 11 3d a7 52 80 bd 6d bd 88 3d 0e 80 9c bc
       0.03552411 -0.06265765 0.06676755 -0.01910403
0003f0 63 0d 52 3d da 31 1f bd 00 f2 bb 3d ac 97 fa 3b
       0.051282298 -0.0388659 0.09177017 0.007647475

while/MatMul_11 f4 [400, 100]
000000 73 f0 00 bd 91 18 3b bb 56 f4 02 be 0c 8d 28 bd
       -0.03147931 -0.0028548578 -0.1278852 -0.041150138
000010 75 03 10 3e 04 78 fb b9 37 d5 df 3d 69 0c 01 bd
       0.14063819 -0.0004796387 0.109293394 -0.031505976
000020 f1 31 6d 3c 09 f4 61 3c 1d b0 b5 3d 21 f0 25 3e
       0.014477239 0.013791093 0.088714816 0.16204883
000030 a1 c6 a9 bd 50 0d 48 bd 61 1b 4e bc 63 af f4 bb
       -0.082898386 -0.04884082 -0.01257977 -0.007467197
000040 b2 fe 69 bd 9e 66 c9 bd 87 39 f4 bc 8f 76 0c bd
       -0.057127662 -0.09834026 -0.029812587 -0.034292754
000050 d0 ee 73 3d 96 e7 12 be d1 ee 6e 3c d2 dc fc bd
       0.05955392 -0.14346156 0.014583305 -0.12346806
000060 48 df 5f bc a4 bb ce 3d fe ea 69 3d 92 22 01 bc
       -0.013664074 0.10094383 0.05710887 -0.007881777
000070 fe f7 d5 3d 3b 18 01 be 8d 09 a3 bc 98 5e 3e bb
       0.104476914 -0.126069 -0.019902015 -0.0029048081
000080 be b9 4b 3c 99 22 a4 3d d1 91 c7 bd cd 5b b3 3d
       0.012434421 0.080144115 -0.09744609 0.08757744
000090 cb 5b d8 bd 88 20 20 3c 07 90 e4 bd ad d4 7f bd
       -0.10564383 0.009773381 -0.111602835 -0.062458683
0000a0 9c 07 b7 3d aa c0 6b ba ad 50 97 bd bb da 39 3d
       0.08936998 -0.0008993248 -0.073884346 0.045374613
0000b0 e3 d1 06 be 02 f5 b0 3d 52 b5 68 3c 55 24 d4 3d
       -0.13166003 0.086404815 0.014203386 0.10358492
0000c0 cd 22 84 3d f2 bd c2 39 4a 65 0b 3d f9 73 eb bc
       0.0645195 0.00037144084 0.034032144 -0.028741824
0000d0 51 f4 c5 bc f9 89 28 bd 55 9d e7 3c ce a4 0b 3d
       -0.02416435 -0.041147206 0.028273264 0.034092717
0000e0 0d 0e 8b bd b4 7d 5c 3d 3e a9 5e 3d e8 c8 15 3c
       -0.06789789 0.053830817 0.05436062 0.009142138
0000f0 45 05 f9 3c 99 78 be 3d fa df c5 bd 7b 68 5a 3d
       0.03039802 0.09300346 -0.09661861 0.053322297
000100 bb 67 ea 3c 8b 63 6b 3d 32 63 ca bd 03 6b 2a 3d
       0.028613916 0.05746798 -0.09882201 0.04160596
000110 83 20 b7 bc 95 77 56 bc c3 8c 69 bd 44 5e 8e 3a
       -0.02235437 -0.013090034 -0.057019006 0.0010861834
000120 a5 8c 2e 3d 25 e4 6c 3d c9 08 4a bb 0e 0d 98 bd
       0.042614598 0.057834763 -0.003082799 -0.07424365
000130 86 a7 d9 bd 6e 57 91 bd 9f 62 c6 bd 81 49 45 3e
       -0.10627656 -0.07096754 -0.09686779 0.19266321
000140 24 1a 12 3e bf d3 0f 3e 6d 6c 2a 3c 45 be c5 bd
       0.14267784 0.14045618 0.010401827 -0.09655432
000150 8d f1 8b bd aa 63 35 bd 37 14 b9 3d fd 4b dc 3b
       -0.068331815 -0.0442845 0.09037059 0.0067229257
000160 93 67 68 3c a9 8c 85 bd cf ee a6 3b a7 8d a4 bc
       0.01418485 -0.065209694 0.005094386 -0.020087076
000170 9c a6 c0 3d 92 0f b8 bd 56 ce af bc 01 67 f7 bc
       0.09406778 -0.08987345 -0.021460693 -0.030200483
000180 80 ac 94 3d 28 f0 29 3d 78 e3 b9 3d 06 2a 8f b9
       0.07259464 0.041488796 0.09076589 -0.00027306395
000190 4c a3 cf 3d 74 2e 32 ba 8d 47 ff 3d 7f 10 9d bd
       0.10138568 -0.0006797083 0.12464819 -0.07669162
0001a0 01 95 16 bd 86 d9 62 3d 31 be 06 be dc a5 d4 3d
       -0.036763195 0.055383228 -0.1315849 0.10383198
0001b0 35 0f 26 bc 19 00 7f bd fd f3 a1 bd 20 99 49 bd
       -0.010135462 -0.062255953 -0.07907865 -0.049218297
0001c0 c4 9e 59 3e 5b 4e 31 bb 11 39 58 3d 11 1b c1 bd
       0.2125197 -0.002705476 0.052788798 -0.09428991
0001d0 48 3e 8e bd a9 40 6d 3d a1 e8 b6 bd 8b 0c 87 bd
       -0.06945473 0.057922993 -0.08931089 -0.06594189
0001e0 d1 55 1d bb 6f 9a ea 3d f9 49 e0 bc cf 05 05 bc
       -0.002400745 0.11455237 -0.027379023 -0.008119061
0001f0 ac 7d e2 bd 89 4a 9e bd e3 99 2f 3c 11 ab 2b bd
       -0.11059126 -0.0772906 0.010717842 -0.04191119
000200 28 9b 20 bd 9c 04 07 3c 47 45 81 bb 05 55 87 3d
       -0.03921047 0.008240845 -0.003945026 0.06608013
000210 ad 93 06 3d ad da 87 3d cc fe f0 3c 00 e0 a0 bd
       0.03285568 0.06633506 0.029418372 -0.078552246
000220 38 77 c7 bc 06 f7 ca 3c 88 8d 19 3e 53 b7 1a 3c
       -0.02434884 0.024775993 0.14995396 0.009443122
000230 89 3a 09 3d 1d bd df bb 46 2e c5 bd b2 43 6a 3d
       0.03350309 -0.006827964 -0.096279666 0.057193466
000240 44 f5 01 3e be 92 30 bd d2 cb e0 bc 75 e0 85 bd
       0.12691218 -0.043108694 -0.02744094 -0.065369524
000250 7a 78 0a 3d f6 9d be 3c 53 04 40 3d 9b bc 83 3d
       0.0338063 0.023268681 0.046879124 0.06432458
000260 07 dd c9 bd 2d ce 26 be 45 24 18 3e 15 44 ad 3d
       -0.09856611 -0.16289587 0.14857586 0.08460251
000270 89 fa 11 3d 46 1f a5 3c 83 5c cb bc f6 72 88 3d
       0.03563932 0.020156514 -0.024824386 0.06662552
000280 3a e7 9c 3d c2 cb cb 3d fa fb 43 3d 67 b3 33 be
       0.076612905 0.09950973 0.047847725 -0.17548905
000290 10 98 50 bd dd 5f c4 bc 94 36 d6 3d c8 80 60 bc
       -0.050926268 -0.023971492 0.10459629 -0.013702579
0002a0 9f 27 5a 3b ce 1f 0f 3d d0 2d e1 3d 7c a3 99 3d
       0.0033287776 0.03494244 0.10995066 0.07501885
0002b0 6f 15 02 3d 36 d9 83 bb fb a6 b3 bd 24 27 c1 bb
       0.031758722 -0.0040236963 -0.08772083 -0.0058945585
0002c0 71 f9 88 3d 85 6b 5f bc ed 0f 1b 3d f0 3f d0 bc
       0.06688202 -0.0136364745 0.037856985 -0.025421113
0002d0 1d ad 78 bc 87 4f 60 3d b8 18 ea bd 9c be 73 3d
       -0.015177992 0.054763343 -0.11430496 0.05950795
0002e0 0b 71 3b 3d d2 fa 9a bd 7c ee dd bd 11 05 14 bd
       0.045762103 -0.075673714 -0.10836503 -0.036137644
0002f0 80 f3 05 3d cd 35 92 bc 8a e8 75 3e e2 88 fe bc
       0.032702923 -0.01784792 0.24014488 -0.03107113
000300 38 42 30 3d 14 28 c7 3c 67 e8 01 bd d5 26 88 bd
       0.0430319 0.024311103 -0.031715777 -0.066480316
000310 86 8c ad bd 45 ea 48 bd 8b 8c 06 bd fc 2d 77 3d
       -0.08474068 -0.04905154 -0.032848876 0.06034659
000320 65 f4 34 be 99 98 78 bd 92 ad 5b 3d 9c 11 e2 3c
       -0.17671354 -0.060692403 0.053632326 0.027596287
000330 57 11 1d bd 1d 31 7f bc 6d bd 89 bd 0d 4e 9f 3d
       -0.038346615 -0.015575674 -0.06725583 0.07778559
000340 2d cd 95 3d d7 99 52 bd 4b 1f 79 bc 73 ea ae 3c
       0.07314525 -0.051416244 -0.015205215 0.021352028
000350 13 2e 9a bd e5 ec 3a bd 01 f2 7f 3d 0a 32 32 bd
       -0.07528319 -0.045636076 0.062486652 -0.043504752
000360 c3 7b 79 bd 84 7e 83 3d af bd 24 be 6d c6 c8 bc
       -0.060909044 0.06420615 -0.16087984 -0.02450868
000370 57 e4 91 3d 33 70 82 3c 7b 8d 1e bd 24 08 71 3d
       0.071236305 0.015922641 -0.038709145 0.058845654
000380 b6 c4 03 3c 36 ff c6 3d ea ba f7 3a 6c 57 e6 3c
       0.008042505 0.097166464 0.0018900309 0.028117858
000390 49 c4 85 3d e8 01 37 3b b5 80 05 be d0 ac 70 3c
       0.06531579 0.002792472 -0.13037379 0.014689639
0003a0 16 50 1b bd 98 9e 81 3d 93 80 76 3c 7a 84 f5 3d
       -0.037918173 0.063290775 0.015045303 0.119881585
0003b0 45 f4 ad bc f2 c1 7c 3c e6 12 17 be 9c 46 b7 3d
       -0.02123464 0.0154271 -0.14753303 0.089490145
0003c0 ae aa 99 3b 78 40 88 bd 68 75 f8 bc ee a9 8d bc
       0.004689536 -0.066529214 -0.030329421 -0.017292943
0003d0 6c ee e9 ba d9 4e 58 3d 2f a2 29 3d e7 02 c5 3c
       -0.0017847545 0.05280957 0.041414436 0.024049236
0003e0 5d e3 08 3d de 71 ae bb 59 6d f5 bd 66 0b a8 bd
       0.033419956 -0.0053236326 -0.11983747 -0.08205299
0003f0 d1 a8 82 3d 08 dd 3f 3d e5 50 e8 bd 29 68 21 be
       0.063798554 0.04684165 -0.113435544 -0.1576239

while/MatMul f4 [400, 6]
000000 22 3a 39 3d 63 e0 f4 3c 0e b7 32 3d b0 cd 81 3c
       0.045221455 0.029892152 0.043631606 0.01584515
000010 b6 e5 e0 bc e4 c9 87 be ac 34 09 3d 23 41 88 bd
       -0.027453285 -0.26521218 0.033497497 -0.06653049
000020 cb 91 9b bd 02 26 0c be fd c6 59 bd 07 82 8e 3d
       -0.07596167 -0.13686374 -0.053168286 0.069583945
000030 e0 68 db bd 4e e7 10 be eb f0 c9 3c 4e 1b d2 3d
       -0.10713363 -0.14150736 0.024651011 0.10259114
000040 62 61 4a 3d e7 e4 9e 3d 87 bf bd bd 2f 32 60 bd
       0.049409278 0.077585034 -0.092650466 -0.05473536
000050 c7 49 0d 3c 47 6e d5 bd 30 35 c5 bd bb d7 d1 3d
       0.008623547 -0.10421424 -0.09629285 0.102462254
000060 f0 99 4b bd 63 0a c8 3d 8d 47 35 3e 1b 86 8e 3d
       -0.049707353 0.09767606 0.17703076 0.06959172
000070 1e 1b 0a 3e 55 f8 8a bd a5 6b 59 bd 4f 71 cc 3c
       0.13486907 -0.06785647 -0.053081173 0.024956373
000080 76 96 54 3c c8 3a 30 3e 09 6d 79 3e 77 56 fb 3d
       0.012975326 0.17209923 0.24358 0.12272351
000090 f7 2a b6 3d 1e bc 13 3d 15 ad 7a 3e 01 c4 4a 3e
       0.08894914 0.036068074 0.24480088 0.19801332
0000a0 2d 6c 1d be 8e 83 76 bc 88 69 11 3e b1 74 7d bd
       -0.15373297 -0.0150460135 0.14200413 -0.061878864
0000b0 0f 23 f7 bd b0 37 ae 3c 07 07 db bd 2a 6c 72 be
       -0.12067234 0.021266788 -0.106947 -0.23674074
0000c0 52 39 fd 3d d3 bf 53 3d 28 a9 3c 3e 3a 31 42 ba
       0.123644486 0.05169661 0.18423903 -0.0007407848
0000d0 6a 23 22 3d 86 e3 c4 3c 36 5e 8a 3e 8e 7d 62 3e
       0.039584555 0.024034273 0.27025002 0.22118208
0000e0 89 a9 1f be 9c 35 07 3d ce 63 ba 3d 0c 7f a0 3d
       -0.15592016 0.03301011 0.091010675 0.07836732
0000f0 07 e8 76 3d 3f 86 a0 3c 16 26 70 3d 38 97 96 3d
       0.060279872 0.019595264 0.05863007 0.073530614
000100 36 7a 3a be 7c e9 58 3d 3e b7 ec 3d 0e 9e 3d 3d
       -0.18210682 0.052957043 0.11558388 0.04629331
000110 a1 c5 07 bd c8 af 5c be 3d 5b 04 3e e5 67 5b bd
       -0.033147458 -0.2155143 0.1292543 -0.05356588
000120 85 e1 ed 3d 5f f4 65 3d 13 24 a9 3d 9b ed 3f 3e
       0.1161528 0.056141254 0.08258834 0.18742983
000130 92 da 9f 3c 15 4f e3 bd 58 32 14 bd c4 f2 44 be
       0.019513402 -0.11099068 -0.036180824 -0.19233233
000140 86 54 91 bd 40 19 a1 3d 39 b5 44 3d b3 14 5a bc
       -0.070962 0.07866144 0.04802439 -0.013310599
000150 bb e7 82 bc 60 ce 41 3e 43 5f 19 3d 7b e8 03 bd
       -0.015979638 0.18926382 0.037444364 -0.032204133
000160 5b bf a4 3d 8a 73 1a 3e 03 7f c4 3e 27 09 92 3e
       0.08044311 0.15083137 0.38378152 0.28522608
000170 13 ac 05 3e f4 f4 8a be b6 ee 35 be 45 f7 40 3d
       0.13053922 -0.2714001 -0.17766842 0.047110815
000180 79 f2 c3 bd a3 fc 35 3d ee af 56 3e 61 46 c9 3d
       -0.09567732 0.044430386 0.2096555 0.09827877
000190 d8 b8 19 3a 25 a2 86 3e bc 80 75 3e ca ee f8 3d
       0.00058640307 0.2629558 0.2397489 0.121549204
0001a0 30 d5 ba bc 78 69 80 3e d0 1f d6 3e 8e c4 8d 3d
       -0.022806734 0.25080466 0.41821146 0.069222555
0001b0 c8 3b a0 be 57 2a e1 bc 4c ef 2c be 54 6a 27 be
       -0.3129561 -0.02748601 -0.1688816 -0.16349155
0001c0 f9 35 91 be b9 ec 84 be af d3 da bd 32 6b f1 3d
       -0.2836149 -0.25961855 -0.10684907 0.11788024
0001d0 87 f5 9f 3e 49 a2 8a 3e bc 35 02 3e 05 13 e0 3d
       0.3124201 0.2707694 0.1271581 0.10941128
0001e0 88 fa d7 ba 3e a9 1b be 68 c6 51 bb b6 98 38 3d
       -0.0016477862 -0.1520128 -0.0032009128 0.04506751
0001f0 cf 43 7a 3d 51 13 be 3c 6b 4f 02 3e 6c b8 0f 3e
       0.061099824 0.02320257 0.12725608 0.14035195
000200 82 0e d2 3c 62 ba ad 3d 4d bf d6 bd ef fc 11 3e
       0.025641683 0.08482815 -0.104857065 0.14256643
000210 bf c4 88 be 11 b5 07 3e e2 11 4b be 5d 19 94 bc
       -0.26712605 0.13252665 -0.1983104 -0.0180785
000220 20 5f cc 3d 80 e2 39 3d e2 b0 40 3d 0d c5 7a 3e
       0.09979081 0.045382023 0.04704369 0.24489231
000230 ce d4 cc 3d c5 bc ae 3d a7 34 1e bc 10 de be bc
       0.10001527 0.08532099 -0.009656108 -0.023299247
000240 af c8 1f 3b cd 19 15 be cd 8e 2c be 0b 73 84 be
       0.0024381091 -0.14560623 -0.16851349 -0.2586902
000250 5d e4 b1 bd 89 a0 88 be 06 35 8b 3d 5b 84 a9 3d
       -0.08686135 -0.2668498 0.06797223 0.08277198
000260 13 d7 f2 3d f5 ee 12 bd 7e 2c de bd b4 67 8c 3d
       0.118574284 -0.03587242 -0.1084833 0.06855717
000270 f9 77 0b bd 6c f0 86 b9 bb 43 c7 bd ad 60 d2 bd
       -0.03404996 -0.000257376 -0.097297154 -0.10272346
000280 48 65 2f 3b 8f 5b 0a be c2 32 85 3d ce 7d e7 bd
       0.002676325 -0.1351149 0.06503822 -0.11303292
000290 53 aa 8d bd f2 e1 f8 3d 4d 2c cd 3d 8d b9 87 3e
       -0.069172524 0.12152471 0.10018215 0.26508752
0002a0 b1 59 52 bd 7a ed 5f bd d1 54 00 be 62 91 17 3d
       -0.051355068 -0.054669835 -0.12532355 0.037003882
0002b0 6f 72 ac 3d f8 98 ed bd 05 5a aa 3d cf 28 71 3d
       0.08420264 -0.11601442 0.08317951 0.05887681
0002c0 48 e8 53 bd 07 8a f7 3d 2d ba e9 bd b7 66 9e 3d
       -0.051735193 0.120868735 -0.11412463 0.07734435
0002d0 b9 da 8c bc 14 b7 45 be d3 68 e1 bc 77 bd 3f be
       -0.017194139 -0.1930812 -0.027515804 -0.18724619
0002e0 e9 73 b1 bd 3c 3c 8e 3c cf 56 6f 3e f3 f5 12 3e
       -0.08664686 0.017362706 0.23372959 0.14351635
0002f0 26 ac c1 3d f5 58 9d bc a3 90 10 3e 2a 47 0a bd
       0.09456663 -0.019207457 0.14117675 -0.033759274
000300 15 c3 86 be 9b ae 9f be bc 0e 4f be 0e 26 05 be
       -0.2632071 -0.311879 -0.20220464 -0.13002798
000310 fb 30 20 3e 34 55 2c 3e 0b 92 2a 3e 2e f1 2d bd
       0.15643685 0.16829377 0.16657273 -0.042466335
000320 91 81 20 3e e4 9b 6f 3e 02 0f e7 3d 93 0f 11 bd
       0.15674426 0.23399311 0.112821594 -0.035415243
000330 c0 86 fc 3d 5b 21 16 3d 4e 7c 2b 3c b6 14 f5 3d
       0.12330389 0.036652904 0.010466648 0.11966841
000340 e3 80 8c bd c6 f2 7a 3e 7a f9 0c 3d 33 7e 2d be
       -0.06860521 0.24506673 0.034417607 -0.16942672
000350 ca 2b 99 3d 81 b5 a7 bd e4 4a 90 3d 44 13 dd 3d
       0.07479055 -0.08188916 0.07045534 0.1079469
000360 c1 fa 0a 3e f5 fe b6 bd 4d 9d 2c 3d 84 c6 14 3e
       0.13572218 -0.08935348 0.0421422 0.14528853
000370 51 3b 32 3e fa 43 d0 bd c5 e5 1f be 2e 36 b4 bd
       0.1740544 -0.101692155 -0.15614994 -0.087993965
000380 3e 57 f0 bd 7e 37 c6 3b 12 83 0a be a9 55 78 bd
       -0.1173539 0.0060490957 -0.13526562 -0.060628567
000390 08 2a 21 be 00 4b 42 3d c4 5e 79 3d ab a9 8f bd
       -0.1573869 0.047434807 0.06088139 -0.070147835
0003a0 0c 6b 48 be 4c 05 92 3d 6b c0 0c be fd f2 8b bd
       -0.19572085 0.071299165 -0.13745277 -0.06833456
0003b0 b7 4a 26 3e b1 0d c8 3e 1f 6f 9c 3d 05 f2 08 bd
       0.16239439 0.39072946 0.07638382 -0.033433933
0003c0 fb a1 99 3c 01 ef 92 3e d2 f2 cf 3e cc 79 ce 3e
       0.018753996 0.2869797 0.40614945 0.403273
0003d0 24 de 54 3e a2 41 c7 3e b6 90 bb bd 2a e9 1a 3d
       0.20787865 0.3891726 -0.09158461 0.03782002
0003e0 34 a5 ae bc fb cd 61 bc 23 98 ba 3c 8b 93 00 be
       -0.02131901 -0.01378202 0.022777623 -0.12556283
0003f0 e2 54 ef bc ee 69 07 3c c0 8c d0 3d 1f 16 17 3e
       -0.02921528 0.008265002 0.10183096 0.14754532
